trained_models/20200101/compas/reweighting/mlp_sex_seed0_epochs50_bs128_lr0.0005_decay0.0005_constrainteo_eta9.0_iter10.pt (torch, 82643 bytes, 4 tensors)

features.0.weight f4 [50, 401]
0.011570573 0.035020247 -0.041816644 -0.04625773 -0.02935607 0.0001333301 -0.0052706855 0.04943987
-0.015515712 0.0025582423 -0.0044230935 -0.003991188 -0.03379314 -0.022992574 -0.016352443 0.008224522
0.016706605 0.026141215 -0.028731216 -0.013053242 0.0044038217 0.032146253 -0.006733693 0.038420387
-0.004615203 0.005319656 0.04822729 -0.03617954 -0.018731637 -0.005165602 -0.01619795 0.03652322
-0.017682495 -0.013036247 -0.020130264 -0.032897923 -0.016744439 0.0428384 0.00810646 0.013387053
0.00273584 -0.017920911 0.0059615965 -0.032761525 -0.024454936 -0.0113352835 0.028461367 0.02805407
-0.007981556 0.007874014 0.018212324 0.034632005 0.0058757314 -0.0010435088 0.019205762 -0.024120823
0.014938785 -0.02532104 -0.019860212 -0.01393638 0.024187902 0.019535678 -0.01964468 0.011145562
0.023582224 -0.008446786 0.0042969333 -0.0004352144 0.032315575 0.043885704 -0.03327138 -0.011365031
0.021343062 0.027379831 0.046067845 0.03140842 0.0074549313 -0.029725006 0.0024053294 -0.016592119
-0.031564966 0.03734647 0.036697038 -0.03581014 -0.0012763882 -0.0125847645 0.0013711309 -0.008637565
0.01912577 -0.021635031 0.015861176 0.021914085 0.03989336 0.0048658657 -0.0381903 -0.019577034
0.010572507 -0.00094825623 -0.024104293 -0.02124971 0.03199844 0.029245926 -0.018057797 -0.0020868839
-0.03477108 -2.6694828e-05 -0.02429529 -0.025943888 0.002543656 0.007386582 -0.009832047 0.015041561
-0.015770055 0.03035402 0.028655786 -0.027202604 -0.00895825 0.004988452 0.0053657717 -0.00028790583
0.016193077 0.0003722164 -0.010039301 0.009352344 -0.03397926 -0.015009366 -0.0050999653 -0.010001193
-0.0038340816 -0.033078205 -0.007569467 0.0128588695 -0.022549659 -0.00022168174 0.03819517 -0.002743446
1.4012553e-05 -0.002387179 0.011812341 0.035949156 0.044076744 0.017048202 0.043307405 -0.0010572256
-0.03174235 -0.01224233 0.019268466 0.0029563725 -0.010466109 -0.02490564 -0.037649967 -0.027238224
-0.005268757 0.012892548 0.02070337 -0.03316626 0.017152209 -0.02422299 -0.0050397315 -0.014267511
-0.005096029 -0.010523048 -0.03223569 -0.031597026 -0.0033208327 0.0029495803 -0.018915592 0.02024151
-0.031822868 0.0032359464 0.04116885 -0.011176739 0.04241951 0.014394126 -0.030112313 0.025561636
0.00014338332 -0.017142417 0.036678817 -0.02760204 0.0038495075 -0.0042322944 0.028407814 0.0010535603
0.015879478 0.008534701 -0.0048774863 0.0009287665 -0.02892357 0.013919401 0.03896005 0.0336764
-0.025576087 0.0040148487 -0.02518492 -0.020702606 -0.016700137 0.018936515 -0.018346678 -0.00015714784
0.0057973987 0.024494294 -0.024426874 -0.021266438 -0.017719286 0.03496126 -0.008132452 0.029461207
0.016903158 0.0076707457 0.0013213219 0.0011460381 0.0077951634 -0.007070283 0.0043706484 0.009263007
-0.02564034 -0.014244581 0.025446687 -0.027003912 -0.0005307869 0.0418435 0.0043189093 -9.027272e-06
-0.03480859 0.02805534 -0.020794049 -0.010935564 -0.010828235 0.0012548213 0.0030526076 0.02629577
0.0012680795 0.040131852 0.031851158 -0.01884926 0.019723056 -0.026783794 -0.010346486 0.004976997
0.011662714 0.025721027 -0.008424282 -0.0020698884 0.030511336 -0.033297494 0.02512421 -0.026399534
-0.0060581574 0.0013737252 -0.01434882 0.0048811715 0.034989767 -0.0061460473 -0.019059218 -0.011477011
00000000: 8092 3d3c 6471 0f3d ee47 2bbd bf78 3dbd
00000010: 247c f0bc 87ce 0b39 b7b5 acbb 7681 4a3d
00000020: 9d35 7ebc 2fa8 273b 99ef 90bb 83c8 82bb
00000030: ad6a 0abd ec5a bcbc 8ff5 85bc 25c0 063c
00000040: 4adc 883c 1a26 d63c ba5d ebbc 44dd 55bc
00000050: ef4d 903b caab 033d 50a6 dcbb b25e 1d3d
00000060: 213b 97bb 8250 ae3b fb89 453d ff30 14bd
00000070: 1773 99bc 3644 a9bb 90b1 84bc 5f99 153d
00000080: e1da 90bc fc95 55bc 39e8 a4bc f9bf 06bd
00000090: a22b 89bc 5177 2f3d f5d0 043c 5f55 5b3c
000000a0: c74b 333b e0ce 92bc 7f59 c33b f330 06bd
000000b0: b855 c8bc a0b7 39bc d027 e93c a6d1 e53c
000000c0: 12c5 02bc 0202 013c 0332 953c 4ada 0d3d
000000d0: 3589 c03b 58c6 88ba 6755 9d3c 0899 c5bc
000000e0: cec1 743c 126e cfbc e2b1 a2bc 6a55 64bc
000000f0: b525 c63c 4909 a03c e1ed a0bc e09b 363c
00000100: 822f c13c 6364 0abc 4acd 8c3b 7d2d e4b9
00000110: 565d 043d 7fc1 333d 9247 08bd 6534 3abc
00000120: a5d7 ae3c ab4b e03c a3b1 3c3d 1ea6 003d
00000130: 7f48 f43b db81 f3bc bba2 1d3b 32ec 87bc
00000140: 444a 01bd 9df8 183d a24f 163d a7ad 12bd
00000150: 7b4c a7ba 5430 4ebc 85b7 b33a 9384 0dbc
00000160: a6ad 9c3c f33b b1bc 4cef 813c 2b85 b33c
00000170: 3867 233d d771 9f3b 6f6d 1cbd 0460 a0bc
00000180: 4f38 2d3c 6694 78ba 5e76 c5bc df13 aebc
00000190: cc10 033d 2795 ef3c f2ed 93bc 1ac4 08bb
000001a0: 1f6c 0ebd b5ee dfb7 ea06 c7bc 4788 d4bc
000001b0: 77b3 263b 240b f23b 9816 21bc e170 763c
000001c0: 3430 81bc fea8 f83c 8abf ea3c ffd7 debc
000001d0: a0c5 12bc 2b76 a33b 5bd3 af3b 11f2 96b9
000001e0: 58a7 843c 0a26 c339 e17b 24bc 933a 193c
000001f0: d62d 0bbd d8e9 75bc 9c1d a7bb 0bdc 23bc
00000200: 3745 7bbb 037d 07bd 4b09 f8bb 02ae 523c
00000210: 10ba b8bc 3d73 68b9 8a72 1c3d 63cb 33bb
00000220: 7517 6b37 3872 1cbb 8d88 413c 6c3f 133d
00000230: d189 343d aca8 8b3c 1b63 313d 9b92 8aba
00000240: 4404 02bd 0e94 48bc e7d8 9d3c b3bf 413b
00000250: 0b7a 2bbc ea06 ccbc da36 1abd b222 dfbc
00000260: 8aa5 acbb 443b 533c 1d9a a93c 58d9 07bd
00000270: ca82 8c3c 4b6f c6bc 5524 a5bb 47c2 69bc
00000280: 97fc a6bb dd68 2cbc 9209 04bd e26b 01bd
00000290: 54a2 59bb bf4d 413b dff4 9abc 86d1 a53c
000002a0: b258 02bd 2c12 543b aba0 283d a41e 37bc
000002b0: 15c0 2d3d 57d5 6b3c 19ae f6bc a366 d13c
000002c0: 2b59 1639 416e 8cbc 873c 163d ac1d e2bc
000002d0: 0548 7c3b 0faf 8abb 81b7 e83c 9e17 8a3a
000002e0: ae15 823c 21d5 0b3c 52d3 9fbb 7778 733a
000002f0: 1ff1 ecbc 330e 643c 9394 1f3d 44f0 093d
00000300: f184 d1bc fe8e 833b 9b50 cebc 8398 a9bc
00000310: bace 88bc c020 9b3c c64b 96bc 0dc8 24b9
00000320: 1bf8 bd3b 42a8 c83c de1a c8bc f436 aebc
00000330: 0928 91bc 8a33 0f3d fa3d 05bc a158 f13c
00000340: 7e78 8a3c e15a fb3b 3530 ad3a a836 963a
00000350: 926e ff3b d5ad e7bb a837 8f3b dec3 173c
00000360: b10b d2bc 1a62 69bc 9275 d03c 4f37 ddbc
00000370: 8224 0bba 1764 2b3d a385 8d3b d773 17b7
00000380: 7493 0ebd 50d4 e53c 4858 aabc 142b 33bc
00000390: e968 31bc d178 a43a 420e 483b 3a6a d73c
000003a0: b035 a63a 4c61 243d 5c76 023d c369 9abc
000003b0: 3f92 a13c b069 dbbc 4f84 29bc 1416 a33b
000003c0: f814 3f3c e7b4 d23c 0006 0abc f7a6 07bb
000003d0: e9f2 f93c f462 08bd 4ad1 cd3c d643 d8bc
000003e0: 8283 c6bb 920e b43a 5017 6bbc 3cf2 9f3b
000003f0: 6e51 0f3d c864 c9bb 1422 9cbc 130a 3cbc

features.0.bias f4 [50]
0.015711384 -0.0151209915 0.0039614816 -0.04017053 -0.017410625 0.013572412 0.03139758 0.04658744
0.021381067 -0.03874363 0.02308699 -0.04315579 0.0018433891 0.026293179 0.043205164 0.01688033
0.014834618 0.038250193 0.04339458 0.037147142 -0.014553601 0.008460884 -0.05166916 -0.022640776
0.024937099 0.022033768 0.031143393 -0.0025741698 -0.003001462 0.047169816 0.030770695 -0.02777075
0.007980816 0.0043791495 0.018519342 -0.03361849 -0.020154847 -0.013441981 0.0377332 0.010468663
0.02566438 0.025368186 0.041329753 -0.030170409 -0.0074955854 0.028759506 0.010605493 0.038185515
-0.04739392 -0.01891524
00000000: 29b5 803c 09be 77bc 51cf 813b db89 24bd
00000010: baa0 8ebc d25e 5e3c c09a 003d 79d2 3e3d
00000020: 5927 af3c a4b1 1ebd ed20 bd3c 20c4 30bd
00000030: e09d f13a cb64 d73c e6f7 303d 9e48 8a3c
00000040: e60c 733c 3cac 1c3d 84be 313d 9a27 183d
00000050: 3a72 6ebc 859f 0a3c 0ba3 53bd 2679 b9bc
00000060: e348 cc3c 2980 b43c 6e20 ff3c 67b3 28bb
00000070: 2db4 44bb 2335 413d d312 fc3c 7c7f e3bc
00000080: f8c1 023c f87e 8f3b e0b5 973c 8bb3 09bd
00000090: c71b a5bc c13b 5cbc 218e 1a3d c184 2b3c
000000a0: 1b3e d23c f1d0 cf3c 6349 293d ef27 f7bc
000000b0: 879d f5bb 0e99 eb3c a9c2 2d3c 6a68 1c3d
000000c0: 2120 42bd 22f4 9abc

head.weight f4 [2, 50]
-0.09669799 0.021915557 0.05794957 -0.09047435 0.11518895 0.008169316 -0.13995546 -0.14388198
0.04033355 0.029664883 -0.095983155 0.041254517 0.08337177 0.101667695 -0.025805058 -0.056092463
0.043610368 -0.08848264 -0.12877007 -0.037619315 0.010873167 0.03370738 0.10402559 -0.020463651
-0.0955944 -0.0047254637 0.034702852 0.1214774 0.09194901 -0.13908921 0.019966844 0.06874211
-0.052679222 0.0590035 -0.019203966 -0.06258222 -0.06047806 0.07492012 0.11020416 0.11779688
0.013949519 -0.01262676 0.07795787 0.10572152 -0.01796711 -0.050588455 -0.09568608 0.057261195
-0.12692347 0.04138117 -0.11472987 0.14373386 -0.13125172 -0.0751195 -0.012030036 -0.029446926
-0.012430386 -0.06910591 -0.017537888 -0.0881675 -0.12986559 -0.12632811 0.1209183 0.038404312
0.13448453 0.027574029 -0.03946524 -0.010852858 -0.13350539 0.13269849 0.09787954 -0.051898096
0.04324585 0.09102309 -0.05796792 -0.078660406 -0.08906433 -0.12820576 0.14170319 0.012928962
-0.010871372 0.020158894 -0.09990202 0.11452624 -0.1280927 0.11422595 -0.08964085 0.06698564
0.0068470193 -0.12940937 0.12639754 0.09189452 0.04552958 0.071354434 -0.12373207 0.045624003
0.06255483 0.097642735 -0.1349159 0.0064499155
00000000: 9909 c6bd 4188 b33c 875c 6d3d 9e4a b9bd
00000010: 2fe8 eb3d 98d8 053c 7c50 0fbe cc55 13be
00000020: cb34 253d c503 f33c d192 c4bd 7ffa 283d
00000030: d2be aa3d 2737 d03d 2165 d3bc 36c1 65bd
00000040: c9a0 323d 6336 b5bd 4ddc 03be b616 1abd
00000050: 5e25 323c c010 0a3d 5e0b d53d 63a3 a7bc
00000060: ffc6 c3bd 10d8 9abb 9424 0e3d 25c9 f83d
00000070: c34f bc3d 676d 0ebe 8291 a33c aac8 8c3d
00000080: 2bc6 57bd a7ad 713d a351 9dbc 1b2b 80bd
00000090: d8b7 77bd b86f 993d b8b2 e13d 7e3f f13d
000000a0: 868c 643c 78e0 4ebc 60a8 9f3d 8684 d83d
000000b0: c32f 93bc d735 4fbd 10f7 c3bd b78a 6a3d
000000c0: 3af8 01be 4d7f 293d 7ef7 eabd f82e 133e
000000d0: da66 06be 41d8 99bd a119 45bc ae3a f1bc
000000e0: d1a8 4bbc 6687 8dbd 9eab 8fbc 2a91 b4bd
000000f0: 7cfb 04be 285c 01be 03a4 f73d d74d 1d3d
00000100: 50b6 093e eee2 e13c 4ea6 21bd 30d0 31bc
00000110: a3b5 08be 1de2 073e 1175 c83d 1993 54bd
00000120: 8f22 313d 506a ba3d c56f 6dbd b518 a1bd
00000130: 5c67 b6bd 5f48 03be a41a 113e ffd3 533c
00000140: d71d 32bc 4424 a53c 6e99 ccbd bc8c ea3d
00000150: bc2a 03be 4bef e93d 9f95 b7bd c42f 893d
00000160: f65c e03b e483 04be 5b6e 013e 3233 bc3d
00000170: 3a7d 3a3d 4622 923d 3d67 fdbd 3ce0 3a3d
00000180: bf1c 803d eaf8 c73d 6527 0abe d059 d33b

head.bias f4 [2]
0.10195893 -0.09732948
00000000: d8cf d03d ae54 c7bd
