trained_models/20220214/retiring_adult/adv_debiasing/mlp_seed0_epochs50_bs128_lr0.0005_decay0.0005_adv_lamb0.3_eta0.003_constrainteopp.pt (torch, 4319 bytes, 4 tensors)

features.0.weight f4 [50, 10]
0	0x3796c8dd	1.7974928e-05
1	0xb791467d	-1.731817e-05
2	0x368aec6d	4.140244e-06
3	0x37e83755	2.7682321e-05
4	0x39057b29	0.00012729749
5	0xb88ec1b4	-6.807168e-05
6	0x38cb4174	9.691986e-05
7	0x389c83d4	7.4632146e-05
8	0xb8b4c940	-8.6205546e-05
9	0x37b1c597	2.1192054e-05
10	0x3c23bd8a	0.00999392
11	0x3cb39901	0.021923544
12	0xbd9d81bd	-0.07690761
13	0xbc86773e	-0.016414281
14	0xbdcb1cf1	-0.099176295
15	0x3c0bdb58	0.008536182
16	0xbcc08550	-0.023501068
17	0x3da0aa27	0.07844954
18	0xbe011b8e	-0.12608168
19	0xbcca8a7e	-0.024724241
20	0xb856c18a	-5.1201823e-05
21	0xbe3cfbb0	-0.18455386
22	0x3929efed	0.00016206475
23	0xb84a4392	-4.8223483e-05
24	0x37ac22bd	2.0520174e-05
25	0xba300cc7	-0.0006715771
26	0x382a1d44	4.0558414e-05
27	0xbf3d121b	-0.7385575
28	0x39d990ae	0.0004149726
29	0xbaa38341	-0.001247503
30	0xb7713a8a	-1.4378349e-05
31	0xb7e81d59	-2.7670221e-05
32	0xb829b33a	-4.0459658e-05
33	0xb6b6819c	-5.439111e-06
34	0xb8394d0a	-4.4179185e-05
35	0x37fdaae1	3.0239522e-05
36	0xb802b6e2	-3.1164738e-05
37	0xb7994e02	-1.8275347e-05
38	0xb820b0be	-3.8311577e-05
39	0x366bbf6a	3.5129146e-06
40	0xbcbf3bd3	-0.023343956
41	0xbef786eb	-0.48345122
42	0xbd26c4a8	-0.04071489
43	0xbdb17f64	-0.08666876
44	0xbc270a09	-0.010195264
45	0xbde7040d	-0.112800695
46	0xbb9325d8	-0.0044905953
47	0x3c224022	0.009902986
48	0x3dcd07e6	0.10011272
49	0x3e6d0604	0.23146826
50	0x3cb1f44b	0.021722933
51	0x3e855358	0.2604015
52	0x3e13c925	0.144322
53	0x3d05b563	0.032643687
54	0x3de8b9a6	0.11363535
55	0x3bbd8045	0.005783113
56	0x3d3c0f55	0.04591306
57	0xbdbb4e18	-0.091457546
58	0x3d1120c8	0.035431653
59	0xbe195b4f	-0.14976238
60	0x3dc90904	0.09816173
61	0x3d2fa34a	0.042880334
62	0xbd376b63	-0.044780146
63	0xbc1d6cb0	-0.009608433
64	0x3ddc9bd0	0.107719064
65	0xbcbe8b84	-0.023259886
66	0x3d195ce9	0.03744212
67	0xbf25f3dd	-0.6482523
68	0xbda3a299	-0.079899974
69	0xbdd41250	-0.10355055
70	0x3d1d96e6	0.038473986
71	0xbbeb3622	-0.007178084
72	0xbc990c70	-0.018682688
73	0x3c66c442	0.014084877
74	0x3dab309c	0.08358881
75	0x3d53ba5d	0.0516914
76	0x3d8edca2	0.06975676
77	0xbe8e11d1	-0.27747968
78	0xbc8595c9	-0.016306775
79	0x3d4e4900	0.050362587
80	0xbebc672f	-0.36797473
81	0xbd3346a9	-0.04376856
82	0x3ca2e761	0.01988572
83	0xbe3b1a87	-0.18271838
84	0xbcf4aa8d	-0.029866481
85	0x3cc44065	0.023956487
86	0xbd1d588d	-0.038414527
87	0xbd7bb5a6	-0.06145253
88	0x3ea32f9b	0.31872258
89	0x3e06909d	0.13141103
90	0xbd7ffbf8	-0.062496156
91	0x3dbf466b	0.09339603
92	0x3e69ab28	0.22819197
93	0xbd1862b8	-0.03720352
94	0xbf20c2a8	-0.6279702
95	0x3bb82ade	0.0056203445
96	0x3c67bc0f	0.014143958
97	0x3aff2c22	0.0019468109
98	0xbd21ebd7	-0.039531555
99	0x3d404231	0.046938125
100	0x3ec1c46f	0.3784518
101	0xbbea9a3c	-0.0071594995
102	0xbd45bc67	-0.048275378
103	0x3b2e9187	0.0026637034
104	0x3d4c30ee	0.04985135
105	0x3c2ec1f1	0.010666356
106	0x38df20a3	0.00010639548
107	0xbe8c7262	-0.27431017
108	0xba29f2a2	-0.00064829935
109	0xbda5b481	-0.08091069
110	0xbe3f4dc1	-0.18682005
111	0x3e017134	0.1264084
112	0xbe49b9bb	-0.19699757
113	0xbc4f7834	-0.012662936
114	0xbdf2f162	-0.11862446
115	0x3cdd6206	0.02702428
116	0xbcc6dd86	-0.024275552
117	0xbdc6f36a	-0.09714396
118	0x3d7564a1	0.05991042
119	0x3da2faca	0.079579905
120	0xbd02a917	-0.031899538
121	0xbba03687	-0.0048893127
122	0xbea000ac	-0.31250513
123	0x3b838b98	0.0040144436
124	0xbf70a890	-0.94007206
125	0x3c420f56	0.011844477
126	0x3c079216	0.008274576
127	0x3cdf550f	0.027262239
128	0xbc93bacd	-0.01803341
129	0xbdff6a69	-0.12471468
130	0xbe51b598	-0.20479429
131	0xbbde34b8	-0.006781187
132	0xbea0d186	-0.31409854
133	0xbd20e38d	-0.03927951
134	0xbcc1b78d	-0.023647094
135	0xbc2b0eca	-0.010440538
136	0x3c726e42	0.014796795
137	0xbe30e935	-0.17276461
138	0x3d7f8dd3	0.062391113
139	0xbc76c3ea	-0.015061358
140	0xbd6fb569	-0.058522616
141	0xbc95df0f	-0.01829484
142	0x3f09aba2	0.53777516
143	0xbaebf57c	-0.0018002237
144	0xbcdf5fa6	-0.027267288
145	0xbd120ae5	-0.03565492
146	0x3d0b0872	0.0339436
147	0xbcb2aa1f	-0.021809636
148	0x3d0b7f1f	0.03405678
149	0xbd66e773	-0.05637307
150	0xbe823588	-0.25431466
151	0xbdee0ce9	-0.11623556
152	0x3d504f5e	0.05085694
153	0x3c9ef8d9	0.01940577
154	0xbdffdac9	-0.12492902
155	0xbdf7e8cd	-0.1210495
156	0x3defa646	0.11701636
157	0xbdf3a9e7	-0.11897641
158	0x3ce4d2ea	0.027932603
159	0xbd936bc7	-0.07198291
160	0xbcfb9704	-0.030711658
161	0xbcb5e863	-0.022205537
162	0xbe367baf	-0.17820619
163	0xbdf40462	-0.119148985
164	0xbcc3bee8	-0.023894742
165	0xbd8e1ebe	-0.06939457
166	0xbea1b61b	-0.31584248
167	0xbbe2876a	-0.0069131153
168	0xbe796505	-0.24354942
169	0xbced81de	-0.02899259
170	0x3bfa5e1d	0.0076406137
171	0xbe755184	-0.23956877
172	0x3d1c6f04	0.03819181
173	0x3c819098	0.015816018
174	0xbf13557f	-0.5755233
175	0x3c49ec38	0.012324385
176	0x3b06f9b1	0.0020595605
177	0xbe00c2cd	-0.1257431
178	0x3d38941a	0.045063116
179	0xbcd02915	-0.025410214
180	0x3bfc1c5d	0.007693811
181	0xbddfa895	-0.10920826
182	0x3e05f676	0.13082299
183	0x3c0c8c4d	0.008578372
184	0x3deaf1b0	0.114718795
185	0x3cb3a511	0.021929296
186	0xbbf63acc	-0.0075143334
187	0x3d242573	0.040074777
188	0xbbcb6ba1	-0.0062078987
189	0x3c8760af	0.016525595
190	0x399527a6	0.00028449035
191	0xbaa2b2d5	-0.0012412915
192	0xbd1445df	-0.036199447
193	0xbbb365ec	-0.0054747965
194	0x3db4f5a5	0.088359155
195	0xbd276fdf	-0.040878173
196	0xbbb101b0	-0.0054018125
197	0x3d4a218f	0.04934841
198	0xbc9b5d52	-0.018965397
199	0xbc2a513d	-0.010395345
200	0x3526e665	6.2175087e-07
201	0x366ff4c3	3.5756245e-06
202	0x35a42bf7	1.2231748e-06
203	0xb67f5d22	-3.8052171e-06
204	0x3596075b	1.1178012e-06
205	0xb647abcb	-2.9753307e-06
206	0x362f2b7f	2.610235e-06
207	0x363a4c57	2.7760595e-06
208	0xb5ba4f95	-1.3881241e-06
209	0xb6f10a99	-7.1835934e-06
210	0x3db1f00b	0.08688363
211	0xbcafd69a	-0.021464635
212	0xbc7fdadd	-0.015616146
213	0xbe853bbf	-0.26022145
214	0xbca796c1	-0.020457627
215	0xbbfdb2ee	-0.0077422773
216	0x3eae8d3a	0.34092122
217	0xbdb7c492	-0.0897304
218	0x3e202906	0.15640649
219	0xbc4fafb5	-0.012676169
220	0x36f00453	7.153061e-06
221	0x397a62ec	0.00023878709
222	0xb6f8f7b4	-7.4198124e-06
223	0xb9036c1c	-0.00012533407
224	0x37ea641b	2.7941589e-05
225	0xb8753c38	-5.8468635e-05
226	0x395440e8	0.00020242075
227	0x384d11c9	4.8892372e-05
228	0x391aef13	0.00014775647
229	0xb9ae4dea	-0.00033245917
230	0xbcb705ed	-0.022341693
231	0x3d7e9c1f	0.062160607
232	0xbbe264ef	-0.006909005
233	0x3e32d922	0.17465642
234	0x3e48033f	0.19532488
235	0xbbd682a3	-0.006546335
236	0x3c5a2c53	0.013316232
237	0xbd8e4d3e	-0.069483265
238	0xbdec15cb	-0.11527594
239	0x3ca67dbf	0.020323632
240	0x3aa0cc12	0.0012267849
241	0xbda994e5	-0.082803525
242	0x3a957c86	0.0011404909
243	0xb972d3a4	-0.00023157761
244	0xb9ebb539	-0.00044957714
245	0xb99f8423	-0.00030425293
246	0x39c2048a	0.00037005945
247	0xbef4f3be	-0.4784221
248	0x3b07bcd1	0.0020711909
249	0xbb4fcf83	-0.003170938
250	0xbe6ef54e	-0.23335764
251	0x3d4ba02d	0.049713302
252	0xba4269be	-0.00074162695
253	0xbc957b1f	-0.018247185
254	0xbd69d2a1	-0.057085637
255	0x3b8433f4	0.0040345136

features.0.bias f4 [50]
0	0xb7892c64	-1.6352344e-05
1	0x3d855f85	0.065123595
2	0x3ec4310b	0.38318667
3	0xb7def11b	-2.6576736e-05
4	0xbe61bfee	-0.22045872
5	0x3dd016b5	0.10160581
6	0xbef5e871	-0.480289
7	0x3e50f983	0.20407681
8	0x3e0affb9	0.13574113
9	0x3e0a9f56	0.13537344
10	0xbeabab54	-0.3352915
11	0x3ded825e	0.11597131
12	0xbea4f690	-0.32219362
13	0x3e7ab9da	0.24484959
14	0xbdddfe83	-0.1083956
15	0x3e3f5839	0.18685998
16	0x3cdda0ae	0.027054157
17	0xbdf17657	-0.1179015
18	0x3d938be3	0.07204416
19	0x391a9caa	0.00014744946
20	0xb6f7b39e	-7.382084e-06
21	0xbe429797	-0.1900314
22	0xb9381ee3	-0.00017559114
23	0xbdebbac8	-0.11510235
24	0x3e4366ad	0.19082136
25	0xbe65fd98	-0.2246002
26	0xbccb688d	-0.024830127
27	0x3de6f225	0.11276654
28	0xbe80c599	-0.25150755
29	0xb70e628c	-8.486804e-06
30	0x3368f545	5.423978e-08
31	0x3d963a27	0.073353104
32	0xbdace189	-0.08441455
33	0xbe641802	-0.22274783
34	0xbd84253b	-0.06452414
35	0xbda2f41d	-0.07956717
36	0x3c3c9b18	0.011511587
37	0xbe516f1e	-0.20452544
38	0xbeeeed4b	-0.46665415
39	0x3e24fd76	0.16112313
40	0xbd37aeae	-0.044844322
41	0xbdeb9228	-0.115024865
42	0xbcffde0a	-0.031233806
43	0xbe886b7b	-0.266445
44	0xbe0aa25c	-0.13538498
45	0xb9388871	-0.00017598436
46	0xbbf37315	-0.0074294903
47	0xbdd3d1cf	-0.10342752
48	0xbed0011b	-0.40625843
49	0x3e8ddc44	0.27707112

head.weight f4 [2, 50]
0	0xb7bd0783	-2.2534054e-05
1	0xbe0466b6	-0.12929806
2	0x3f0e2e6e	0.55539596
3	0xb717167f	-9.005539e-06
4	0xbece2be7	-0.4026787
5	0xbe7f2d9c	-0.24919742
6	0xbf13cfb5	-0.5773881
7	0x3e6be00c	0.23034686
8	0x3eb82afb	0.35970291
9	0xbee7951f	-0.45230958
10	0xbecbcea4	-0.39806092
11	0x3e6ed1e6	0.23322257
12	0xbf3c3fd3	-0.7353489
13	0x3ea063a5	0.31326023
14	0xbebb3304	-0.3656236
15	0x3e8d91cd	0.276503
16	0xbe969148	-0.29407716
17	0xbedbd4a5	-0.42935672
18	0xbe0f45be	-0.13991448
19	0xbda5f45a	-0.08103247
20	0xb467cee7	-2.1588822e-07
21	0x3eb3d2f8	0.35121894
22	0xb85ef175	-5.31538e-05
23	0x3e5be55c	0.21474212
24	0x3eaac895	0.33356157
25	0x3e98bcc5	0.2983152
26	0xbdafca55	-0.08583514
27	0xbea6416e	-0.32471794
28	0x3eecbe20	0.46238804
29	0xb827c61a	-4.00004e-05
30	0x33b1d535	8.280987e-08
31	0xbe9077ec	-0.28216493
32	0xbea1ad6c	-0.31577623
33	0xbeac7049	-0.33679417
34	0xbe5d57cc	-0.21615523
35	0xbe7324ef	-0.23744558
36	0x3e7dfcea	0.2480351
37	0x3efecc91	0.49765447
38	0x3eebb54f	0.46036765
39	0x3ef6dedf	0.48216912
40	0xbd9b9fd4	-0.07598844
41	0xbec574f9	-0.38565806
42	0xbf105dee	-0.56393325
43	0x3ef9cb90	0.48788118
44	0x3e82b8d0	0.25531626
45	0x38d1a1a5	9.996005e-05
46	0x3e7a457b	0.24440567
47	0xbec292aa	-0.3800252
48	0x3f11367a	0.5672375
49	0x3ea3cc5f	0.3199186
50	0x37bdef01	2.264185e-05
51	0x3e05490b	0.13016145
52	0xbf0ec529	-0.5576959
53	0x3718b412	9.101832e-06
54	0x3ecf5acc	0.4049896
55	0x3e7c3de5	0.24632986
56	0x3f13a111	0.5766764
57	0xbe6d1ad2	-0.23154762
58	0xbeb902fb	-0.36135086
59	0x3ee6a9af	0.45051333
60	0x3ecb9187	0.39759466
61	0xbe700f4c	-0.23443335
62	0x3f3bcd3d	0.73360044
63	0xbea088df	-0.31354424
64	0x3eb9ed16	0.36313695
65	0xbe8dc474	-0.27688944
66	0x3e979dd8	0.29612613
67	0x3edb3312	0.428124
68	0x3e10028a	0.14063469
69	0x3da65807	0.08122259
70	0x34efd07f	4.466892e-07
71	0xbeb3fd44	-0.35154164
72	0x385ab2b1	5.214167e-05
73	0xbe5b6b41	-0.21427633
74	0xbeabbba2	-0.3354159
75	0xbe987c37	-0.29782268
76	0x3daee34a	0.08539446
77	0x3ea73dce	0.3266434
78	0xbeec4e38	-0.46153426
79	0x3825e99a	3.9556624e-05
80	0xb3b76111	-8.539258e-08
81	0x3e8fb75e	0.28069586
82	0x3ea235d1	0.31681684
83	0x3eac44a3	0.33646116
84	0x3e5aca01	0.21366121
85	0x3e7370c6	0.23773488
86	0xbe7cb1cb	-0.24677198
87	0xbeff5141	-0.4986668
88	0xbeeb8d41	-0.46006206
89	0xbef60169	-0.4804795
90	0x3d9c2a54	0.07625261
91	0x3ec42539	0.3830965
92	0x3f10c3ab	0.56548566
93	0xbef992c8	-0.48744798
94	0xbe8217d9	-0.2540882
95	0xb8d37b25	-0.000100842015
96	0xbe7a01f9	-0.24414815
97	0x3ec42a7b	0.3831366
98	0xbf1121e3	-0.5669233
99	0xbea449b0	-0.3208747

head.bias f4 [2]
0	0x3e312d37	0.17302404
1	0xbe34e41b	-0.1766514
