trained_models/20220214/adult/reweighting/mlp_sex_seed2_epochs5_bs128_lr0.0003_decay0.0005_constrainteopp_eta30.0_iter10.pt (torch, 21919 bytes, 4 tensors)

features.0.weight f4 [50, 98]
-0.06715569 -0.044842355 -0.010715612 -0.14319108 -0.0022320217 -0.18975428 0.039028622 -0.122944206
0.044885658 -0.04917673 -0.0009044341 0.030620052 0.018093554 0.079176195 0.008755666 0.05175793
-0.010131219 -0.076621845 -0.018913059 0.107822016 -0.042461857 -0.0026872566 -0.02160389 -0.020260742
0.068260245 0.05936862 0.008115772 -0.054350443 -0.10214626 -0.002733246 -0.0046185716 -0.15432122
0.051302858 0.13371828 -0.006795751 0.027546158 0.062216893 0.00614027 -0.033925977 -0.074315496
0.050360147 -0.0032989443 0.05300291 0.08413483 0.02092279 0.05248805 0.038764294 -0.0320561
-0.06718761 -0.03614014 -0.011659768 0.10080039 0.029446114 0.049522314 -0.008379769 -0.06293992
0.0046247765 0.036233302 -0.026105708 0.03343812 0.02245298 0.0063488083 0.02731287 0.06648637
0.06929259 0.034201663 0.0077255764 0.004314309 0.038548384 0.0204169 0.0016849326 0.0037619544
0.024552818 0.0053720665 -0.033969577 -0.02124503 -0.023276746 -0.034636118 0.044551596 -0.039016556
0.046365578 0.09047739 -0.002488634 0.013520886 0.01161643 -0.05354643 0.026132662 0.024838643
-0.0066555394 0.006154273 0.019808028 -0.02766683 0.044640478 0.00429059 0.053189512 0.044906702
-0.0044143023 -0.03852288 0.043190368 0.042032104 -0.111067005 0.20312373 -0.14300062 -0.020740895
0.0950745 0.028015975 0.023316972 0.02425031 -0.1320859 0.04171299 -0.0019229947 -0.07457148
0.015787147 0.010700281 -0.01539601 -0.017100025 7.5999706e-05 0.022721317 0.06642236 0.01988185
0.052497998 0.015037507 -0.09582781 0.06072648 -0.0006569937 -0.0143028535 0.014489707 0.049539845
-0.015523378 -0.06439385 -0.015675643 0.026085395 0.04370905 -0.062743545 0.022340031 0.0042408775
0.035809968 0.0117897345 0.039586294 -0.042366162 -0.06441815 0.023830427 0.015929222 -0.015364569
0.0062471055 0.07886727 -0.084607676 -0.0032845757 0.022563742 0.02423124 -0.024492094 -0.015592336
-0.024493352 -0.005334977 -0.012379063 -0.056495935 -0.040871 0.0102192415 0.027750108 0.0054320674
-0.010966526 0.035878062 -0.0031830498 0.019053694 0.0067542423 0.04002904 -0.004368025 -0.021295663
0.0008683968 -0.0032612109 0.0074981526 0.023283932 -0.01051714 0.030879458 -0.01387241 0.022494188
-0.009932747 0.0052669514 0.03426816 -0.026357574 -0.018550472 0.007812724 0.0059584505 0.058514483
-0.019814687 -0.011287027 -0.019746026 -0.0039193043 0.040944416 0.03188449 0.0138822105 -0.0020160757
0.03472653 -0.0016657008 -0.008943946 0.030100916 0.1558745 -0.06081537 -0.0049289106 -0.14710385
-0.05798047 -0.12312748 -0.039144833 -0.0636366 0.015269309 0.005536872 0.06796386 -0.025642384
0.0039219433 0.003596577 -0.021829799 -0.0078052683 -0.013190283 -0.01725649 0.010620951 0.04392979
-0.0056685703 0.034702785 -0.0104013635 0.022088284 0.010412975 -0.060811795 0.008017269 -0.010896016
0.031517055 0.0013619901 0.008143256 -0.038934026 0.07339622 0.04694681 0.0073162825 0.043400627
0.028961724 0.004366135 -0.01059495 -0.04747262 -0.060010258 0.018550012 0.043150954 -0.031576335
7.73374e-05 -0.0040080883 -0.029933596 -0.02171895 0.06366137 0.045222376 0.015728217 0.07836601
-0.03472378 -0.04526048 -0.04194535 -0.031158598 -0.0014090227 -0.027731484 -0.047218613 0.012965334
00000000: ec88 89bd 9eac 37bd 8990 2fbc afa0 12be
00000010: 1c47 12bb f24e 42be 7adc 1f3d 2cca fbbd
00000020: 06da 373d 8a6d 49bd 8c17 6dba e7d6 fa3c
00000030: ef38 943c 2127 a23d ed73 0f3c 2000 543d
00000040: 6afd 25bc eaeb 9cbd 8fef 9abc cad1 dc3d
00000050: 7cec 2dbd af1c 30bb a4fa b0bc dbf9 a5bc
00000060: 07cc 8b3d 832c 733d 04f8 043c 929e 5ebd
00000070: 0f32 d1bd 4220 33bb 6357 97bb 6206 1ebe
00000080: f222 523d 72ed 083e e4ae debb 7ba8 e13c
00000090: 24d7 7e3d 5134 c93b f7f5 0abd b932 98bd
000000a0: 7146 4e3d 1a33 58bb 9419 593d e24e ac3d
000000b0: 4566 ab3c b6fd 563d 4fc7 1e3d 424d 03bd
000000c0: a899 89bd af07 14bd 9d08 3fbc 6f70 ce3d
000000d0: fa38 f13c e9d7 4a3d 4c4b 09bc a5e6 80bd
000000e0: 708b 973b 5f69 143d a3db d5bc 69f6 083d
000000f0: 50ef b73c aa09 d03b 3dbf df3c 022a 883d
00000100: 46e9 8d3d 0b17 0c3d d526 fd3b 0c5f 8d3b
00000110: e9e4 1d3d 5841 a73c f5d8 dc3a 1f8b 763b
00000120: fe22 c93c 2908 b03b af23 0bbd 0f0a aebc
00000130: e0ae bebc 9ade 0dbd bc7b 363d d3cf 1fbd
00000140: d5e9 3d3d 364c b93d 5a18 23bb b586 5d3c
00000150: d752 3e3c 8053 5bbd 2a14 d63c 697a cb3c
00000160: b616 dabb c9a9 c93b 7244 a23c 8ca5 e2bc
00000170: efd8 363d 1498 8c3b 3fdd 593d 17f0 373d
00000180: daa5 90bb 2bca 1dbd 62e8 303d db29 2c3d
00000190: 1977 e3bd abff 4f3e c16e 12be cfe8 a9bc
000001a0: 6bb6 c23d c281 e53c 3c03 bf3c 96a8 c63c
000001b0: 8741 07be 3ddb 2a3d ff0c fcba efb8 98bd
000001c0: 0c54 813c 3b50 2f3c 8c3f 7cbc 5a15 8cbc
000001d0: 0862 9f38 0e22 ba3c 7208 883d 43df a23c
000001e0: 2408 573d e05f 763c 5f41 c4bd 54bc 783d
000001f0: 1a3a 2cba 8456 6abc 3c66 6d3c 4bea 4a3d
00000200: c455 7ebc ece0 83bd 356a 80bc 0ab1 d53c
00000210: 4308 333d b07f 80bd 7102 b73c 0ff7 8a3b
00000220: 79ad 123d bb29 413c 3d25 223d 2488 2dbd
00000230: aaed 83bd 0738 c33c 007e 823c acbb 7bbc
00000240: 85b4 cc3b 2a85 a13d ca46 adbd 0942 57bb
00000250: 99d7 b83c 9880 c63c a5a3 c8bc ff76 7fbc
00000260: 48a6 c8bc 08d1 aebb 8ed1 4abc 4868 67bd
00000270: 5a68 27bd 9b6e 273c 3254 e33c 7cff b13b
00000280: f2ac 33bc e0f4 123d b79a 50bb 7e16 9c3c
00000290: b152 dd3b 7ef5 233d a621 8fbb 3e74 aebc
000002a0: 1fa5 633a 0aba 55bb 10b3 f53b f2bd be3c
000002b0: 1550 2cbc ebf6 fc3c 1b49 63bc bb45 b83c
000002c0: f6bc 22bc 6496 ac3b c55c 0c3d d7eb d7bc
000002d0: 29f7 97bc f100 003c 1b3f c33b e2ac 6f3d
000002e0: 6952 a2bc 39ed 38bc 6bc2 a1bc 826d 80bb
000002f0: 55b5 273d 5099 023d 3672 633c 2320 04bb
00000300: 683d 0e3d a553 daba a189 12bc 3296 f63c
00000310: 919d 1f3e 8a19 79bd b382 a1bb 64a2 16be
00000320: ee7c 6dbd 432a fcbd 5556 20bd e853 82bd
00000330: 202c 7a3c a66e b53b a330 8b3d fa0f d2bc
00000340: a583 803b 8db4 6b3b 68d4 b2bc 56c3 ffbb
00000350: 0f1c 58bc 7c5d 8dbc 7f03 2e3c b9ef 333d
00000360: 6abf b9bb 8224 0e3d 7b6a 2abc 7df2 b43c
00000370: 2f9b 2a3c ca15 79bd dd5a 033c 3485 32bc
00000380: 0718 013d ce84 b23a 4b6b 053c 4979 1fbd
00000390: c250 963d 4c4b 403d 6dbd ef3b dbc4 313d
000003a0: 2341 ed3c cc11 8f3b 7196 2dbc a672 42bd
000003b0: 51cd 75bd 32f6 973c 0ebf 303d 3056 01bd
000003c0: 3330 a238 4856 83bb 4d37 f5bc f0eb b1bc
000003d0: e460 823d 193b 393d 76d8 803c 5c7e a03d
000003e0: 863a 0ebd 0e63 39bd e3ce 2bbd 5140 ffbc
000003f0: f5ae b8ba 232d e3bc 4e68 41bd 8d6c 543c

features.0.bias f4 [50]
0.07403123 0.032397013 0.08427359 0.07533768 0.11816962 0.013230825 -0.01298411 0.012390406
0.034630653 0.11891704 0.107687265 0.009621984 0.05425742 0.026570812 0.01420675 0.0051121423
0.04830278 0.111699276 0.058881417 0.0751813 -0.0119004715 -0.038771477 0.057930663 0.006008764
0.0054456666 0.09312439 0.08021853 0.07500109 0.045377407 -0.030011032 0.08151401 0.090024255
0.043662537 -0.016509984 0.058023363 0.109017424 0.04829944 -0.03363242 0.11833693 0.06564972
0.07133485 0.055764824 0.02740399 0.032969113 -0.014807298 0.054471076 0.06867609 0.056251753
0.0689701 0.099702686
00000000: af9d 973d bbb2 043d a297 ac3d a44a 9a3d
00000010: ea02 f23d 1ac6 583c 4ebb 54bc 2101 4b3c
00000020: dfd8 0d3d c78a f33d 248b dc3d 87a5 1d3c
00000030: 073d 5e3d 08ab d93c 6ec3 683c c283 a73b
00000040: 23d9 453d 97c2 e43d a42d 713d a7f8 993d
00000050: 32fa 42bc d7ce 1ebd b448 6d3d 2ae5 c43b
00000060: 9071 b23b 00b8 be3d 9d49 a43d 2c9a 993d
00000070: a9dd 393d b2d9 f5bc d1f0 a63d a35e b83d
00000080: 7dd7 323d f23f 87bc e8a9 6d3d 8744 df3d
00000090: a2d5 453d 26c2 09bd a25a f23d 5c73 863d
000000a0: 0118 923d a869 643d 557e e03c 9f0a 073d
000000b0: 4f9a 72bc 101d 5f3d 0da6 8c3d 3d68 663d
000000c0: 3240 8d3d ec30 cc3d

head.weight f4 [2, 50]
0.25399393 -0.21343935 0.21834373 -0.23012775 0.29792628 0.30557176 0.28015798 -0.21104887
-0.21557271 0.24842237 0.27661407 0.21260822 0.25206414 -0.21113378 0.23870896 -0.23658623
-0.16902687 0.22967006 -0.26667035 0.22101842 0.2651902 0.30675855 -0.19103704 0.29238185
-0.19435355 -0.21298186 0.22850302 0.25768435 0.26903218 0.16995256 0.24417204 -0.20194787
0.42540196 0.22901481 -0.33426446 -0.34131053 0.34245735 0.34907696 0.35012177 0.23055622
0.2773923 -0.24995053 -0.2704521 0.24827406 0.3189083 0.17112073 0.23855357 -0.1654157
0.26623622 0.32041797 -0.3142094 0.21430223 -0.14946572 0.2184755 -0.3858757 -0.18773295
-0.30182332 0.16209039 0.28383207 -0.17882977 -0.283153 -0.27266553 -0.096594505 0.2726358
-0.26550332 0.188157 0.19455767 -0.28579748 0.21164107 -0.2180689 -0.37749648 -0.19991058
0.23837271 -0.22884095 0.08980241 0.3435926 -0.19948375 -0.18678348 -0.23923334 -0.19415224
-0.2534152 0.31237853 -0.42573544 -0.29466742 0.29153395 0.25909814 -0.3524364 -0.26297095
-0.21365745 -0.22445361 -0.17412494 0.1285275 0.19442298 -0.13165049 -0.37903503 -0.32787406
-0.24955085 0.13575938 -0.28274795 -0.31904787
00000000: 7e0b 823e d88f 5abe 8095 5f3e 9ca6 6bbe
00000010: cb89 983e e773 9c3e de70 8f3e 321d 58be
00000020: 18bf 5cbe 6f62 7e3e 5ca0 8d3e f8b5 593e
00000030: 8d0e 813e 7433 58be 1f70 743e a943 72be
00000040: 6115 2dbe a12e 6b3e 0489 88be a752 623e
00000050: 03c7 873e 750f 9d3e 379f 43be 13b3 953e
00000060: 9e04 47be eb17 5abe b2fc 693e 34ef 833e
00000070: 96be 893e 0b08 2e3e 3c08 7a3e 6ccb 4ebe
00000080: 49ce d93e dc82 6a3e b624 abbe 41c0 aebe
00000090: 9256 af3e 37ba b23e 2943 b33e ee16 6c3e
000000a0: 5d06 8e3e 08f3 7fbe b378 8abe 8e3b 7e3e
000000b0: f347 a33e 463a 2f3e 6347 743e bc62 29be
000000c0: 1d50 883e d30d a43e 0ee0 a0be 0b72 5b3e
000000d0: 8b0d 19be 0bb8 5f3e 8091 c5be 113d 40be
000000e0: 9688 9abe 06fb 253e 7052 913e 271f 37be
000000f0: 6ef9 90be d19a 8bbe 57d3 c5bd eb96 8b3e
00000100: 0df0 87be 3bac 403e 203a 473e 0c54 92be
00000110: 70b8 583e 744d 5fbe 3847 c1be 5cb5 4cbe
00000120: fa17 743e 4855 6abe 53ea b73d 5feb af3e
00000130: 7845 4cbe 2b44 3fbe 96f9 74be d8cf 46be
00000140: a3bf 81be 14f0 9f3e fff9 d9be a6de 96be
00000150: f043 953e 83a8 843e 8b72 b4be 21a4 86be
00000160: 05c9 5abe 2bd7 65be cf4d 32be b79c 033e
00000170: d116 473e 63cf 06be e110 c2be 1cdf a7be
00000180: 428a 7fbe 8204 0b3e 57c4 90be 3e5a a3be

head.bias f4 [2]
-0.05039024 -0.05989631
00000000: ff65 4ebd d555 75bd
