trained_models/20220214/adult/reweighting/mlp_sex_seed1_epochs5_bs128_lr0.0005_decay0.0005_constrainteo_eta30.0_iter10.pt (torch, 21919 bytes, 4 tensors)

features.0.weight f4 [50, 98]
0.2980619 -0.068853766 0.07431133 -0.07948639 -0.022439394 0.034487493 -0.05021637 0.106932685
-0.026735479 0.044783864 0.017251102 -0.051160973 -0.007838996 0.0037913274 0.050308824 0.019803543
0.012178491 0.037874658 0.04546209 0.03479027 -0.10174063 -0.030310435 -0.015265341 -0.0683063
-0.018526178 0.014541023 0.0067792945 -0.04694263 -0.011313319 0.120488964 -0.010620355 0.018652836
-0.0037136478 -0.10493059 -0.010282298 0.026920438 0.096686855 -0.004029064 -0.0053789513 -0.1587064
0.09944092 -0.05584011 0.15057687 0.024964076 0.0036639571 0.040344004 -0.01682163 -0.028494515
-0.0050867884 -0.03212524 0.0057768463 0.04478465 -0.021998035 -0.106975324 0.07016655 0.007496988
-0.016636921 0.026843648 0.028532676 0.008078039 -0.049395036 0.022403266 0.012092235 -0.014217816
-0.019265316 -0.023177594 -0.02249304 0.024445849 -0.0034753836 -0.035769913 -0.0004379474 0.0037203257
0.020119842 0.011946419 -0.005701432 0.010947394 -0.00012738745 0.0054619964 -0.04522809 0.0027034273
-0.02015904 0.04320618 -0.019971956 -0.013949675 0.028930072 -0.0021404894 -0.039597493 0.040619604
-0.04149769 0.018043999 0.010611787 -0.011274101 0.019737996 -0.010429928 0.026862001 -0.018253671
0.014862994 0.032672696 -0.20683618 -0.08490957 -0.0018366852 -0.1360096 -0.0039921342 -0.09610426
-0.0747405 -0.1058292 0.16121908 -0.08931646 0.005221619 -0.032075435 0.018738465 0.05773612
0.05288607 0.032568812 0.008980437 0.040367134 0.045101393 -0.009759666 -0.056761794 -0.13171935
-0.025485115 -0.009611076 0.13599671 -0.0495246 0.008191631 -0.034496006 -0.07180521 -0.026458355
0.02850134 0.0022000298 -0.0547475 0.06884833 0.019445732 -0.0019513937 -0.0009635783 0.009106809
0.07350355 0.026258016 0.03847074 -0.058944076 -0.05405329 0.08520609 -0.019022506 -0.045941383
0.016551433 0.027011307 -0.11545465 -0.03102653 0.048367452 -0.015781857 0.020365512 -0.017164757
0.0008413966 0.029022088 -0.027342916 0.0039312057 0.009664786 0.008130828 0.050207112 0.022161992
0.006997734 -0.05152856 0.01943653 0.030399177 0.009986077 0.04516095 0.026125077 -0.0006402611
-0.00056327943 0.009228544 0.010736008 0.016340565 0.024595574 -0.030349458 0.025165968 0.036721233
0.054281455 -0.013741809 -0.022694474 0.09207658 -0.008940132 0.00858522 0.0324812 -0.025301434
-0.04490494 0.037038434 0.034192394 -0.0006024435 0.015836446 0.0049697175 0.024597352 0.005437656
-0.012174911 -0.035693366 0.016599847 0.064256094 0.041101187 0.023916643 0.013091286 -0.015742915
-0.009735456 0.01011551 0.00028347256 0.0042138756 0.018598793 0.00095444865 -0.01643926 -0.007033053
0.0077062864 -0.11929879 0.02279816 -0.09948532 -0.050482016 -0.071501434 -0.046520956 0.061286576
-0.0014895126 -0.017586239 0.009199864 0.02161317 0.045963183 0.0033721873 -0.034300033 -0.010242078
0.010798561 0.042918596 0.010906758 -0.096885115 0.019733919 0.061864447 0.0016303239 0.013916691
0.022666546 -0.01648579 -0.026433706 0.022591038 -0.05301091 -0.07476742 -0.021939766 0.0028745867
-0.06932925 0.02509327 0.010645137 0.034581315 0.008375163 -0.00995539 -0.22877997 0.10841111
0.07122319 0.08311705 0.05415801 -0.09574078 -0.01492241 0.0043024058 0.02615085 -0.032890037
00000000: 929b 983e 3403 8dbd 8a30 983d c3c9 a2bd
00000010: d2d2 b7bc c242 0d3d aeaf 4dbd 86ff da3d
00000020: 5d04 dbbc 496f 373d 2f52 8d3c 2b8e 51bd
00000030: 226f 00bc eb77 783b a010 4e3d 0a3b a23c
00000040: 4b88 473c 7522 1b3d 7536 3a3d 3e80 0e3d
00000050: 645d d0bd 974d f8bc 7b1b 7abc 2ce4 8bbd
00000060: 36c4 97bc 793d 6e3c d824 de3b ea46 40bd
00000070: 805b 39bc ebc2 f63d ff00 2ebc d5cd 983c
00000080: ac60 73bb d9e5 d6bd 1577 28bc 4088 dc3c
00000090: c203 c63d 3d06 84bb ea41 b0bb ee83 22be
000000a0: aea7 cb3d 99b8 64bd d330 1a3e 7681 cc3c
000000b0: 001f 703b c13f 253d 84cd 89bc 546d e9bc
000000c0: 13af a6bb c195 03bd b34b bd3b 1c70 373d
000000d0: 3935 b4bc e115 dbbd 7bb3 8f3d 4ba9 f53b
000000e0: 274a 88bc 36e7 db3c 5cbd e93c c059 043c
000000f0: 7352 4abd 0e87 b73c 821e 463c d8f1 68bc
00000100: 4cd2 9dbc f0de bdbc 5343 b8bc a942 c83c
00000110: 43c3 63bb 7983 12bd 4e9c e5b9 b5d0 733b
00000120: 5ed2 a43c eaba 433c 14d3 babb b35c 333c
00000130: 4f93 05b9 8cfa b23b 1741 39bd fc2b 313b
00000140: 9224 a5bc f7f8 303d 3a9c a3bc 2d8d 64bc
00000150: c2fe ec3c 7447 0cbb fb30 22bd be60 263d
00000160: 7bf9 29bd 02d1 933c 10dd 2d3c 02b7 38bc
00000170: 94b1 a13c 4ae2 2abc b30d dc3c b988 95bc
00000180: ea83 733c ced3 053d ddcc 53be 12e5 adbd
00000190: eebc f0ba 1a46 0bbe 73d0 82bb 4fd2 c4bd
000001a0: 8c11 99bd fbbc d8bd 9d16 253e 8ceb b6bd
000001b0: 1d1a ab3b 8861 03bd 6981 993c b67c 6c3d
000001c0: 109f 583d e066 053d af22 133c 0258 253d
000001d0: 3dbc 383d 02e7 1fbc 0e7f 68bd 70e1 06be
000001e0: 29c6 d0bc c677 1dbc b942 0b3e 4fda 4abd
000001f0: 3136 063c af4b 0dbd 9c0e 93bd 31bf d8bc
00000200: a47b e93c 602e 103b ea3e 60bd 5a00 8d3d
00000210: a84c 9f3c e8c5 ffba a598 7cba ba34 153c
00000220: 0789 963d 0d1b d73c 7f93 1d3d 586f 71bd
00000230: fc66 5dbd 8880 ae3d 16d5 9bbc 082d 3cbd
00000240: df96 873c d146 dd3c 7d73 ecbd 592b febc
00000250: f31c 463d f448 81bc 93d5 a63c 1b9d 8cbc
00000260: 2c91 5c3a bbbf ed3c 40fe dfbc 58d1 803b
00000270: 0d59 1e3c 2a37 053c f9a5 4d3d 118d b53c
00000280: 3f4d e53b 9d0f 53bd 5c39 9f3c b207 f93c
00000290: a59c 233c b0fa 383d 4204 d63c 32d7 27ba
000002a0: 0ba9 13ba 5233 173c 15e6 2f3c a6dc 853c
000002b0: a87c c93c 6d9f f8bc dc28 ce3c 0169 163d
000002c0: 3b56 5e3d 5325 61bc c3e9 b9bc a592 bc3d
000002d0: a279 12bc 06a9 0c3c 020b 053d f444 cfbc
000002e0: 3eee 37bd 9db5 173d 530d 0c3d 4ded 1dba
000002f0: 6fbb 813c 03d9 a23b 6380 c93c 5d2e b23b
00000300: 4779 47bc 3533 12bd 67fc 873c b398 833d
00000310: b859 283d d6ec c33c d57c 563c 49f7 80bc
00000320: 7681 1fbc 86bb 253c 0b9f 9439 8d14 8a3b
00000330: 7f5c 983c f733 7a3a a1ab 86bc 8675 e6bb
00000340: 0485 fc3b ed52 f4bd 35c3 ba3c f6be cbbd
00000350: 3bc6 4ebd 586f 92bd c28c 3ebd a207 7b3d
00000360: c03b c3ba 0411 90bc 07bb 163c 1a0e b13c
00000370: e443 3c3d eaff 5c3b 317e 0cbd 64ce 27bc
00000380: 73ec 303c 69cb 2f3d 42b2 323c b46b c6bd
00000390: 07a9 a13c 9365 7d3d 98b0 d53a d502 643c
000003a0: 31af b93c 350d 87bc 808b d8bc d710 b93c
000003b0: f821 59bd a91f 99bd 06bb b3bc 9063 3c3b
000003c0: 7efc 8dbd 6790 cd3c f168 2e3c 23a5 0d3d
000003d0: fb37 093c ef1b 23bc 4c45 6abe a506 de3d
000003e0: 77dd 913d 4639 aa3d cad4 5d3d be13 c4bd
000003f0: 207d 74bc 32fb 8c3b 4f3a d63c b4b7 06bd

features.0.bias f4 [50]
0.08228446 0.10924506 0.17535907 0.054653548 -0.034752592 -0.034099054 0.06487667 -0.040855553
-0.04721374 -0.012733006 0.0570514 0.052321907 0.09558874 0.1877143 0.115925364 0.096709326
-0.0006811268 -0.0010931091 0.026936894 0.07447908 -0.04200529 0.14086665 0.19975302 0.11642163
0.016388321 0.067288354 0.0915806 -0.028568687 0.15806878 0.041100327 0.12773281 -0.057406094
0.028816197 0.014821768 -0.008953915 0.054874428 0.06670912 -0.07706704 0.08693797 0.021342065
-0.014946731 0.073215686 0.137263 0.1097181 -0.003450224 0.041784715 -0.032255415 0.05953621
0.055529263 0.024553688
00000000: c184 a83d e0bb df3d 5491 333e 66dc 5f3d
00000010: bc58 0ebd 73ab 0bbd 0fde 843d 2758 27bd
00000020: 3263 41bd 199e 50bc bbae 693d 7f4f 563d
00000030: 08c4 c33d 2d38 403e 476a ed3d 8a0f c63d
00000040: a58d 32ba a846 8fba c3aa dc3c 7d88 983d
00000050: bd0d 2cbd 593f 103e 0e8c 4c3e 776e ee3d
00000060: cd40 863c 7ace 893d 9c8e bb3d e108 eabc
00000070: c8dc 213e d158 283d 64cc 023e a722 6bbd
00000080: f20f ec3c 00d7 723c 71b3 12bc 02c4 603d
00000090: cb9e 883d 53d5 9dbd 890c b23d 8ed5 ae3c
000000a0: 22e3 74bc 1bf2 953d ac8e 0c3e e2b3 e03d
000000b0: 271d 62bb 7326 2b3d 411e 04bd 3edc 733d
000000c0: a772 633d d124 c93c

head.weight f4 [2, 50]
0.23199642 0.23449522 -0.564414 0.28233865 0.22414286 0.23761465 -0.2097924 -0.23873569
-0.2374126 -0.081675746 -0.18884169 0.17228186 0.20084248 -0.6123247 0.43389484 0.32754302
0.29201326 -0.2622335 -0.11822241 0.31237572 -0.09692394 0.23447905 -0.52111673 0.25227123
-0.14397773 0.26827288 0.25957534 -0.1952226 0.26828304 -0.28284875 0.30956537 -0.46437955
-0.16533759 -0.19407225 -0.15324669 -0.29428357 0.25977147 -0.24976575 0.32109165 0.27595973
-0.23118795 0.23209624 0.24527055 0.24468604 0.18796895 0.2644164 0.23629755 0.20188533
0.15955417 0.21564372 -0.17224678 -0.20410892 0.5659467 -0.17690505 -0.30758977 -0.24278015
0.18939161 0.21420269 0.17744373 0.09814387 0.267254 -0.2691227 -0.1818601 0.6254394
-0.39629304 -0.24189824 -0.23013738 0.28489366 0.1350081 -0.31593314 0.1346686 -0.23058859
0.48575622 -0.28261814 0.16357733 -0.25475672 -0.28291452 0.202462 -0.39815825 0.25586206
-0.30567375 0.49171522 0.1782914 0.21295424 0.13911794 0.24948339 -0.31689078 0.25860828
-0.26878855 -0.25301164 0.21479206 -0.21176292 -0.3034134 -0.31980327 -0.2412979 -0.27223402
-0.22298881 -0.19380426 -0.177393 -0.13028356
00000000: 7890 6d3e 841f 703e 707d 10bf b18e 903e
00000010: b585 653e 4151 733e d2d3 56be 2177 74be
00000020: 4a1c 73be 9d45 a7bd b75f 41be a86a 303e
00000030: a7a9 4d3e 50c1 1cbf 7727 de3e b8b3 a73e
00000040: c382 953e 7843 86be 971e f2bd b6ef 9f3e
00000050: 0f80 c6bd 471b 703e e867 05bf b229 813e
00000060: e66e 13be 105b 893e 0fe7 843e 6fe8 47be
00000070: 655c 893e 8dd1 90be 5a7f 9e3e 28c3 edbe
00000080: 424e 29be e0ba 46be b3ec 1cbe 56ac 96be
00000090: c400 853e 98c2 7fbe 2066 a43e 984a 8d3e
000000a0: 89bc 6cbe a3aa 6d3e 3428 7b3e fa8e 7a3e
000000b0: ef7a 403e 9661 873e fcf7 713e 07bb 4e3e
000000c0: 2b62 233e b5d1 5c3e 7661 30be ee01 51be
000000d0: e2e1 103f 9926 35be 687c 9dbe 5c9b 78be
000000e0: e0ef 413e f357 5b3e cfb3 353e a7ff c83d
000000f0: 84d5 883e 73ca 89be 8939 3abe cc1c 203f
00000100: ece6 cabe 2cb4 77be 22a9 6bbe 95dd 913e
00000110: 903f 0a3e fdc1 a1be 91e6 093e 6a1f 6cbe
00000120: 0ab5 f83e 53b3 90be d180 273e 796f 82be
00000130: 2cda 90be 3352 4f3e 66db cbbe 5a00 833e
00000140: 4581 9cbe 19c2 fb3e 0592 363e ad10 5a3e
00000150: ef74 0e3e 9378 7f3e 823f a2be 4e68 843e
00000160: a79e 89be be8a 81be 73f2 5b3e 61d8 58be
00000170: 0059 9bbe 41bd a3be cc16 77be 4262 8bbe
00000180: 2e57 64be a074 46be 83a6 35be 0e69 05be

head.bias f4 [2]
0.12173028 -0.07699917
00000000: ba4d f93d beb1 9dbd
