trained_models/20220214/adult/reweighting/mlp_sex_seed0_epochs5_bs128_lr0.0003_decay0.0005_constrainteo_eta30.0_iter10.pt (torch, 21919 bytes, 4 tensors)

features.0.weight f4 [50, 98]
0.0053967857 0.0046505146 -0.09360987 0.1321779 -0.0682778 0.026884101 0.082595125 0.06572449
0.024668135 -0.03905632 -0.2214146 0.08049268 -0.009873498 -0.056788392 -0.016075872 -0.035687104
0.043489467 0.023008054 -0.047709763 0.013407018 0.032030817 0.02867791 -0.0109794885 0.04914578
0.0081929285 -0.009538545 -0.018962625 -0.09992488 0.02280197 0.010353341 0.02118144 0.0377164
0.048853323 -0.008095349 -0.045588702 -0.02846363 0.003287553 0.029338816 0.008853848 0.104068466
-0.0018054254 -0.04123469 0.019013636 -0.012528299 0.0033265424 -0.004148191 0.028136028 -0.018766146
0.021240419 -0.13034193 0.015986253 0.117701 -0.0327435 -0.060198728 -0.0126039935 0.060188863
0.031025207 -0.054551344 0.001996005 0.011208356 0.015367994 0.0032915762 0.0027448612 0.016749863
0.034318395 0.017214535 0.03580692 0.0116272895 0.01003455 0.044979203 -0.003397985 0.0006549164
0.0125275785 0.05384204 0.029651862 0.048042357 0.027472239 -0.022328809 0.01596367 0.023073494
-0.014633276 -0.05962742 0.031641528 0.003983063 0.014552018 0.017513374 0.022946479 -0.015854567
-0.022538593 -0.01391729 0.016491143 0.027319275 0.017752549 0.014835838 -0.039083906 0.01966247
0.027179025 -0.12977439 -0.16020522 -0.040794086 -0.034760274 -0.09092541 -0.020463692 -0.07211416
-0.030084733 0.05350036 -0.006026616 -0.02036094 -0.057574544 0.027624907 0.022694549 0.081238836
0.035011422 0.10865767 0.02964999 -0.013296555 -0.049677227 -0.037268776 0.029369798 0.015648805
-0.004328505 -0.015163596 0.0202835 -0.0039528185 0.032651637 0.014034295 -0.017254775 0.031797796
-0.008779811 -0.09575955 0.0031960695 0.04341821 -0.01994284 0.04865373 0.0824777 0.019226337
0.05627501 -0.06383495 0.08762105 0.05487679 0.115967706 0.03324478 0.025724212 -0.04682459
-0.049393184 -0.038021374 0.0047424496 -0.011817039 -0.020271642 0.022102602 0.03652909 -0.01986524
0.0041794623 -0.0052951165 -0.0072486526 0.005272615 0.051580556 0.04208525 2.9640092e-05 0.03290625
0.026140485 0.049218643 -0.020814301 -0.000957641 0.035160504 -0.004526195 -0.032135736 0.04244409
0.003445237 0.016272362 0.048509303 -0.0026767238 0.019163204 0.037958216 0.010977732 0.039695296
0.0129096005 -0.015982771 0.037547972 0.04365651 -0.019785406 0.0130419955 0.028425923 0.04462302
0.006291005 0.011489545 0.007303401 0.022091024 -0.0116564855 0.032463934 0.030006746 0.0361078
-0.020842642 0.018891959 0.02736168 -0.17256176 -0.17637455 -0.011535961 -0.07844889 -0.16869698
-0.034998372 0.1349764 -0.059235 -0.054843847 -0.09455563 0.047764394 0.076357834 0.0658546
-0.0057931906 0.02848639 -0.03032589 -0.057881784 0.02217599 -0.10995296 -0.04960318 0.0006564464
0.0019948783 -0.027319983 0.035358094 -0.080960356 0.088497855 0.033630908 0.013508103 -0.09513091
-0.04107223 0.03295707 -0.01243267 -0.102825925 -0.026711686 0.09608817 0.037554268 0.04684666
-0.0014113262 0.031764254 0.05152107 0.01786502 0.042704076 -0.0062361155 -0.022861566 -0.022558164
0.022103546 0.08729482 -0.06948807 -0.045330122 -0.036992617 -0.07573573 0.01513919 0.011325034
0.04438443 0.027906341 -0.026815562 -0.0006529918 0.025213435 0.009861044 -0.004766239 -0.007129358
00000000: 85d7 b03b 5863 983b 88b6 bfbd a559 073e
00000010: 3bd5 8bbd 0c3c dc3c a227 a93d 909a 863d
00000020: d414 ca3c 85f9 1fbd 82ba 62be 59d9 a43d
00000030: 74c4 21bc f29a 68bd 8cb1 83bc a42c 12bd
00000040: 0322 323d 637b bc3c 506b 43bd 1ca9 5b3c
00000050: bf32 033d f0ed ea3c 50e3 33bc 164d 493d
00000060: a23b 063c 8f47 1cbc 8257 9bbc 6aa5 ccbd
00000070: 32cb ba3c 0fa1 293c b384 ad3c 837c 1a3d
00000080: 6c1a 483d 5ba2 04bc 38bb 3abd 8f2c e9bc
00000090: fd73 573b f557 f03c bb0f 113c d921 d53d
000000a0: 06a4 ecba b5e5 28bd 7cc2 9b3c 7f43 4dbc
000000b0: 1f02 5a3b 8ced 87bb 877d e63c 76bb 99bc
000000c0: 6300 ae3c 5b78 05be 9af5 823c 390d f13d
000000d0: 0c1e 06bd f192 76bd fb80 4ebc 9988 763d
000000e0: 9328 fe3c 3b71 5fbd 68cf 023b 41a3 373c
000000f0: 0aca 7b3c 7cb7 573b 21e3 333b 0237 893c
00000100: 7291 0c3d 7f05 8d3c 47aa 123d 6380 3e3c
00000110: f467 243c 1d3c 383d bab0 5ebb b2ae 2b3a
00000120: 7940 4d3c 7989 5c3d 76e8 f23c 10c8 443d
00000130: 760d e13c e8ea b6bc 3ec6 823c a004 bd3c
00000140: 68c0 6fbc e23b 74bd 8c9a 013d 5b84 823b
00000150: 966b 6e3c 3578 8f3c 41fa bb3c 70e1 81bc
00000160: dba2 b8bc 5805 64bc 6f18 873c accc df3c
00000170: cb6d 913c 0412 733c 7216 20bd 3013 a13c
00000180: 8ca6 de3c 94e3 04be d60c 24be b317 27bd
00000190: ca60 0ebd 1a37 babd 79a3 a7bc 97b0 93bd
000001a0: 4274 f6bc 3223 5b3d eb7a c5bb fccb a6bc
000001b0: 49d3 6bbd a14d e23c ebe9 b93c 8c60 a63d
000001c0: 2368 0f3d ea87 de3d 89e4 f23c cbd9 59bc
000001d0: 597a 4bbd 25a7 18bd ee98 f03c ec31 803c
000001e0: 22d6 8dbb bb70 78bc 9529 a63c a586 81bb
000001f0: b9bd 053d 1af0 653c e359 8dbc 683e 023d
00000200: 32d9 0fbc 951d c4bd 2675 513b 4bd7 313d
00000210: 2b5f a3bc 2249 473d 12ea a83d 8d80 9d3c
00000220: a080 663d e6bb 82bd aa72 b33d 7cc6 603d
00000230: 7a80 ed3d ae2b 083d 95bb d23c 24cb 3fbd
00000240: 8250 4abd 4dbc 1bbd 8d66 9b3b 419c 41bc
00000250: b710 a6bc 8410 b53c 879f 153d 6ebc a2bc
00000260: dff3 883b a882 adbb 1b86 edbb e6c5 ac3b
00000270: 2246 533d 9561 2c3d 9da3 f837 b4c8 063d
00000280: 9224 d63c 7d99 493d c182 aabc 330a 7bba
00000290: 7604 103d 7a50 94bb c3a0 03bd dbd9 2d3d
000002a0: 7cc9 613b 9e4d 853c b1b1 463d f96b 2fbb
000002b0: 27fc 9c3c 137a 1b3d f2db 333c 8997 223d
000002c0: ca82 533c 4dee 82bc e7cb 193d 2bd1 323d
000002d0: 0115 a2bc 18ae 553c 7bdd e83c a1c6 363d
000002e0: c624 ce3b a53e 3c3c 5e51 ef3b 3cf8 b43c
000002f0: d8fa 3ebc e7f8 043d b5d0 f53c c6e5 133d
00000300: 30be aabc 4fc3 9a3c 9a25 e03c 08b4 30be
00000310: 889b 34be 5401 3dbc d0a9 a0bd e7be 2cbe
00000320: 745a 0fbd 4137 0a3e 66a0 72bd f1a3 60bd
00000330: 62a6 c1bd 99a4 433d 7f61 9c3d c7de 863d
00000340: ced4 bdbb 4a5c e93c 006e f8bc 7315 6dbd
00000350: 6caa b53c 042f e1bd b42c 4bbd 5f15 2c3a
00000360: 81bc 023b 28ce dfbc a6d3 103d 8bce a5bd
00000370: 5d3e b53d 90c0 093d 1751 5d3c ffd3 c2bd
00000380: 5b3b 28bd fefd 063d 66b2 4bbc 6696 d2bd
00000390: 77d2 dabc e0c9 c43d 81d2 193d 49e2 3f3d
000003a0: 40fc b8ba 3c1b 023d c207 533d aa59 923c
000003b0: 78ea 2e3d 5458 ccbb 2e48 bbbc e6cb b8bc
000003c0: 7f12 b53c a0c7 b23d c34f 8ebd 14ac 39bd
000003d0: 9285 17bd 561b 9bbd 5d0a 783c a38c 393c
000003e0: 73cc 353d d79b e43c 4fac dbbc 8a2d 2bba
000003f0: 688c ce3c 3790 213c 1c2e 9cbb 649d e9bb

features.0.bias f4 [50]
0.029105444 -0.04168146 0.064844295 0.029140992 0.015551608 0.028788507 -0.028305054 0.097524054
0.06668071 0.09778378 0.043601736 -0.00959163 0.04726505 -0.015001268 -0.004122081 -0.004306305
-0.0123796165 0.042618766 0.09154797 0.06202102 0.08741751 0.017484048 0.038555358 0.10603442
0.06030462 -0.0050342293 0.10255567 -0.027491637 0.09955054 0.12635389 0.10095345 -6.6205255e-05
0.06702602 0.053151477 0.08332226 0.0011668546 0.040206753 0.06421748 0.05233013 0.022606596
0.006524597 -0.0073001897 0.11934951 0.018912252 0.05266205 0.09422106 0.09993641 0.054852586
-0.014686488 -0.059271067
00000000: 8a6e ee3c 2eba 2abd 16cd 843d 17b9 ee3c
00000010: 2ccc 7e3c e0d5 eb3c 00e0 e7bc b1ba c73d
00000020: e58f 883d dd42 c83d bc97 323d 3626 1dbc
00000030: ff98 413d e1c7 75bc 8612 87bb e81b 8dbb
00000040: e0d3 4abc 0491 2e3d 817d bb3d c109 7e3d
00000050: f407 b33d b53a 8f3c 39ec 1d3d 9328 d93d
00000060: fa01 773d 2df6 a4bb b508 d23d 2436 e1bc
00000070: 27e1 cb3d ea62 013e afc0 ce3d add7 8ab8
00000080: f044 893d 5db5 593d dca4 aa3d 25f1 983a
00000090: d6af 243d 7484 833d 1e58 563d 7831 b93c
000000a0: 49cc d53b 6e36 efbb 846d f43d deed 9a3c
000000b0: 29b4 573d f9f6 c03d 76ab cc3d 1bad 603d
000000c0: 989f 70bc 38c6 72bd

head.weight f4 [2, 50]
-0.13186857 0.17706046 0.19864537 0.2358976 0.25978625 -0.20975131 0.1146756 0.1411035
0.28793564 -0.23787187 -0.18533176 -0.1134953 -0.2082091 0.19618909 0.38889644 0.20380199
0.15689822 -0.28667602 -0.1969509 0.22647095 0.27774364 -0.32230866 0.27488008 -0.2677487
0.26067755 0.19030057 -0.28411633 0.29027158 -0.27303147 0.24035595 0.27397326 0.194536
-0.35393214 -0.16691385 0.2864384 -0.24524301 0.17799887 0.22127472 0.2624853 -0.17992802
0.30024672 0.17134772 0.2889607 0.15888602 -0.1532204 0.12202061 -0.28295332 -0.41655234
0.30434734 0.17777534 0.25223365 -0.22216333 -0.2520621 -0.18125075 -0.37075162 0.1566588
-0.2372525 -0.2792469 -0.19861321 0.2755288 0.18261541 0.24711479 0.13211182 -0.27617976
-0.24661072 -0.2889712 -0.28472936 0.29455063 0.23254794 -0.26655257 -0.20527096 0.21333705
-0.18645307 0.16311441 -0.24846047 -0.29413584 0.2675945 -0.23920883 0.25303268 -0.21743485
-0.29064327 -0.18337141 0.2557916 0.22873099 -0.25349727 0.09746384 -0.13980404 -0.3381261
-0.29364562 0.1801549 -0.30334082 -0.22260623 -0.15987456 -0.13821183 0.2121165 -0.24130425
0.24458241 0.3663834 -0.36199278 -0.2783328
00000000: 8e08 07be 564f 353e b169 4b3e 248f 713e
00000010: b402 853e 0cc9 56be 0adb ea3d 707d 103e
00000020: 4d6c 933e af94 73be 9cc7 3dbe 3970 e8bd
00000030: c434 55be cbe5 483e 6f1d c73e 78b1 503e
00000040: eda9 203e 33c7 92be 7fad 49be 00e8 673e
00000050: 6a34 8e3e a405 a5be 15bd 8c3e 5c16 89be
00000060: 8777 853e 27de 423e b277 91be 7a9e 943e
00000070: c8ca 8bbe df1f 763e 3946 8c3e 7234 473e
00000080: 9836 b5be 77eb 2abe 0ea8 923e fc20 7bbe
00000090: 5645 363e d795 623e 7964 863e 0d3f 38be
000000a0: f0b9 993e c775 2f3e a8f2 933e 04b3 223e
000000b0: cfe5 1cbe f1e5 f93d 42df 90be 5946 d5be
000000c0: 6ad3 9b3e bd0a 363e c524 813e c97e 63be
000000d0: 490e 81be cc99 39be 28d3 bdbe 2a6b 203e
000000e0: 52f2 72be 73f9 8ebe 4361 4bbe 1c12 8d3e
000000f0: 89ff 3a3e a90b 7d3e 5248 073e 6f67 8dbe
00000100: 8587 7cbe 08f4 93be 0cc8 91be 57cf 963e
00000110: 0c21 6e3e 9479 88be 8d32 52be 0775 5a3e
00000120: 8eed 3ebe 7707 273e 6c6c 7ebe f998 96be
00000130: 2502 893e 29f3 74be 808d 813e 3ea7 5ebe
00000140: 32cf 94be b7c5 3bbe 1ef7 823e 7538 6a3e
00000150: 65ca 81be 1f9b c73d ca28 0fbe dd1e adbe
00000160: b858 96be 877a 383e 7d4f 9bbe e3f2 63be
00000170: 28b6 23be 6787 0dbe 1135 593e 7618 77be
00000180: d073 7a3e 9b96 bb3e 1e57 b9be a381 8ebe

head.bias f4 [2]
-0.111439444 0.0769852
00000000: 5d3a e4bd 6baa 9d3d
