trained_models/20220214/adult/reweighting/mlp_sex_seed4_epochs5_bs128_lr0.0005_decay0.0005_constrainteopp_eta2.0_iter10.pt (torch, 21919 bytes, 4 tensors)

features.0.weight f4 [50, 98]
-0.002292117 0.0034097435 -0.015962409 0.006747149 -0.0076847575 -0.008449096 0.0016622005 0.01839312
-0.0037769338 0.00048064583 0.00010338374 -0.0017906671 -0.00052256376 -0.0031497437 0.0014890654 -0.0014829184
-0.001056738 -0.0018480724 0.00094461726 -0.0025334407 -0.00050232693 0.0017330552 -0.0007723092 -0.00087353145
-5.0611605e-05 -0.0025551096 0.00024924972 0.004880005 0.0099597275 -0.006277351 0.0020503222 -0.0007535055
-4.1678173e-05 0.0092567615 0.005077594 -0.006520664 0.014124631 -0.0026217075 0.00019057184 -0.007572266
-0.0016108688 0.0030835024 0.0051652817 0.00807103 -0.00070384564 0.003469391 0.007468452 -0.012300781
0.008589033 0.0027781215 -0.00063331623 0.01615687 -0.0031436067 -0.0057145357 -0.003237163 -0.0017690052
0.0033066713 -0.0022531936 -0.0040088412 -0.00048324943 0.0062751435 -0.0024451057 -3.4099703e-05 -0.002423354
-0.00074489816 -0.000426523 0.006457788 -0.00044980188 0.0039313827 0.0012604565 3.5484452e-05 -0.0004649457
0.0028655713 -0.0001934411 -0.003772588 0.00032904235 0.0042640604 0.0031779762 0.0043864744 -0.0037414485
-0.0005552627 0.0017804933 -0.0006615769 0.003279663 -0.00021185962 -0.0059977514 0.00511869 -0.002821342
0.0034639216 -0.00013654746 0.0019012861 -0.0025717327 -0.0007857515 -0.0011632254 0.0046706162 0.003399055
-0.00043417918 -0.0024328155 0.22938499 -0.06898227 0.07987756 -0.053011548 0.07075033 0.059467785
0.027580012 0.08379585 -0.09645598 -0.07318503 0.0410151 -0.043816604 0.019669864 0.042078696
-0.15060547 0.032549832 -0.019799612 0.079601616 -0.05744473 -0.029905075 0.04133769 0.030565215
-0.09446402 -0.08727524 0.0834525 0.005729263 0.017658358 -0.02040786 0.045734644 0.03767227
-0.015586802 -0.036545947 -0.02116773 0.091226436 0.0027676772 -0.029391473 -0.07436598 0.0007576493
0.0543961 -0.048046026 0.10338622 -0.056742888 -0.023400487 0.14940947 0.038115524 -0.012214971
0.06362601 0.039752133 -0.09029747 -0.0007238454 -0.023832371 0.039555274 0.06634278 0.062271293
-0.13744344 0.030763132 0.011099335 0.026882663 0.024566662 0.03025473 0.033413474 0.030330334
-0.025476526 0.007113141 0.060933433 -0.027139124 -0.06295015 0.013827579 -0.057161316 0.050448347
0.002108844 0.020002097 0.021807404 0.010107398 -0.03612549 -0.042040937 -0.0058945725 0.018670345
0.024935793 -0.015255878 -0.014352672 -0.05512214 0.019896807 0.010468273 -0.016167149 0.034606878
0.055885814 -0.043193758 -0.044078242 -0.0020818016 0.0029317064 0.016260827 0.01522771 0.006316533
0.08679618 0.04469631 -0.018522628 0.00061155576 -0.025826586 -0.01439782 -0.082248785 -0.13689494
-0.0042219996 -0.25089708 0.09778945 0.11581155 -0.004366056 -0.059922945 -0.15098199 -0.026084116
0.029883137 -0.061065983 0.039063986 0.067477904 -0.010721636 0.07495745 0.035779703 0.05000687
0.09206043 -0.03954771 0.06498441 0.027727157 0.03203781 -0.12708391 0.015039284 -0.05687335
-0.040604174 -0.0345033 -0.017561547 -0.10935474 -0.04802623 0.12872075 0.01838017 0.00912214
-0.086728975 0.018706836 0.018722741 0.020926317 0.034190446 0.018323949 0.03851536 0.12213505
0.01012078 -0.018134693 -0.07543881 -0.08588263 0.09328617 0.050292928 -0.010505149 0.0024235256
0.032172985 0.09773578 -0.066068456 -0.10115243 -0.008834389 0.041821573 0.018101156 0.04570907
00000000: 5837 16bb 0176 5f3b 99c3 82bc 3017 dd3b
00000010: 6bd0 fbbb 146e 0abc 32de d93a 2bad 963c
00000020: 6f86 77bb 31ff fb39 b9cf d838 d1b4 eaba
00000030: a9fc 08ba ee6b 4ebb be2c c33a 7c5e c2ba
00000040: 3e82 8aba 053b f2ba 31a0 773a 1508 26bb
00000050: 97ae 03ba af27 e33a cb74 4aba b4fd 64ba
00000060: cc47 54b8 a073 27bb bbad 8239 73e8 9f3b
00000070: 202e 233c 3db2 cdbb b35e 063b e686 45ba
00000080: 99cf 2eb8 aca9 173c f261 a63b 4bab d5bb
00000090: ff6a 673c f4d0 2bbb 3dd4 4739 c520 f8bb
000000a0: ca23 d3ba 9614 4a3b 8641 a93b 5a3c 043c
000000b0: 4882 38ba b95e 633b ebb9 f43b 3789 49bc
000000c0: 04b9 0c3c 2511 363b 2205 26ba 6a5b 843c
000000d0: f804 4ebb 0041 bbbb 9526 54bb f7dd e7ba
000000e0: bdb4 583b 51aa 13bb 995c 83bb a45c fdb9
000000f0: b89f cd3b 113e 20bb 4706 0fb8 22d1 1ebb
00000100: 4545 43ba f39e dfb9 da9b d33b 63d3 ebb9
00000110: d4d2 803b e735 a53a 24d5 1438 f5c3 f3b9
00000120: 4fcc 3b3b 73d6 4ab9 863d 77bb 5183 ac39
00000130: 88b9 8b3b 9845 503b 6abc 8f3b 1733 75bb
00000140: 0d8f 11ba 715f e93a ad6d 2dba 9def 563b
00000150: a226 5eb9 c988 c4bb afba a73b 44e6 38bb
00000160: f602 633b 2e2e 0fb9 9334 f93a 848a 28bb
00000170: e4fa 4dba 5e77 98ba f80b 993b aec2 5e3b
00000180: 8ba2 e3b9 df6f 1fbb e6e3 6a3e 9446 8dbd
00000190: d996 a33d a322 59bd 8de5 903d 7e94 733d
000001a0: 7aef e13c 299d ab3d b68a c5bd 08e2 95bd
000001b0: 73ff 273d 0a79 33bd b222 a13c b65a 2c3d
000001c0: 5238 1abe f952 053d cc32 a2bc 2c06 a33d
000001d0: 2a4b 6bbd 7dfb f4bc b651 293d e763 fa3c
000001e0: 5a76 c1bd 5cbd b2bd 25e9 aa3d 8bbc bb3b
000001f0: 43a8 903c 622e a7bc 4054 3b3d 3d4e 1a3d
00000200: c95f 7fbc 34b1 15bd f367 adbc edd4 ba3d
00000210: eb61 353b 63c6 f0bc 314d 98bd fc9c 463a
00000220: 72ce 5e3d e9cb 44bd 28bc d33d 3b6b 68bd
00000230: 61b2 bfbc ccfe 183e 061f 1c3d 4d21 48bc
00000240: 5b4e 823d 22d3 223d e1ed b8bd 71c0 3dba
00000250: 1b3c c3bc b604 223d b9de 873d 2f10 7f3d
00000260: f9bd 0cbe f702 fc3c fcd9 353c 0839 dc3c
00000270: 0640 c93c c4d8 f73c 91dc 083d 5277 f83c
00000280: 26b4 d0bc 5a15 e93b 5695 793d de52 debc
00000290: 02ec 80bd 128d 623c fc21 6abd eda2 4e3d
000002a0: 8834 0a3b 70db a33c 71a5 b23c 8099 253c
000002b0: 52f8 13bd 1e33 2cbd 4227 c1bb 8df2 983c
000002c0: 2646 cc3c caf3 79bc 7827 6bbc c1c7 61bd
000002d0: a1fe a23c 1f83 2b3c f870 84bc f1bf 0d3d
000002e0: 86e8 643d f0eb 30bd 638b 34bd d66e 08bb
000002f0: df21 403b 6d35 853c a57d 793c ebfa ce3b
00000300: 32c2 b13d 7a13 373d c4bc 97bc d050 203a
00000310: 4792 d3bc d6e4 6bbc 0d72 a8bd 302e 0cbe
00000320: b358 8abb 9575 80be d645 c83d 9b2e ed3d
00000330: 2211 8fbb c371 75bd 069b 1abe 5bae d5bc
00000340: 7bcd f43c 5320 7abd 8f01 203d db31 8a3d
00000350: cda9 2fbc 4b83 993d bd8d 123d 01d4 4c3d
00000360: 2e8a bc3d c8fc 21bd 8c16 853d 1024 e33c
00000370: 143a 033d 4922 02be 5467 763c 08f4 68bd
00000380: 9050 26bd 5553 0dbd 3cdd 8fbc 61f5 dfbd
00000390: 27b7 44bd 5fcf 033e 0392 963c 0775 153c
000003a0: f69e b1bd 143f 993c 6f60 993c ab6d ab3c
000003b0: 480b 0c3d 1b1c 963c 48c2 1d3d f121 fa3d
000003c0: a1d1 253c 358f 94bc aa7f 9abd 3be3 afbd
000003d0: d20c bf3d f5ff 4d3d ca1d 2cbc 03d4 1e3b
000003e0: d2c7 033d b229 c83d e64e 87bd 0129 cfbd
000003f0: 1dbe 10bc 194d 2b3d e048 943c 6f39 3b3d

features.0.bias f4 [50]
-0.0064040544 0.06915745 0.03338054 0.08368551 -0.022167051 0.034864627 0.08707386 0.03391869
0.03425356 0.024305176 0.048225477 0.06406255 0.08973672 0.04576061 0.09563224 0.07095692
0.06800647 0.020369513 0.021025125 0.016799906 -0.022938833 0.06777147 0.029356616 0.05027905
0.022544194 0.008486263 -0.024526197 -0.026906302 0.00985184 0.02734506 0.07147774 0.06262211
0.005672437 -0.024595939 -0.00153107 0.031371035 0.038540058 0.036817946 0.0766945 0.040546943
-0.03535824 0.035566002 0.048499882 0.06777853 -0.01934667 -0.014198699 -0.036678936 -0.069249906
0.0769802 -0.031336993
00000000: 1ad9 d1bb 6ca2 8d3d 08ba 083d 4f63 ab3d
00000010: ad97 b5bc 36ce 0e3d c853 b23d 53ee 0a3d
00000020: 764d 0c3d a61b c73c 1488 453d 3a33 833d
00000030: e3c7 b73d 7a6f 3b3d d6da c33d dd51 913d
00000040: fa46 8b3d f7dd a63c e23c ac3c f59f 893c
00000050: 38ea bbbc c5cb 8a3d 497d f03c 68f1 4d3d
00000060: 9aae b83c f809 0b3c 2aeb c8bc 9b6a dcbc
00000070: 9d69 213c bf02 e03c ec62 923d 0540 803d
00000080: dadf b93b 6c7d c9bc 2fae c8ba ea7e 003d
00000090: 2edc 1d3d 6ace 163d 0212 9d3d 8d14 263d
000000a0: cdd3 10bd a8ad 113d d0a7 463d 78cf 8a3d
000000b0: e87c 9ebc a9a1 68bc a73c 16bd e5d2 8dbd
000000c0: cca7 9d3d 385b 00bd

head.weight f4 [2, 50]
-0.0044896877 0.23424675 0.29716682 0.30005234 -0.1733687 0.34901324 -0.24700326 0.21214306
-0.08675194 0.26984763 0.2824736 -0.27688044 0.24334273 -0.15039639 0.24242173 0.2686072
0.31379384 0.12738566 0.2268697 0.31074187 -0.4586322 0.25361815 0.24614052 -0.08333657
-0.26983303 -0.3258909 0.3121383 0.24379434 0.20749484 0.27244607 0.26362744 0.3210245
-0.3417802 -0.20289622 -0.00033197383 -0.26832142 0.35760167 -0.29276317 -0.19965558 -0.24388774
-0.21740718 0.14090542 -0.24343297 0.29136726 -0.045646258 0.33141744 0.34972802 0.25922853
-0.15606229 -0.10543329 0.0066005806 -0.28299236 -0.26706856 -0.41976115 0.18312067 -0.39768806
0.18862344 -0.28112042 0.120587975 -0.27992085 -0.27943683 0.23430468 -0.23598437 0.24579152
-0.3588624 -0.38224363 -0.283318 -0.19215147 -0.23512508 -0.34353963 0.4118498 -0.28976747
-0.27026817 0.21484615 0.23001876 0.28696355 -0.22970657 -0.30212605 -0.28342324 -0.21467158
-0.28086877 -0.25927025 0.29877663 0.15886605 0.00013645072 0.23679395 -0.25086084 0.39383602
0.23400946 0.17941487 0.19351532 -0.047595277 0.19302107 -0.2493776 0.048876002 -0.3595884
-0.43499303 -0.3398689 0.14035344 0.16090263
00000000: 3b1e 93bb 61de 6f3e 4026 983e 76a0 993e
00000010: 9187 31be ddb1 b23e 6cee 7cbe 083c 593e
00000020: 00ab b1bd 7829 8a3e 61a0 903e 46c3 8dbe
00000030: d62e 793e 8301 1abe 673d 783e e286 893e
00000040: 96a9 a03e 6371 023e 8850 683e 8f19 9f3e
00000050: d7d1 eabe 3dda 813e 430c 7c3e 5dac aabd
00000060: 8e27 8abe 2cdb a6be 97d0 9f3e 39a5 793e
00000070: 8779 543e 0d7e 8b3e 2dfa 863e 535d a43e
00000080: d0fd aebe 07c4 4fbe c60c aeb9 6d61 89be
00000090: 9117 b73e 0ee5 95be 8372 4cbe b5bd 79be
000000a0: fd9f 5ebe 8349 103e 7e46 79be 172e 953e
000000b0: 92f7 3abd 8caf a93e 8d0f b33e 9ab9 843e
000000c0: cbce 1fbe 69ed d7bd af49 d83b 60e4 90be
000000d0: 36bd 88be efea d6be fc83 3b3e c59d cbbe
000000e0: 8126 413e 04ef 8fbe d4f6 f63d c951 8fbe
000000f0: 5812 8fbe 91ed 6f3e e3a5 71be c6b0 7b3e
00000100: d0bc b7be 70b5 c3be 0f0f 91be 5bc3 44be
00000110: a1c4 70be 6de4 afbe fadd d23e 675c 94be
00000120: 9760 8abe a100 5c3e 0a8a 6b3e e3ec 923e
00000130: 3338 6bbe 44b0 9abe da1c 91be ded2 5bbe
00000140: 08ce 8fbe 12bf 84be 40f9 983e c8ad 223e
00000150: 3614 0f39 1d7a 723e d570 80be e0a4 c93e
00000160: 2da0 6f3e 88b8 373e e128 463e 44f3 42bd
00000170: 51a7 453e d75c 7fbe 3432 483d f91b b8be
00000180: 68b7 debe 4c03 aebe d0b8 0f3e a9c3 243e

head.bias f4 [2]
-0.07419251 0.079637624
00000000: 3ef2 97bd 0d19 a33d
