trained_models/20220214/adult/reweighting/mlp_sex_seed3_epochs5_bs128_lr0.0001_decay0.0005_constrainteo_eta10.0_iter10.pt (torch, 21919 bytes, 4 tensors)

features.0.weight f4 [50, 98]
00000000: 9c50 b0be b186 6bbd b99b 70bd aa1f 61be
00000010: cb5d a4bc e96c 36be 6497 803d ded0 c43d
00000020: 28e4 06bb 28ad ef3c 15a8 52bd 80d5 b93d
00000030: 8378 583c 225d 68bd b4fd 05bd ab21 913c
00000040: d013 93bd 0a98 b23d 6ad4 163d d32d c33d
00000050: 72b5 36bb be70 bebd 16a3 813d 18f8 07bd
00000060: c213 7ebc 976c 61bd ccd8 0e3c 3225 083d
00000070: 7242 86bd 88d1 21bd 8f9f c1bc 8f9f 05bd
00000080: 03a3 91bd 3d4a b93c 2054 e8bc d12c 2bbd
00000090: f413 d9bd 9208 ce3a cbb7 87bc 9dfe 453d
000000a0: 4761 823d 229c c1bb 566b c7bb 3536 f3ba
000000b0: 9655 e73b 5d95 e1bc 360b 3ebd e97a 94bd
000000c0: 279a 9c3c b79c 2f3d 9780 40ba 0641 b1bc
000000d0: 69df 9d3b c295 db3d cf45 a93d 9414 e1bc
000000e0: 07e0 a9bb eed4 3f3c ac71 353d 781c 073d
000000f0: af3f 6b3d bf08 f73c a3e5 de3b a63b 8bbd
00000100: 388e a2bc a5be 22bc 6ade bc3b 5455 e2bb
00000110: 84d9 b93c 6fdb 373d fe77 153b d8ae bd3c
00000120: bc0d 8ebc 05c2 8c3a a037 5d3d 115d 723a
00000130: 75a4 b93c 34f0 823d 75f2 20bc 623b 053d
00000140: 37f1 bfbc 36da afbd 52b3 b4bc 6a81 733c
00000150: 1281 3e3d 0731 e8bc 4688 9f3c d3c1 ecbc
00000160: d7da 14bd 5ac3 363c 4676 98bc 80d9 b03c
00000170: 9aa2 b83b b8ca 773d 9534 b23d cdec aabc
00000180: 1c8f a7bc aebb f03d 35e1 e2bd 1239 8cbd
00000190: 0072 51bd 0280 30be 95d3 60bc fd2f 33be
000001a0: 3bc0 293c 9ccd 933b 95dd 9ebd 5573 e5bc
000001b0: 11bf b53d 7b3c 22bd 3b31 ce3c ea61 a23d
000001c0: 8248 3abd 3ec0 ddbd e9b4 ae3c eb6a eabd
000001d0: 955a d03d b7f4 b83d 05ba 3f3c cc79 e13d
000001e0: 9e67 903b 4089 4ebd 247c 28bd 1c5e afbd
000001f0: 3f2b af3c 9610 efbc 58aa 37bc 79fb 833b
00000200: 8e54 f7bb e063 abbc 4b97 973d c7e9 c23c
00000210: f048 843d 33d1 b83c cbf4 12bd 90bf b5bb
00000220: c44b 1f3d 6378 7a3d 0537 1bbe 89a0 4b3d
00000230: 0429 d6bd 7dc2 8a3d 9ec6 4abb d6e0 d7bc
00000240: 0179 36bd ac1e 04bc ece1 b43c 060f f7bd
00000250: a33a 4e3d ba26 9d3d 59fa c3bd 944c a93d
00000260: 233f 183d c038 153d 96d6 923d 8d1f 00bd
00000270: ba3e 8d3d 02ad d93c 007a e13c 9622 e8bc
00000280: 3829 eabb 475e 433b 2dbd f63b d80d 0c3d
00000290: a7e6 74bc e663 2cbc 7bd1 263d 63ed f7bc
000002a0: 803a 863a 98ed 24b8 6f00 44bc a8e0 2a3c
000002b0: e7ed a8bd b170 0b3b ed94 3ebc dd40 fa3c
000002c0: aa9a 97bd c1d1 2b3d 8810 093d 48d6 cebc
000002d0: ef42 803d 01a7 ba3b 29d7 723d b02e 573d
000002e0: e2b2 033d 23d2 843c af61 1b3c 46cd 233d
000002f0: 1f84 9dbc 55c3 803c 0fa0 863d c5f1 15bd
00000300: 2dc8 f63a 44f4 25bc 0417 c43c f95a 643d
00000310: 0960 f4bb 5463 7c3d bb0f 373b 6eb9 d83e
00000320: c002 a4bc 6d86 553c 88ed 973d 7842 813d
00000330: 4731 ce3d cbc9 5dbc 907d 2dbd 52e9 42bc
00000340: 7521 653d c5c3 adbd 5f9a bcbc bd37 5cbd
00000350: a94a 003d de65 22bc a618 cebd 183e 9fbc
00000360: 0c23 5a3c fbdb 8abc fe0d c537 ab27 5c3d
00000370: 060a 43bd 47ed 0abb 7426 c4bb d60d ce3d
00000380: 65ba de3c 369f 0bbd 09dc 93bb 4ee6 873d
00000390: 81bb 2c3d d0ea ebbd 3a7e 173d 9185 513c
000003a0: 03b7 7a3d df8f 873d baef 4e3d 3bec ec3d
000003b0: f5c8 9cbd 57e5 2fbd dd1f 4c3d 3362 f73a
000003c0: 6f96 a2ba 0f6e 6b3d d089 99bd 5442 9ebc
000003d0: 8b62 683d 5d3e dd3c 979c 163d 1638 3c3d
000003e0: 7cdf aebc ea1f 38bd 882c 763d ddd5 a73d
000003f0: 955e 873d 2316 98bd f4e1 303b 4bc0 6fbd
-0.344365 -0.0575015 -0.05874226 -0.21984735 -0.020064255 -0.17814983 0.062788755 0.09610151
-0.002058277 0.029257372 -0.051429827 0.09073925 0.013212326 -0.056729443 -0.032712653 0.01771625
-0.07181513 0.087204054 0.036823668 0.09530225 -0.0027879146 -0.092988476 0.06329934 -0.033195585
-0.01550764 -0.0550352 0.008718681 0.033238597 -0.06555642 -0.039506465 -0.023635654 -0.03262287
-0.0711117 0.022618407 -0.028360426 -0.041790787 -0.10599509 0.0015719107 -0.016567132 0.04833852
0.063662104 -0.005908505 -0.0060857935 -0.0018555584 0.007059763 -0.027537042 -0.04639741 -0.07250006
0.019116474 0.042874064 -0.000734338 -0.02163745 0.0048178923 0.107219234 0.08265268 -0.027475633
-0.005184177 0.011708481 0.04429786 0.032986134 0.05743378 0.030155538 0.006802277 -0.067984864
-0.019843206 -0.0099331485 0.0057638185 -0.0069071446 0.022686727 0.044887003 0.0022807117 0.023154661
-0.017340533 0.0010738975 0.054008126 0.00092454354 0.022661427 0.06393471 -0.009823431 0.032527335
-0.02343045 -0.08586542 -0.022058163 0.014862398 0.04650981 -0.02834369 0.01947416 -0.028901016
-0.036341514 0.011154974 -0.018611085 0.021588087 0.005634618 0.060496062 0.087014355 -0.020864869
-0.020453982 0.11754547 -0.11078111 -0.06846823 -0.05113411 -0.17236331 -0.01372232 -0.17498775
0.010360773 0.0045105945 -0.07757107 -0.028009096 0.08874334 -0.03960846 0.02516996 0.07928832
-0.045479305 -0.10827683 0.021326499 -0.11446174 0.10173527 0.09031051 0.011702065 0.11009559
0.0044068834 -0.05042386 -0.041134015 -0.08562872 0.021382926 -0.029182713 -0.011210047 0.0040277806
-0.0075479215 -0.020921648 0.07401904 0.023793114 0.06459224 0.022560691 -0.035877984 -0.0055465177
0.038890615 0.061149966 -0.15157707 0.049713645 -0.10457042 0.06775377 -0.003094114 -0.026352327
-0.044548992 -0.008063953 0.022080384 -0.12063412 0.05034889 0.07673402 -0.095692344 0.08266559
0.037169587 0.036431074 0.07169835 -0.03128009 0.0689673 0.026571754 0.027523994 -0.028336804
-0.007146027 0.0029810832 0.0075298757 0.03419289 -0.01494757 -0.0105218645 0.04072712 -0.030264562
0.0010240823 -3.9321923e-05 -0.011962994 0.010429539 -0.08248501 0.0021276886 -0.011632186 0.030548507
-0.07402547 0.041948084 0.03346303 -0.025248662 0.062627666 0.005696178 0.059287224 0.05253476
0.032153018 0.016213482 0.009483739 0.039990686 -0.01922804 0.015718142 0.065734975 -0.036607523
0.0018827968 -0.010129038 0.023936756 0.05575082 -0.0074577373 0.061618164 0.002793296 0.42328972
-0.020020843 0.013032538 0.07418352 0.06311506 0.10067993 -0.013536881 -0.042356074 -0.011896448
0.05594011 -0.08484606 -0.023022829 -0.053764094 0.0313212 -0.009911982 -0.10063295 -0.019438788
0.01331402 -0.016950598 2.3490746e-05 0.053748768 -0.04761698 -0.0021198557 -0.0059860293 0.10061233
0.02718849 -0.034087382 -0.004512314 0.06635724 0.042171005 -0.11519396 0.036985613 0.012788192
0.06120969 0.06619238 0.05052159 0.11568495 -0.07655517 -0.042943325 0.049835075 0.001887387
-0.0012404452 0.057478007 -0.07496989 -0.019318737 0.056734603 0.027007276 0.03677043 0.045951925
-0.0213468 -0.04495231 0.060101062 0.08195088 0.06609837 -0.07426097 0.0026990147 -0.058532994

features.0.bias f4 [50]
00000000: 5e3c f93d 0a7e b23d ca27 3a3c 1267 65bb
00000010: 1b39 983d 19a5 c33d 1898 a93b 19e1 833d
00000020: 494d 6ebc f3bb 943b a733 a03d 9564 433d
00000030: 7bb0 233e 7ca8 d53d da96 0a3e 1ca3 d93d
00000040: c0f4 a53d 8016 6cbc dfe1 b03c a130 983d
00000050: 9123 623d bf48 753d 8c47 4b3d 3d1e 0a3d
00000060: ef23 5f3d 6f42 f7b9 7ba4 28bd 35ff 7d3d
00000070: 23c1 273d d059 d13d 1ddc f53c f17a 933d
00000080: e3c4 2cbb ab1b e0ba 9d01 fe3d 6565 1d3d
00000090: 39e7 093e d6fb 033d 385c 733d ae27 ce3d
000000a0: b2f5 6d3c 90ac 813d 0217 963d 1aa6 ff3b
000000b0: 6212 7e3d 6f37 963c e333 26bd b250 9a3d
000000c0: d239 e53d 9dff 333b
0.12169717 0.08715446 0.0113620255 -0.0035004062 0.07432767 0.09552974 0.0051756017 0.06439418
-0.014544793 0.004539007 0.07822352 0.047703344 0.1598529 0.104325265 0.13534108 0.10626814
0.08103323 -0.014409661 0.021592079 0.0743115 0.0552097 0.05988383 0.04962878 0.033720244
0.05447763 -0.00047161008 -0.041172486 0.062010963 0.040955674 0.102222085 0.030012185 0.072011836
-0.002636247 -0.001709809 0.124026515 0.038426775 0.1346711 0.03222259 0.05941412 0.10066162
0.01452391 0.06331742 0.07328607 0.0078017833 0.06202925 0.01833698 -0.040576827 0.07534923
0.11192669 0.002746559

head.weight f4 [2, 50]
00000000: d42c 623e 2d60 543e 6874 8cbe bd97 70bd
00000010: 46c7 233e f3fa 053e feaa b23d 8dfc 913e
00000020: e204 fdbd 3d4f 77be 06ed 773e b3a9 6f3e
00000030: f9eb 703e c436 42be 37a0 1e3e 2c96 3e3e
00000040: a574 1c3e 6677 3abe 9325 773e e909 2d3e
00000050: 99d4 3bbe f85c 613e eaac 1d3e 0295 173e
00000060: 0cf5 173e 8e64 79be aeb3 febd a24d 26be
00000070: b4c1 223e 1e3c 4f3e 6add 0cbe 1526 293e
00000080: 28b6 223e 5e19 833e 199c 233e 388f 2abe
00000090: 193c 923e 4211 8b3e 14cc 703e f2c5 043e
000000a0: bfb4 72bd 978a 4c3e 05d3 03be dc90 c1bd
000000b0: 8b0d 2ebe a6dd 193e 3d51 09be 996c e93d
000000c0: 643a 173e 25ff b63d a97a 5cbe f96c 5fbe
000000d0: 6309 ac3d 0365 813e db45 f0bd b402 37be
000000e0: c69d 86be f7f2 7cbe 8ea3 ca3d cb64 2e3e
000000f0: 216f 17be e44d 48bd bbb6 6ebd f832 a03d
00000100: dcb8 81be 7e12 08be 5626 13be cce1 273e
00000110: 635d 4ebe ebb3 19be 4e22 6b3e c053 0cbe
00000120: 77d9 1dbe 2506 37be 161f 73be c0a4 843d
00000130: 39f0 513e 210e 4d3e 0f95 d9bd 95ae 04be
00000140: 5059 373e 8f19 0ebe 9b3d 3cbe fb08 4fbe
00000150: 52b8 92be 4441 313c daf9 17be 3157 6cbd
00000160: 9df0 cdbd 2c5a babe f5cf 4b3e 2abc 81be
00000170: 490a 213e 968d 433e d7dc 2a3e 1681 70be
00000180: 3d9c 3c3e beb1 20be f727 24be e3a1 66be
0.22087413 0.20739813 -0.2743256 -0.05873846 0.15993986 0.13084011 0.087240204 0.28512993
-0.12354447 -0.24151321 0.24211511 0.23404579 0.23527516 -0.18966204 0.15490805 0.18611974
0.15278871 -0.1820961 0.24135427 0.16898312 -0.18342818 0.22008121 0.15397993 0.14802936
0.14839572 -0.24354765 -0.12436615 -0.16240552 0.15894204 0.20237777 -0.13756338 0.16518433
0.158898 0.2560529 0.15977515 -0.16656196 0.28561476 0.27161604 0.2351535 0.12966135
-0.059254404 0.19974743 -0.12873466 -0.09451458 -0.16997354 0.15025958 -0.13409896 0.113976665
0.14768368 0.08935384 -0.21531166 -0.21818914 0.08400228 0.25272378 -0.11732074 -0.17872125
-0.26292247 -0.24702059 0.09894477 0.17030637 -0.14788486 -0.048902407 -0.058279734 0.078222215
-0.2533635 -0.13288304 -0.14370093 0.16394728 -0.20152812 -0.1501004 0.22962305 -0.13703823
-0.15414988 -0.17873438 -0.23742327 0.06476736 0.20501794 0.20024921 -0.10624134 -0.12957223
0.17905164 -0.13876937 -0.18382876 -0.2021827 -0.2865625 0.010818783 -0.14841405 -0.05770034
-0.10055659 -0.3639692 0.19903548 -0.2533887 0.1572658 0.1909698 0.16685806 -0.23486742
0.18418975 -0.15692803 -0.1603087 -0.22522692

head.bias f4 [2]
00000000: 309a 8b3d 7b0f 673d
0.06816518 0.056411248
