trained_models/20220211/adult/reweighting/mlp_sex_seed0_epochs5_bs128_lr0.0001_decay0.0005_constrainteopp_eta0.1_iter10.pt (torch, 21919 bytes, 4 tensors)

features.0.weight f4 [50, 98]
0	0x3c98a9cf	0.018635659
1	0x3d715331	0.058917228
2	0xbd897cb0	-0.067132354
3	0x3e67fcf6	0.2265509
4	0xbcc30b9d	-0.023809249
5	0x3d15f4dc	0.03661047
6	0x3cc491c1	0.023995282
7	0x3d94f648	0.07273537
8	0x3ce99a5c	0.028515987
9	0xbc458ed2	-0.012057977
10	0xbdbd949a	-0.09256859
11	0x3aa0125e	0.0012212505
12	0xbc434e0c	-0.011920463
13	0xbd8c4272	-0.06848611
14	0xbd05fa61	-0.032709483
15	0xbd0a0f85	-0.033706207
16	0x3cc1863a	0.023623575
17	0x3c901d61	0.017592134
18	0xbc7a9fb5	-0.015296866
19	0xbb76d26f	-0.003766205
20	0x3cc3d5c9	0.023905652
21	0x3c85757f	0.016291378
22	0x3cb0ee51	0.021598013
23	0x3d78b9e7	0.060724165
24	0xbc553531	-0.01301317
25	0x3c896d7b	0.016775837
26	0xbbdca8a4	-0.0067339707
27	0xbd6a0cce	-0.057141118
28	0xbcfe5616	-0.031046908
29	0xbd08662a	-0.033300556
30	0xbbbf67af	-0.0058412175
31	0x3dc45a63	0.095875524
32	0xb77be387	-1.5013741e-05
33	0xbd808325	-0.06275014
34	0xbd261eee	-0.04055684
35	0xbd2354be	-0.03987574
36	0xbc46c1bb	-0.01213115
37	0x3c479df6	0.012183657
38	0x3b9d7f2a	0.004806419
39	0x3d9f2e1d	0.07772467
40	0xbc680ff6	-0.014163962
41	0xbd518434	-0.05115147
42	0x3c3d007d	0.011535761
43	0xbda3a72f	-0.07990872
44	0xbcedac10	-0.02901271
45	0xbd3a20fa	-0.045441605
46	0x3c8faad4	0.017537512
47	0x3d8cb811	0.068710454
48	0x3c58eb15	0.013239642
49	0xbcc22471	-0.023699017
50	0x3d8d2e03	0.06893542
51	0x3da5dfed	0.08099351
52	0x3c4f0035	0.012634327
53	0xbcbe6d92	-0.023245607
54	0x3c997bfc	0.018735878
55	0xbd12bc47	-0.035824087
56	0x3d325b68	0.043544203
57	0xbccff7ea	-0.02538677
58	0xbd8492e5	-0.064733304
59	0xbc01837e	-0.007904885
60	0x3ccee972	0.0252578
61	0x3af9710d	0.0019030884
62	0xbc5621ec	-0.013069611
63	0x3c673e16	0.014113924
64	0x3d25a16d	0.04043715
65	0x3bfcafda	0.007711393
66	0xbbd2b18c	-0.0064298566
67	0x3caa1cfd	0.020765776
68	0x3d05b6e1	0.03264511
69	0x3d943bf3	0.07237997
70	0x39e18f3b	0.0004302206
71	0x3a9fcc05	0.001219154
72	0x3cf62895	0.030048648
73	0x3d9de25c	0.0770919
74	0x3d85ab55	0.065268196
75	0x3d96c317	0.07361429
76	0x3d190920	0.037362218
77	0x3bd85a2b	0.0066025457
78	0x3c105d92	0.008811371
79	0xbcec24fb	-0.028826227
80	0xbc866188	-0.016403928
81	0x3cd5ade2	0.02608389
82	0x3d5f407b	0.054504853
83	0xbb9c5373	-0.00477069
84	0x3ca241c2	0.019806746
85	0x3b0b45f7	0.002125142
86	0x3c11a173	0.00888859
87	0xbc4c390d	-0.012464774
88	0x3a85817e	0.0010185686
89	0xbc6465a1	-0.013940246
90	0x3c5c90c2	0.013462247
91	0x3d19ca0c	0.037546203
92	0x3d4bb477	0.04973265
93	0x3cf0cbeb	0.02939411
94	0xbd6f603a	-0.05844138
95	0xbd20530f	-0.03914171
96	0x3d470aed	0.048594404
97	0x3d11a950	0.03556186
98	0xbe2ae6c3	-0.16689591
99	0xbd85bb83	-0.06529906
100	0x3d5b41f2	0.053529687
101	0xbe0cb166	-0.13739547
102	0xbcc5350b	-0.024073144
103	0xbe0969f2	-0.13419321
104	0xbe104d31	-0.14091946
105	0x3d8a0300	0.067388535
106	0xbd1fe3b2	-0.039035507
107	0xbdbf820e	-0.09350978
108	0xbd951da2	-0.07281043
109	0x3d3e98df	0.046532508
110	0x3bd8de25	0.0066182786
111	0x3db7d5bb	0.08976313
112	0xbcc831ee	-0.02443787
113	0x3db7d291	0.08975709
114	0x3d7f692a	0.06235615
115	0xbdf310ec	-0.11868462
116	0xbd099184	-0.03358604
117	0x3abc6171	0.0014372302
118	0x3d0d09da	0.034433223
119	0x3d23e985	0.040017623
120	0x3ce41b22	0.02784497
121	0xbd32a03b	-0.04360984
122	0xbd594b75	-0.053050477
123	0x3ae9ce05	0.0017837888
124	0x3ca6bf09	0.020354765
125	0xbd5e6b6d	-0.054301668
126	0x3bf42a57	0.0074513364
127	0x3d283886	0.04106953
128	0xbbf7f94c	-0.0075675603
129	0xbe1ac40e	-0.15113851
130	0xbce2c232	-0.02768049
131	0x3d8917d5	0.06693999
132	0xbdb63ae3	-0.088979505
133	0x3d468016	0.048461996
134	0x3e0988f2	0.13431147
135	0x3ca85507	0.020548357
136	0xbcc3f6cf	-0.023921398
137	0xbd979dc4	-0.07403138
138	0x3d02da6b	0.03194658
139	0x3dabce59	0.08388967
140	0x3de7dac1	0.11321021
141	0x3dd9f68f	0.106427304
142	0x3d686329	0.05673519
143	0xbd78ab71	-0.060710374
144	0xbdbaffcf	-0.09130823
145	0xbd26318a	-0.040574588
146	0x3d35589b	0.044273954
147	0xbd7d9c09	-0.061916385
148	0xbd6bccd8	-0.0575684
149	0x3c19d27b	0.009388561
150	0x3c119c2a	0.00888733
151	0xbd8d3532	-0.06894912
152	0x3cb2d7ae	0.02183136
153	0xbd4b25e1	-0.04959667
154	0x3c1c801c	0.009552028
155	0xbc75633d	-0.0149772735
156	0x3ca70f81	0.020393135
157	0x3d118bcf	0.035533722
158	0xbc4e0309	-0.012573966
159	0x3cb86e06	0.0225134
160	0x3caf2551	0.021380099
161	0x3d2f7a81	0.04284144
162	0xbd342ed7	-0.043989982
163	0x3bf0a775	0.007344181
164	0x3d22737c	0.039660916
165	0x3b6a93a8	0.0035793576
166	0xbd015d55	-0.03158315
167	0x3ca8b0c6	0.020592105
168	0x3b8d79c8	0.004317496
169	0x39dea493	0.00042465757
170	0x3d871c93	0.06597247
171	0xbb1dac45	-0.002405898
172	0x3d013e04	0.031553283
173	0x3d15c05a	0.036560394
174	0xbbc937f4	-0.0061407033
175	0x3d18ad6b	0.03727476
176	0xbb06c72b	-0.002056549
177	0xbceffeec	-0.02929636
178	0x3d4e121a	0.05031023
179	0xbd83c8a7	-0.06434756
180	0xbcb75ecd	-0.022384072
181	0x3cb03782	0.021510843
182	0x3d46d1e7	0.048540022
183	0x3d251e8f	0.040312346
184	0x3bed42c8	0.007240627
185	0x3d2529a1	0.040322904
186	0xbd14d53c	-0.03633617
187	0x3c460547	0.012086219
188	0xbabc11ef	-0.0014348606
189	0x3d6c1f4a	0.057647027
190	0x3d611138	0.05494806
191	0x3d52782e	0.051384144
192	0xbc05f39f	-0.00817576
193	0x3c28977a	0.010290021
194	0xbc4001d4	-0.011719186
195	0xbdb3f687	-0.08787256
196	0xbe1e9d38	-0.15489662
197	0x3ca12441	0.019670608
198	0xbc8798d4	-0.016552366
199	0xbe89cdee	-0.26914924
200	0xbd51e6f7	-0.051245656
201	0x3db63734	0.08897248
202	0xbda000ac	-0.07812628
203	0xbd178e62	-0.03700102
204	0xbdb84279	-0.08997054
205	0x3d6b0d67	0.05738583
206	0x3c3a6f82	0.011379125
207	0x3da72eef	0.08163249
208	0x3c4860bb	0.012230094
209	0x3cc20ee8	0.023688748
210	0xbb4f7dda	-0.0031660707
211	0xbcbe86a0	-0.023257554
212	0x3cde7cb4	0.027159072
213	0xbdee4253	-0.11633744
214	0x3c81f31b	0.015862992
215	0xbc4be989	-0.012445816
216	0xbddca153	-0.10772958
217	0xbd0ad4be	-0.033894293
218	0x3da02426	0.07819395
219	0xbdf41276	-0.11917584
220	0x3d173b77	0.036921944
221	0x3dc8b67a	0.0980043
222	0x3ad9520d	0.0016580239
223	0xbd8dd02a	-0.0692447
224	0xbdc73b75	-0.097281374
225	0x3d89547e	0.06705569
226	0xbc908bf6	-0.017644864
227	0xbdb586af	-0.088635795
228	0xbd304aaf	-0.043039974
229	0x3d87adc7	0.06624942
230	0x3bd46a67	0.0064824107
231	0x3dd7bfca	0.10534628
232	0x3d02ff84	0.03198196
233	0x3cb84b59	0.022496866
234	0x3d9e9936	0.077440664
235	0xbda49ffd	-0.08038328
236	0x3d84076d	0.06446729
237	0xbde475ae	-0.11155258
238	0xbd2f8ce2	-0.042858966
239	0x3da0a1d9	0.0784337
240	0x3c8a9eff	0.016921518
241	0x3dae2aea	0.08504279
242	0xbd97123f	-0.07376527
243	0xbcb073bb	-0.02153956
244	0x3bb28231	0.005447649
245	0xbdbcba5c	-0.09215233
246	0x3c859ae4	0.01630921
247	0xbca96394	-0.020677365
248	0x3d53dc4f	0.051723775
249	0x3cc47b09	0.023984449
250	0xbcc523e8	-0.024064973
251	0xbd028ee7	-0.031874564
252	0x3d130f2c	0.03590314
253	0xbb7e8da4	-0.0038841749
254	0xbd630926	-0.055428647
255	0xbcadbd36	-0.021208387

features.0.bias f4 [50]
0	0xba722212	-0.0009236644
1	0x3d08be60	0.03338468
2	0x3e180958	0.14847314
3	0x3dcc910d	0.09988604
4	0x3d79f63d	0.061025847
5	0xbd78f2ce	-0.06077843
6	0x3c7a2827	0.015268362
7	0x3e0d5b82	0.13804439
8	0x3dffd48f	0.12491714
9	0x3c33c941	0.010973276
10	0xbd527c25	-0.051387925
11	0xbdb89e7b	-0.09014603
12	0xbd1030d6	-0.035202824
13	0x3b4f4e24	0.0031632269
14	0x3d674f70	0.056472242
15	0x3d53fea9	0.051756535
16	0x3d1acbf5	0.037792165
17	0xbd23d959	-0.0400022
18	0x3d37653c	0.04477428
19	0x3e0ce3e4	0.13758808
20	0x3e1919db	0.1495127
21	0xbd8cb936	-0.06871264
22	0x3e0ca243	0.13733773
23	0x3c6eed9f	0.0145830205
24	0x3e13b9bd	0.14426322
25	0x3d579c1a	0.052639104
26	0x3d13133b	0.03590701
27	0x3d17a279	0.03702018
28	0x3cbcca9c	0.02304583
29	0x3e5507ba	0.20803729
30	0x3e0e996c	0.13925713
31	0x3bdd0a28	0.0067455955
32	0xbb06572c	-0.0020498736
33	0x3c9f9943	0.01948226
34	0x3e0ae22c	0.1356284
35	0xbd17b29b	-0.037035566
36	0x3e1434a1	0.14473201
37	0x3e07d124	0.13263375
38	0x3da5d8e1	0.08098007
39	0xbc05b5b2	-0.008160995
40	0x3d6eaf25	0.0582725
41	0x3d6400bb	0.05566476
42	0x3e66a1c8	0.22522652
43	0x3dc2a7fd	0.095046975
44	0xbc85592d	-0.016277874
45	0x3e50ff75	0.20409949
46	0x3d3c1525	0.045918602
47	0xbcfa624a	-0.030564446
48	0x3d97d7bd	0.07414196
49	0xbc0303c3	-0.007996502

head.weight f4 [2, 50]
0	0xbca343fa	-0.019929875
1	0x3e1fd0f4	0.15607053
2	0x3e06ab2c	0.13151234
3	0x3e5f2306	0.21790704
4	0x3dcfb61e	0.10142158
5	0xbe0a5100	-0.13507462
6	0x3d2c041e	0.041996114
7	0x3d257696	0.040396295
8	0x3e96fedb	0.29491314
9	0xbe0978d2	-0.13424996
10	0xbde632a9	-0.112401314
11	0xbcae9a32	-0.02131376
12	0xbe1d9eab	-0.15392558
13	0xbe64c26b	-0.2233979
14	0x3e922190	0.2854123
15	0x3defd4a7	0.11710482
16	0x3dc8d70c	0.09806642
17	0xbdf67d3c	-0.12035605
18	0xbe0ed579	-0.13948621
19	0x3e25da1a	0.1619648
20	0x3e49d1a6	0.19708881
21	0xbe5f5b25	-0.21812113
22	0x3e6e834f	0.23292278
23	0xbe3a9ec8	-0.18224633
24	0x3e449259	0.19196452
25	0x3dce18fa	0.10063358
26	0xbe1b9db3	-0.15196876
27	0x3e972549	0.29520634
28	0xbe4463b5	-0.1917866
29	0x3e4283bc	0.18995565
30	0x3e797b50	0.24363446
31	0x3e4bb59f	0.19893502
32	0xbe6076c1	-0.21920301
33	0xbdc46d45	-0.09591154
34	0x3e73a7ab	0.23794429
35	0xbe753217	-0.23944889
36	0x3e53bd5e	0.20677707
37	0x3df9fc3d	0.12206314
38	0x3e2e869c	0.17043537
39	0xbe1d6345	-0.153699
40	0x3e47ed6e	0.19524166
41	0x3de68033	0.11254921
42	0x3e9ae0a0	0.302495
43	0x3e002bd5	0.1251672
44	0xbdb85d1b	-0.090021335
45	0x3da5835d	0.08081696
46	0xbe50c4c3	-0.20387559
47	0xbe676875	-0.22598441
48	0x3e4d362f	0.200402
49	0x3db4de5c	0.08831474
50	0x3e35b1a0	0.1774354
51	0xbe6e8efa	-0.23296729
52	0xbe4d6397	-0.20057522
53	0xbe0efe7c	-0.13964266
54	0xbe811dbb	-0.25217995
55	0x3d840d22	0.064478174
56	0xbe49f453	-0.19722109
57	0xbe5da271	-0.21643998
58	0xbe2c54e7	-0.16829263
59	0x3e3e4634	0.18581468
60	0x3ddedc48	0.10881859
61	0x3e403787	0.18771182
62	0x3d58e214	0.05294998
63	0x3ddf9866	0.109177396
64	0xbdb264ad	-0.08710609
65	0xbe70a3f4	-0.23500043
66	0xbe90762a	-0.28215152
67	0x3e06eba0	0.13175821
68	0x3e3e84c5	0.18605335
69	0xbe5cf31b	-0.21577112
70	0xbdd555fd	-0.104167916
71	0x3d96b9d5	0.073596634
72	0xbe02a1d4	-0.12757045
73	0x3d1205b5	0.035649974
74	0xbe341f15	-0.17589982
75	0xbe777fad	-0.24169798
76	0x3e043916	0.12912402
77	0xbe59ae2c	-0.21257848
78	0x3e2a1c9e	0.16612479
79	0xbe23668b	-0.15957086
80	0xbe886f23	-0.2664729
81	0xbe3a884e	-0.18216059
82	0x3d6b3f1d	0.057433236
83	0x3e338bf3	0.17533855
84	0xbe466964	-0.19376141
85	0x3d506682	0.05087901
86	0xbe1b4482	-0.15162852
87	0xbe94808b	-0.2900432
88	0xbe5a0c70	-0.21293807
89	0x3e1dae81	0.15398599
90	0xbe4cb15b	-0.1998953
91	0xbe3cc119	-0.18433036
92	0xbe07f7cc	-0.13278121
93	0xbdc92c8d	-0.098229505
94	0x3e300458	0.17189157
95	0xbe6b109a	-0.22955552
96	0x3e19c18a	0.15015236
97	0x3e1c0978	0.15237987
98	0xbe8ea346	-0.27858943
99	0xbe6e23dd	-0.23255868

head.bias f4 [2]
0	0xbd8cbd8f	-0.06872093
1	0x3cfd6c98	0.03093557
