trained_models/20220211/adult/reweighting/mlp_sex_seed0_epochs5_bs128_lr0.0002_decay0.0005_constrainteo_eta20.0_iter10.pt (torch, 21919 bytes, 4 tensors)

features.0.weight f4 [50, 98]
000000 10 4e 02 3c 22 7b 39 3d 28 53 aa bd c6 43 06 3e
       0.007953182 0.045283444 -0.08316642 0.13111791
000010 9c dd 96 bd 27 5a 5f 3a 69 93 03 3d 3c 38 87 3d
       -0.073664874 0.00085202086 0.032123003 0.06602523
000020 76 73 83 3c 0b 6d 92 3b a9 2f 05 be 38 12 1b 3d
       0.016046267 0.0044685653 -0.13006462 0.03785917
000030 6d aa 21 bc f8 57 69 bd 52 b0 22 bd 9e 14 73 bd
       -0.009867293 -0.05696866 -0.039718933 -0.059345834
000040 e2 bc 09 3d 18 a9 90 3c 3b d0 88 bc b8 51 e9 3c
       0.0336274 0.017658755 -0.016700855 0.02848135
000050 31 e9 85 3c 14 8c 7a bc 16 6e 19 3d d6 94 22 3d
       0.016346546 -0.015292186 0.0374585 0.039692722
000060 1f 0f df 3b d3 7e e4 3c 1e 6a bb bb aa 38 b0 bd
       0.0068072225 0.027892506 -0.0057194373 -0.08604558
000070 eb 26 02 bd 73 69 d0 bc e3 52 f9 bb e6 5c a6 3d
       -0.031775396 -0.025440907 -0.007608758 0.08123188
000080 2e 15 2f bc 9b 05 74 bd 66 03 1f bd d5 da 1c 3d
       -0.010686202 -0.05957566 -0.0388216 0.038294632
000090 c4 7d 5f 3c 92 ff 9e 3b a1 4d ac 3c c2 77 a8 3d
       0.013640825 0.0048522437 0.02103311 0.08225967
0000a0 b9 6d 64 3c 24 de 76 bd f3 9f 89 3c e8 6d aa bd
       0.013942176 -0.060270444 0.016799903 -0.08321744
0000b0 35 26 64 bc 1f aa 47 bd 7b 88 47 3c be 14 78 3d
       -0.013925125 -0.048746224 0.012178536 0.060566656
0000c0 a6 17 5d 3c 0f 64 b9 bd 10 57 6a 3d 8f 45 a6 3d
       0.013494408 -0.09052288 0.057211936 0.08118736
0000d0 66 e4 13 bc dc 55 48 bd e5 87 47 3c d4 11 da bb
       -0.009026622 -0.048910007 0.012178396 -0.0066549573
0000e0 58 94 16 3d 6d 27 24 bd 40 c7 71 bd 22 22 e4 3b
       0.036762565 -0.04007666 -0.05902791 0.0069620768
0000f0 04 2c 2e 3c 83 2b 32 ba ac cf b2 bc c8 3d 29 3c
       0.010630611 -0.0006796645 -0.021827541 0.010329671
000100 3d 01 d8 3c da 2f 9e 3c 71 11 36 3c 12 1b 8a 3c
       0.026367778 0.019309927 0.011112557 0.016858611
000110 7b d4 ab 3c 35 ac 7e 3d bf a9 34 39 da 69 7e 3b
       0.020975342 0.06217595 0.00017229373 0.0038820417
000120 c7 15 c6 3c e0 c5 89 3d 20 aa 44 3d 5a 4f 80 3d
       0.024180306 0.06727195 0.048013806 0.06265135
000130 c2 77 03 3d cd 56 b7 3c a4 98 4e 3c 6b 71 96 bc
       0.03209663 0.022380257 0.012609635 -0.018364629
000140 70 81 7d bc 23 f7 95 bb 9e 47 24 3d 95 f5 83 bb
       -0.015472755 -0.00457658 0.040107362 -0.0040270784
000150 6c 4c 77 3c 9f 4a 5f 3c 4b 58 63 3c 84 0a 26 bc
       0.015093904 0.013628631 0.013876031 -0.010134343
000160 0b 75 cb bc 26 87 57 bc 66 1b 54 3c 1f b1 12 3d
       -0.024836084 -0.0131547805 0.012945985 0.035813447
000170 1d 09 ce 3c ce 1b be 3c 69 9b 01 bd 81 c0 f6 bc
       0.02515083 0.023206618 -0.03164235 -0.03012109
000180 38 42 1d 3d 33 5f 15 bd 4d ab 28 be c2 30 18 bd
       0.03839323 -0.036467742 -0.16471596 -0.037155874
000190 7f c3 88 3d bd fb ca bd a9 20 1e 3d c7 0b 44 be
       0.06677913 -0.099112965 0.038605366 -0.19145118
0001a0 8e 7d c3 bd 01 9c ad 3d c3 08 1e bd d3 02 3c bd
       -0.09545432 0.08477021 -0.038582575 -0.04590113
0001b0 c9 61 8e bd ff 7c 01 3d f8 ee 0f 3c 1f 6b 81 3d
       -0.06952245 0.031613346 0.008785002 0.0631926
0001c0 6d 86 a4 3b 37 e2 b0 3d 03 5b e0 3c 04 97 b2 bd
       0.0050209076 0.08636897 0.027387148 -0.0872021
0001d0 13 4b 83 bd bf de fe bb 1d d1 07 3b a6 ae 26 3d
       -0.06410804 -0.0077780182 0.0020724006 0.0406939
0001e0 d0 f3 00 bc 4e e9 f1 bc de 57 2d bc de 71 1d 3d
       -0.007870629 -0.029530194 -0.010580031 0.03843867
0001f0 7e 9e 8c 3c 15 7a f4 bc 89 6b 6d ba be 54 0a 3d
       0.017165419 -0.02984337 -0.00090568565 0.033772223
000200 66 d7 83 bb 22 22 cc bd 7c ab 18 bc 3a 0f 0e 3d
       -0.00402348 -0.09967448 -0.009318229 0.03468249
000210 d3 5c c7 bd 48 b7 2c 3d 8b 1d 0e 3e d0 1c b6 3c
       -0.09734502 0.042166978 0.13878457 0.022230536
000220 e2 ac 43 3c f2 4c 6b bd 20 58 6e 3c bd 55 40 3d
       0.011943074 -0.057446428 0.014547378 0.046956766
000230 08 a8 cc 3d 5e 2d 70 3d fd 14 cb 3c b7 34 93 bd
       0.09992987 0.058637016 0.024790281 -0.07187789
000240 44 2a 9c bd 44 11 01 bb cd 20 d6 3c 07 fd 65 bd
       -0.07625249 -0.001969413 0.026138688 -0.05614951
000250 f0 ab ad bc f0 60 6b bb b3 27 22 3d 69 dc cb bd
       -0.02120015 -0.0035915934 0.03958864 -0.09954149
000260 e3 0e b9 3b 9c 24 56 bd 9c c7 75 ba 86 b4 c0 3b
       0.0056475266 -0.052281007 -0.00093757524 0.005880895
000270 17 27 77 3c d4 5a 07 3d c6 29 75 bc d0 cc ab 3b
       0.015085003 0.033045605 -0.014963573 0.0052429214
000280 64 fd bc 3c d3 d2 39 3d df 91 12 bd 4f 8a 57 bb
       0.023070045 0.045367073 -0.035783645 -0.0032888835
000290 54 4c 06 3d 19 46 46 bb 4b b7 ce bc cd 57 1c 3d
       0.032787636 -0.0030254184 -0.025233885 0.03816967
0002a0 b3 9a 22 3b 34 07 d9 3a 1d 0c 6e 3d 32 fd ab bb
       0.0024811446 0.0016557933 0.05811702 -0.005248689
0002b0 1d d4 e8 3c ae f2 15 3d 5f db 2e 3c 6c d0 98 3c
       0.028421456 0.03660839 0.010672419 0.01865407
0002c0 d2 9c b5 3c f8 fe e8 bc fd eb 40 3d b2 22 3a 3a
       0.022169504 -0.028441891 0.047100056 0.0007100507
0002d0 06 2c 0e bd ed 5a 76 3c 68 0e 20 3d b3 43 1d 3d
       -0.034709953 0.015036327 0.03907624 0.03839464
0002e0 19 c6 b0 38 b4 5d e2 3c e6 16 d9 bc 12 bd 50 3c
       8.4292325e-05 0.027632572 -0.026500177 0.01274039
0002f0 02 75 5b 3c a7 fc 43 3d 0f 02 18 3d 30 c9 35 3d
       0.013394596 0.04784837 0.03711134 0.04438132
000300 8f eb 08 bc d0 4f 1c bc 9b 49 25 bc a3 c6 5c 3c
       -0.008356943 -0.009540513 -0.01008835 0.013475093
000310 22 21 19 be a3 e6 18 3c 35 57 03 bd f6 ce 78 be
       -0.14954045 0.009332332 -0.03206559 -0.242977
000320 d1 0e 51 bd 62 2e 1c 3e 08 2e ab bd 30 36 85 bd
       -0.05103952 0.15252069 -0.08358389 -0.06504476
000330 a4 75 88 bd 72 84 4e 3d a8 9a 24 3d 9f 04 50 3d
       -0.06663063 0.05041928 0.040186554 0.050785657
000340 db 2f 26 3c 59 ba c8 3c 13 e5 5c 3c 3f ac 82 bd
       0.010143246 0.02450292 0.01348235 -0.063805096
000350 a7 1b 33 3c 6e 1e ef bd 5e ba 85 3c df 75 10 bd
       0.010931886 -0.11675726 0.016324218 -0.03526866
000360 f2 2c 1f bc 31 fe 4f bd 91 5c 6d 3d d3 c1 03 be
       -0.009715306 -0.050779525 0.057949606 -0.12866907
000370 a1 53 3d 3d d2 54 b9 3d b0 1a b1 3b 80 50 b9 bd
       0.046222333 0.09049381 0.0054047927 -0.09048557
000380 7f 43 9d bd 4c f5 8b 3d e3 f6 9f bc 20 28 bf bd
       -0.076788895 0.06833896 -0.019526904 -0.09333825
000390 54 89 02 bd 45 1b 95 3d c9 2f 57 ba c3 99 96 3d
       -0.031869248 0.07280592 -0.00082087197 0.073535465
0003a0 60 0b 14 bc 82 b9 98 3c d3 0a 82 3d ef 03 0a bd
       -0.009035915 0.018643145 0.06349721 -0.033695158
0003b0 f3 13 4a 3d dc 05 95 bd 60 49 13 bd 66 e1 59 3d
       0.04933543 -0.07276508 -0.035958648 0.053193472
0003c0 c5 98 b6 3c 51 42 f0 3d 23 b2 ee bd 45 87 2b bd
       0.022289643 0.11731399 -0.11655071 -0.04187705
0003d0 0f e1 e1 bc 21 0b 9e bd 69 43 87 3c c4 8c 05 bc
       -0.027573137 -0.077169664 0.016511636 -0.008151237
0003e0 7a 4e 44 3d 66 e3 ec 3c dd 37 1c bd 71 90 18 bd
       0.047926404 0.028917026 -0.038139213 -0.037247125
0003f0 61 8f 10 3d fb 83 5e bc ac dc 47 bd 26 0a e5 bc
       0.035292987 -0.013581271 -0.048794433 -0.02795894

features.0.bias f4 [50]
000000 b1 8a 9e 3c 55 18 b2 bc 33 57 d0 3d d6 12 0e 3d
       0.019353243 -0.021740118 0.10172882 0.034685932
000010 6b da 22 3c 1b 0a 9b bc f4 bc fb bc ca bf c8 3d
       0.00993977 -0.018925717 -0.030729748 0.09802206
000020 94 37 a2 3d 5c 12 1a 3d d7 35 8d bc e0 b0 05 bd
       0.07920757 0.037615165 -0.017237587 -0.032639384
000030 e1 87 80 3c cd 1d 5e 3d 99 e3 a1 3c 23 87 2a bc
       0.015689792 0.05422764 0.019761847 -0.010408196
000040 01 b8 b7 bc 48 2b b5 3b 22 48 9e 3d ea 8c b8 3d
       -0.022426607 0.005528841 0.07728602 0.09011252
000050 68 7c e3 3d dc 5d 11 ba 03 6e b2 3d e0 99 52 3d
       0.11107713 -0.0005545297 0.08712389 0.051416278
000060 3c 27 a6 3d 52 92 5b 3d 82 a0 3d 3d 4d ac 89 3c
       0.08112952 0.05360634 0.04629565 0.016805792
000070 ae 02 76 3d 5b c6 0f 3e 43 d9 b9 3d 9e 22 65 bc
       0.06006115 0.1404051 0.090746425 -0.013985304
000080 76 4d 07 3d fc 50 3b 3d 1d 03 dd 3d d9 6d 2a bc
       0.033032857 0.04573153 0.107916094 -0.010402166
000090 23 64 bb 3d 13 35 ac 3d da 78 0e 3d f9 a7 d4 3c
       0.09149959 0.084085606 0.03478322 0.025959002
0000a0 38 b4 17 3c 01 ac d2 bb 86 95 1b 3e 39 fe 87 3c
       0.009259276 -0.006429196 0.15193757 0.016600715
0000b0 f4 f2 d5 3c 5a 7b 1d 3e f1 be 8d 3d 79 c2 10 3d
       0.026116826 0.15379086 0.06921185 0.035341714
0000c0 bb 04 7a 3c b6 a8 1a bd
       0.015259917 -0.03775855

head.weight f4 [2, 50]
000000 a1 9f 51 bd cc 21 27 3e fd ab 2d 3e e4 8c 75 3e
       -0.051177625 0.16321486 0.1696014 0.23979527
000010 18 41 26 3e ae 87 4a be 14 ab a1 3d 07 22 90 3d
       0.16235769 -0.1977832 0.07893959 0.0703774
000020 b0 1d 9c 3e 8b c2 40 be aa c2 17 be d0 5c a0 bd
       0.304914 -0.18824212 -0.14820352 -0.078302026
000030 f2 98 4d be 44 c6 93 be d1 b8 a9 3e b6 f4 17 3e
       -0.20077875 -0.28862202 0.33148816 0.14839444
000040 ae 39 3c 3e 18 6d 42 be df ee 22 be ef a3 41 3e
       0.18381378 -0.18986928 -0.15911435 0.18910192
000050 14 21 83 3e 65 dd 7c be 43 83 85 3e e3 21 83 be
       0.25611174 -0.2469383 0.26076707 -0.2561179
000060 e2 73 65 3e 35 5b 03 3e de ff 44 be f0 39 97 3e
       0.22407487 0.12827761 -0.1923823 0.2953639
000070 67 6b 75 be 76 9a 69 3e 8e cf 87 3e d8 e3 60 3e
       -0.23966752 0.22812828 0.2652554 0.21961915
000080 bb 57 a7 be 5b 67 0b be 3c 92 82 3e a5 53 73 be
       -0.3268412 -0.13613646 0.25502193 -0.23762377
000090 3b bb 58 3e aa 3a 1d 3e 80 35 5f 3e 04 b3 23 be
       0.21165173 0.1535441 0.21797752 -0.15986258
0000a0 1e a3 6f 3e 84 66 28 3e ac 63 a1 3e 05 5d 19 3e
       0.23402068 0.16445357 0.31521356 0.1497689
0000b0 06 c4 01 be c6 8e d0 3d d5 37 78 be 08 c1 9e be
       -0.12672433 0.10183482 -0.24240048 -0.31006646
0000c0 78 0c 79 3e 6a 4d 35 3e 9d 2a 4a 3e 34 4d 69 be
       0.24321163 0.17705312 0.19742818 -0.22783357
0000d0 8c db 6f be 0c 79 2d be 8b d7 98 be c0 40 09 3e
       -0.23423594 -0.16940707 -0.29851946 0.13403606
0000e0 71 7c 66 be e5 45 70 be 59 77 44 be db f8 70 3e
       -0.22508408 -0.23464163 -0.19186153 0.23532431
0000f0 23 67 14 3e 6e ba 6e 3e b6 44 de 3d 6c 52 43 3e
       0.14492469 0.23313305 0.10852949 0.1907441
000100 a3 91 1c be 56 f8 81 be 75 fe af be db d4 4c 3e
       -0.15289931 -0.25384778 -0.34373823 0.20003073
000110 ce c9 4e 3e d4 00 74 be c8 3a 2f be f7 b4 e9 3d
       0.2019417 -0.23828441 -0.17112267 0.114114694
000120 32 8f 23 be 55 6d fe 3d ec 40 56 be e4 42 85 be
       -0.15972593 0.12423197 -0.20923203 -0.26027596
000130 51 e1 2f 3e dd 61 64 be ba 1a 5d 3e 93 08 4d be
       0.17175795 -0.22302957 0.21592227 -0.20022802
000140 a1 84 92 be a8 d7 51 be 10 10 4a 3e ec 42 57 3e
       -0.28616813 -0.20492423 0.1973269 0.21021622
000150 9a 09 5b be 89 75 7d 3d 6b dc 24 be b4 e1 9b be
       -0.21390381 0.06187967 -0.16099708 -0.30445635
000160 71 6c 83 be 86 f9 23 3e af e8 73 be 46 03 6b be
       -0.25668672 0.16013154 -0.2381923 -0.22950467
000170 f8 24 24 be 06 b3 ff bd d0 b2 4d 3e 90 1a 78 be
       -0.16029727 -0.12485318 0.20087743 -0.24228883
000180 e8 4b 46 3e 20 1d 7a 3e a2 fc a0 be 3d e1 9d be
       0.19364893 0.24425173 -0.31442744 -0.30835906

head.bias f4 [2]
000000 fc 7d d7 bd c8 2b 8c 3d
       -0.105220765 0.06844288
