trained_models/20220211/adult/adv_debiasing/mlp_sex_seed1_epochs50_bs128_lr0.0005_decay0.0005_adv_lamb3.0_eta0.003_constrainteo.pt (torch, 21919 bytes, 4 tensors)

features.0.weight f4 [50, 98]
0	0x3e738190	0.23779893
1	0xbd984019	-0.07434101
2	0xbd132068	-0.035919577
3	0xbe394e97	-0.18096386
4	0xbceeb06b	-0.029136857
5	0xbcc84271	-0.024445744
6	0xbdb36e11	-0.08761228
7	0x3e056dc6	0.13030156
8	0xbb394b2e	-0.002827357
9	0xbdaa2bea	-0.08309157
10	0xbb98f44d	-0.004667795
11	0x3cc6a8ee	0.024250474
12	0x3cff5613	0.031168973
13	0xbd44c091	-0.048035208
14	0x3c7d5b83	0.015463713
15	0x3d5a7dfc	0.053342804
16	0x3d93a688	0.07209498
17	0x3d3f6bc6	0.04673364
18	0x3d8f966d	0.07011113
19	0x3d18b5ce	0.037282757
20	0xbde2e513	-0.11078849
21	0xbd931a1b	-0.071827136
22	0xbdfba5f7	-0.12287515
23	0x3d848b3b	0.064718686
24	0xbce1c0ca	-0.02755775
25	0x3d8eddc8	0.06975895
26	0x3d06d8b3	0.032921504
27	0x3d828ccb	0.063745104
28	0xbdc999cf	-0.0984379
29	0x3db59f19	0.08868236
30	0x3d810d40	0.06301355
31	0x3be53612	0.006994971
32	0x3de31e19	0.11089725
33	0xbc0a8f8c	-0.008457076
34	0x3c8250c2	0.015907649
35	0xbcb98403	-0.022645956
36	0x3d8b7b6f	0.068106525
37	0xbbd19590	-0.006396003
38	0x3da2da35	0.07951776
39	0xbe054e21	-0.13018085
40	0x3d744e06	0.05964472
41	0xbcb209b9	-0.021733152
42	0x3ded4bc3	0.11586716
43	0x3d4ac561	0.04950464
44	0x3d0d05bd	0.0344293
45	0xbc696e4d	-0.014247489
46	0x3ca04236	0.019562822
47	0xbc24ca49	-0.010057994
48	0xbdafbf0a	-0.0858136
49	0x3cf9a4d4	0.030474104
50	0xbe4dbdd0	-0.20091939
51	0x3dac8ea4	0.08425644
52	0x3e03b322	0.12861302
53	0xbda10ae1	-0.07863403
54	0x3ddcdf58	0.10784787
55	0x3de93bcc	0.113883585
56	0xbd2c4877	-0.042061295
57	0xbcbfc1b4	-0.023407795
58	0x3d5576de	0.052115314
59	0x3d9eb728	0.07749778
60	0xbd912c02	-0.07088472
61	0x3dbd37f5	0.092391886
62	0x3d434792	0.047675677
63	0x3da8eaf8	0.08247942
64	0x3a2f63d6	0.0006690597
65	0x3ce9d4c8	0.028543845
66	0x3ba2d954	0.004969755
67	0x3cdff6d9	0.027339386
68	0xbdbfa0c9	-0.09356839
69	0xbd60793c	-0.054803118
70	0x3daffab0	0.08592737
71	0x3cf7290b	0.030170938
72	0x3d67ee66	0.05662384
73	0xbcba15f1	-0.02271554
74	0x3d00e9eb	0.03147308
75	0x3d2158bc	0.039391264
76	0x3cd2e422	0.025743548
77	0x3d9ea5ac	0.07746443
78	0xbd9ced36	-0.07662432
79	0x3d0f0cb7	0.034924235
80	0xbd607bf6	-0.05480572
81	0xbda1a7eb	-0.07893356
82	0xbd3c2c52	-0.045940705
83	0xbc40122e	-0.011723084
84	0x3d568d97	0.052381124
85	0xbbc52ff0	-0.0060176775
86	0xbd6a2c2a	-0.057171024
87	0x3dba624b	0.09100779
88	0xbd845e6b	-0.06463321
89	0x3cde6d3d	0.027151698
90	0x3d0a0f41	0.033705954
91	0xbd883445	-0.066505946
92	0x3cbcf4a0	0.023065865
93	0x3d17e366	0.0370821
94	0xbddc559b	-0.107585154
95	0xbd0d22d5	-0.034457047
96	0x3bede86d	0.0072603733
97	0x3da118e5	0.078660764
98	0xbe311cce	-0.17296144
99	0xbe08953c	-0.13338178
100	0x3d81fca9	0.06347019
101	0xbe5eb997	-0.21750484
102	0x3e0c92cd	0.13727875
103	0xbe97f5b0	-0.29679632
104	0xbda2c942	-0.07948543
105	0xbd9720ad	-0.07379279
106	0x3d82dd7a	0.063898996
107	0x3d34f610	0.044179976
108	0x3d201b6f	0.039088663
109	0x3d89e741	0.06733561
110	0x3c22e033	0.009941149
111	0x3e21cdad	0.15801115
112	0x3e2b6a9f	0.16739891
113	0xbd438433	-0.047733497
114	0x3d43d56e	0.047810964
115	0x3e455b6c	0.19273156
116	0x3dfe8d00	0.12429237
117	0x3d3c0bb6	0.045909606
118	0xbd6e6565	-0.058202166
119	0xbdf36980	-0.11885357
120	0xbced5d37	-0.028975112
121	0x3b2491bf	0.0025111286
122	0x3d297c5b	0.04137836
123	0xbe5d1664	-0.21590573
124	0x3da6fd63	0.081537984
125	0xbdf64475	-0.12024776
126	0xbdc4c7f1	-0.09608448
127	0xbd83e060	-0.064392805
128	0x3d878918	0.066179454
129	0x3d69cc25	0.057079453
130	0xbdfb73c3	-0.12277939
131	0x3e2b710e	0.16742346
132	0x3d00226b	0.031282824
133	0xbb4d6516	-0.003134077
134	0xbba64477	-0.0050740796
135	0x3d315466	0.04329338
136	0x3ddd1372	0.107947245
137	0xbd1cb743	-0.03826071
138	0xbda3ce4b	-0.07998332
139	0xbda5c992	-0.08095087
140	0xbc54ab74	-0.012980331
141	0x3dd8ce47	0.10586219
142	0xbd6b0f85	-0.057387847
143	0xbd065f0b	-0.032805484
144	0x3c8064dd	0.015673095
145	0xbb64b835	-0.0034899835
146	0xbb9fb2d1	-0.0048736115
147	0x3c91d417	0.017801328
148	0x3d0c8dc2	0.03431488
149	0x3cac02a9	0.020997362
150	0xbd3dfd97	-0.04638442
151	0x3e7e81bf	0.24854182
152	0xbd935b72	-0.07195176
153	0x3c253c1d	0.010085133
154	0x3c08e245	0.008354728
155	0xbd992987	-0.07478624
156	0xbd46fb47	-0.04857948
157	0x3c3f0476	0.011658778
158	0x3d9440d9	0.07238931
159	0x3ca9b456	0.020715874
160	0x3c715258	0.014729105
161	0x3d7c6c4c	0.061626717
162	0x3cc333c6	0.023828398
163	0x3d6c72d6	0.057726704
164	0xbcd3db78	-0.025861487
165	0x3d1e18bc	0.038597807
166	0xbda2de16	-0.07952516
167	0xbd51cf6b	-0.0512232
168	0x3d2df829	0.042472992
169	0x3c8ffcf4	0.017576672
170	0x3bfbe107	0.0076867375
171	0x3cb9da9d	0.02268725
172	0x3d25ad28	0.040448338
173	0xbcc022e9	-0.023454146
174	0x3dbb9e4f	0.09161054
175	0x3dd0638a	0.101752356
176	0x3d8b01a7	0.067874245
177	0x3c9882bb	0.018617025
178	0xbd32ae89	-0.04362348
179	0x3e178cea	0.14799848
180	0xbd7b458b	-0.06134562
181	0xbcc5095c	-0.024052314
182	0xbce25b89	-0.027631538
183	0x3c1c6d8f	0.009547605
184	0xbd5a17c3	-0.053245317
185	0x3da9cdd2	0.0829121
186	0xbd4d90bd	-0.05018686
187	0x3c96349d	0.018335635
188	0xbc04808d	-0.0080872895
189	0x3d1f6e5e	0.038923614
190	0x3d5ed023	0.054397713
191	0xbcde000c	-0.027099632
192	0xbddcbbc7	-0.10778003
193	0xbd0593af	-0.032611545
194	0x3d8c7a36	0.068592474
195	0xbc234b56	-0.009966692
196	0x3d3c6c77	0.046001878
197	0x3d1438f0	0.036187112
198	0x3d569f54	0.05239804
199	0xbcd13101	-0.025536062
200	0x3d007a0a	0.031366386
201	0x3c50130e	0.0126998555
202	0xbc652b06	-0.013987308
203	0xbbb52b08	-0.0055288114
204	0x3dcb523e	0.09927796
205	0xbd20f3df	-0.039295074
206	0xbc7c5092	-0.015400069
207	0x3c0161a4	0.0078968145
208	0x3d36483a	0.044502474
209	0x3d05569f	0.03255331
210	0x3b2d16e5	0.0026411351
211	0x3d9c6018	0.07635516
212	0x3ab5df4c	0.0013875752
213	0xbccd63e2	-0.025072042
214	0x3d03f0f8	0.032212228
215	0x3d118306	0.035525344
216	0xbd44c164	-0.048035994
217	0x3d329331	0.043597404
218	0x3cc4ea3b	0.024037471
219	0x3d8519ca	0.064990595
220	0x3cc7b9dc	0.024380617
221	0xbc6cb8cf	-0.014448359
222	0xbc9e944f	-0.019357828
223	0x3d700683	0.05859996
224	0x3a3d1ebe	0.0007214359
225	0x3c162b58	0.009165607
226	0x3dc5ae1c	0.09652349
227	0xbc948270	-0.018128604
228	0x3d4a453e	0.04938244
229	0x3e05023e	0.12989137
230	0xbcec70fe	-0.028862473
231	0xbd167726	-0.036734723
232	0x3deb6f78	0.1149587
233	0xbb455ce2	-0.0030115177
234	0x3da66290	0.08124268
235	0xbcaf828a	-0.02142455
236	0xbd99236b	-0.074774586
237	0x3d9bd3ee	0.07608782
238	0x3d6e5bc3	0.05819298
239	0xbc954094	-0.01821927
240	0x3d054152	0.032532997
241	0xbd701c86	-0.058620952
242	0x3d9430f0	0.072358966
243	0xbd9ab627	-0.07554274
244	0xbdaf70f3	-0.08566465
245	0x3cd2848d	0.02569797
246	0xbe231762	-0.15926889
247	0xbc9f7ced	-0.019468749
248	0xbdf07532	-0.11741103
249	0x3c807f98	0.015685841
250	0x3e2b7033	0.1674202
251	0x3d2c2379	0.042026017
252	0x3df3a560	0.11896777
253	0x3c837af7	0.016049845
254	0x3a4708ba	0.0007592548
255	0x3b3b0478	0.00285366

features.0.bias f4 [50]
0	0x3cad8536	0.021181684
1	0x3dc79347	0.09744888
2	0xbd37beea	-0.044859804
3	0xbd825faf	-0.063659064
4	0x3d7d0b93	0.061778616
5	0xbdcbaee2	-0.099454656
6	0x3e052962	0.13004068
7	0xbdde411f	-0.108522646
8	0xbdbcf52a	-0.09226449
9	0x3ce6aa70	0.028157443
10	0xbd6481d4	-0.055787876
11	0x3e5a8210	0.21338677
12	0x3da913b8	0.08255714
13	0xbe21099c	-0.15726322
14	0xbdd272da	-0.102758124
15	0xbe0314d9	-0.12800921
16	0xbd135cb8	-0.035977095
17	0xbdd6c11a	-0.1048605
18	0x3dd39450	0.10331023
19	0x3cc3a28c	0.02388122
20	0xbdab2ccf	-0.08358156
21	0x3e5bca58	0.21463907
22	0x3c8ade12	0.016951595
23	0x3e4c5c56	0.19957098
24	0x3d0e4dcb	0.034742158
25	0x3dfecb15	0.124410786
26	0x3e851912	0.2599569
27	0xbd6aa445	-0.057285566
28	0x3e9f6c6a	0.311374
29	0x3dc0c980	0.09413433
30	0x3e1a140b	0.15046708
31	0xbe2bd805	-0.16781624
32	0xbdb0df03	-0.08636286
33	0xbc8330ac	-0.01601442
34	0x3d42389b	0.047417264
35	0x3d681ea2	0.05666984
36	0x3d69c943	0.057076704
37	0xbdd91c53	-0.106011055
38	0xbe08b6bf	-0.13350962
39	0xbcdc386a	-0.02688237
40	0x3d627185	0.055284042
41	0x3ccdd678	0.02512668
42	0x3ebfecac	0.37485254
43	0x3e848fa8	0.2589085
44	0xbc97b6fc	-0.018519871
45	0xbc6556ca	-0.013997743
46	0xbcd8c392	-0.026460443
47	0x3eb4067e	0.35161203
48	0x3d6d9c9d	0.058010686
49	0xbdc5cc91	-0.096581586

head.weight f4 [2, 50]
0	0x3e3f4458	0.18678415
1	0xbd3eb6fb	-0.046561223
2	0x3df200d9	0.11816568
3	0x3e3f2b23	0.18668799
4	0xbeafde9b	-0.34349522
5	0xbbba2e2c	-0.0056817736
6	0xbe503803	-0.20333867
7	0xbd46301c	-0.048385724
8	0xbe85d4a0	-0.26138783
9	0xbddf79b3	-0.10911884
10	0x3e24f149	0.16107668
11	0xbd826aae	-0.06368004
12	0x3e0f2827	0.1398016
13	0x3e0d1335	0.13776858
14	0x3dda3982	0.106555
15	0x3e5331cc	0.20624465
16	0x3df96720	0.12177873
17	0xbe0d4105	-0.13794334
18	0x3dda61ed	0.10663209
19	0xbc3ee873	-0.0116521
20	0x3c727968	0.014799453
21	0x3d4537ec	0.048149034
22	0xbea2fd1b	-0.3183373
23	0xbe0db830	-0.13839793
24	0xbdaeba81	-0.085316665
25	0x3d258a52	0.040415116
26	0xbe652109	-0.22375883
27	0xbd6fd0cc	-0.058548734
28	0xbeb618a5	-0.35565677
29	0xbe5487b4	-0.20754892
30	0xbe72a5a0	-0.23695993
31	0x3dcb4808	0.09925848
32	0xbca2de59	-0.019881414
33	0xbd6353c4	-0.055499807
34	0xbd35a0ca	-0.044342794
35	0xbeb92271	-0.3615909
36	0xbd12e51c	-0.035863027
37	0xbe14da29	-0.14536346
38	0x3de0a275	0.10968486
39	0x3d6d146a	0.057880796
40	0xbd769f5f	-0.060210582
41	0x3dd5bba4	0.1043618
42	0xbe91cad3	-0.28475055
43	0xbe9147c0	-0.28375053
44	0xbd5a8af6	-0.05335518
45	0xbbf59238	-0.0074942373
46	0x3e00fbf8	0.12596118
47	0xbddc222f	-0.107487075
48	0x3db6295f	0.0889461
49	0x3e4f6243	0.20252328
50	0xbe36745d	-0.17817827
51	0xbe8858ec	-0.26630342
52	0xbc30d16d	-0.0107921185
53	0x3d1235be	0.035695784
54	0xbecec61a	-0.40385514
55	0x3e0dbc8a	0.13841453
56	0x3e264b05	0.16239555
57	0x3e492626	0.19643459
58	0x3da7601a	0.08172627
59	0x3e12d494	0.14338905
60	0x3e3a34c9	0.18184198
61	0xbebd96dd	-0.37029162
62	0xbec20539	-0.3789461
63	0xbd80ab26	-0.06282644
64	0x3daa12fe	0.08304404
65	0xbd995527	-0.07486945
66	0x3d91f6ec	0.07127175
67	0x3eac8f50	0.3370309
68	0x3dbb286a	0.09138568
69	0xbe7aae5a	-0.24480572
70	0x3e46d092	0.19415501
71	0xbe883023	-0.26599225
72	0xbe067652	-0.13131073
73	0xbf19b5cf	-0.6004304
74	0x3e562b83	0.20915036
75	0xbe8bac74	-0.2728001
76	0xbe97bb2d	-0.2963499
77	0x3e9293ed	0.28628483
78	0xbed9dddb	-0.42552075
79	0x3e28e007	0.1649171
80	0xbf294bdf	-0.66131395
81	0x3d68c22f	0.056825813
82	0x3e5eef1f	0.21770905
83	0x3e891b26	0.26778525
84	0x3e1ab368	0.151075
85	0xbb71d3d3	-0.0036899939
86	0xbeeca204	-0.46217358
87	0x3e32b1ba	0.1745061
88	0x3d5560b7	0.052094188
89	0xbe9dc3fa	-0.3081358
90	0x3e333c6b	0.17503516
91	0xbe2b75f2	-0.16744211
92	0xbef14f63	-0.4713088
93	0xbee45322	-0.44594675
94	0xbf24f576	-0.64437044
95	0xbe908a4e	-0.28230518
96	0xbeac6bfd	-0.3367614
97	0xbeb2ccfb	-0.34922013
98	0xbeaa9b22	-0.33321482
99	0xbd38c0b0	-0.045105636

head.bias f4 [2]
0	0x3d985230	0.07437551
1	0xbe65fed2	-0.22460487
