trained_models/20220211/adult/adv_debiasing/mlp_sex_seed3_epochs50_bs128_lr0.0005_decay0.0005_adv_lamb6.0_eta0.007_constrainteo.pt (torch, 21919 bytes, 4 tensors)

features.0.weight f4 [50, 98]
00000000: 5637 4bbe 65b4 84be 013e 103c 1296 f8be
00000010: 05bb 0ebe 7860 50be 9e19 b63b c0f3 973c
00000020: c6fb f63c c01e 59bc e94d 053e cf94 273d
00000030: 82b7 15bd e144 383d e00c 083d 2652 08bd
00000040: 955d a8bc f8b1 533e 6ab1 853d 3deb 053e
00000050: 0b57 cebb 0ab5 aa3c d865 9bbc f4a5 01be
00000060: 9c88 b7bc 62fd 5fbe 5c1a c63c 75f8 e4bd
00000070: 136a 13bd 1e46 39be 0a7c 7e3c 3e71 0dbc
00000080: b420 b1bd 8910 cc3d 4de8 e4bd ad4a 09be
00000090: 3df9 a1bd 6046 0abd 7bf1 a43b 7ce9 d3bd
000000a0: e050 c73d 2d6c e13d 500b 5f3d a084 3d3d
000000b0: f0a4 3f3d 7e4b bbbd 5c17 20bd 3ed7 8cbd
000000c0: 0ca1 55bd 5585 633d 0a4e 1abe 3f8a 983d
000000d0: 2d4b 633d df7d 6a3e 080c 03be 0ef7 793e
000000e0: 7eee e9bc 7c68 093d c1c4 11bd cd5a ebbc
000000f0: 91ca 133d 5d6d ab3d 0e72 3fbd 4c16 54bc
00000100: b0cb acbc cc36 11bd ddde b73c d787 8abd
00000110: 8f95 bc3c ebd2 ffbb e118 fa3c 79f5 f63c
00000120: 5390 e03b 2d89 e43c 5aa3 e73c 59eb 36bc
00000130: e61f 08bd 6994 883d effe 9b3c e5bc f53c
00000140: bd74 b4bd 5a5a a4bd 8952 88bc 8746 863b
00000150: d800 d83b 7868 643b 7bb3 72bc 15e2 a0bd
00000160: 9d39 f2bd bf2a 4bbd 325d 623d 75de 033d
00000170: 549b d8bc 9914 5d3d f673 953d 96a9 993b
00000180: f65f 90bd 07ca 693e 12f4 0dbe 5659 1bbe
00000190: 1241 883c aee4 26be b886 82bd 9023 a6bd
000001a0: 3f90 ecbc 6882 7dbc e995 40bd d8f9 0ebd
000001b0: 9bd1 503d 4005 6fbc 84cb 3c3d 82ee 703d
000001c0: 69ef 2a3d 765d 95bd b9af adbb 61f1 b7bd
000001d0: e27d 0b3e 52f1 1e3e 139c 3e3b 2b61 193d
000001e0: 3b7f 99bc cde8 abbd 7e91 0fba 0752 f5bd
000001f0: 3548 6bbd 013a 97bd 34df 3bbc e375 5cbd
00000200: d995 5b3d 1a1e 8dbd 9ca0 023e 76ec 2b3e
00000210: ac10 08bd 9b65 35bd 697c cebd 7346 e03c
00000220: bec0 933d 1de8 ddbb bc51 79bd ab6c 893d
00000230: 97d1 143d 38ff 36bc aee7 203e b733 16bd
00000240: f7a8 11bc 1b2a 1abd 11ee a9bc 1c1a 2cbd
00000250: e285 a4bd 33d8 0d3e fd29 90bd 0095 593e
00000260: cb69 e3bc 9b15 5f3e d181 633d 7490 6dbd
00000270: d4a8 fcba 311d f53c 752c 0bbb 0068 173c
00000280: dea3 813b f801 86bc dfeb 413c cf31 bf3c
00000290: c285 b2bd 1d76 32bd 5de2 503d 2b57 5fbd
000002a0: ea8d c43c 5c5f edbc 5d1f 93bb 4974 27bc
000002b0: 82a7 a1bd abba 81bc 465f ea3b c6e4 103c
000002c0: 7c72 b0bd 12bc 8c3c 6fa6 023d 37eb ab3b
000002d0: bb70 d73d 0cf7 cb3b 9871 8b3d 802c bf3d
000002e0: fab7 4bbb 5d5a ab3c 23fb b23c f4d3 4b3d
000002f0: 2b80 b8bb b6f0 563c 8fe7 963d ff73 56bd
00000300: a2b5 3cbc deff 3dbc be07 da3c 924c 923e
00000310: abe8 34bc e07f 1e3c 20e3 42bc 7b54 d93d
00000320: 54ab 40bc 3494 8a39 67ab 733c d370 963d
00000330: 9695 063e fe97 80bd 63a2 733d 48ed c3bd
00000340: db2c eb3d 3a34 c6bc 1809 12bc 1c33 8bbd
00000350: d477 2d3d 7d26 063d 1ac2 47bd dc09 adbd
00000360: 36d3 793c d18e bd3c dbe8 6d3b 4aee 213d
00000370: edd6 4bbc 1708 8ebd 3cab 2bbd bf05 733d
00000380: d9e0 8f3b e134 0f3c aa64 8a3d 09f3 eb3c
00000390: 40fe 923d 61bd 62bd db9d 1bbd 241f 853c
000003a0: 6d23 7d3d ad6d 433e f349 183d 4cb4 9b3d
000003b0: 22f5 f1bd 886e 0b3d 6ff8 9e3d 2f81 103d
000003c0: 4315 973d 28a5 4f3d 5a3e a6bd b68e 2e3d
000003d0: 04f8 4d3d 7632 5c3d a4ce 943b c014 973d
000003e0: 3f76 fdbc fe19 d7bc 8dfa a93d e7e5 e33d
000003f0: 1abe 023e 0a84 f1bc 03de 3dbd f9d6 8dbd
-0.19845328 -0.2591888 0.008803845 -0.48551995 -0.1393853 -0.203493 0.005557253 0.018548846
0.030149352 -0.01325196 0.13018002 0.0409134 -0.03655196 0.044987563 0.033215404 -0.033281468
-0.020552436 0.20673358 0.0652798 0.13078018 -0.0062969974 0.02083828 -0.018969461 -0.12660962
-0.022404008 -0.21874002 0.024182491 -0.11180202 -0.035989832 -0.18093154 0.015532503 -0.008632956
-0.08648816 0.09964091 -0.1117712 -0.13407393 -0.079088666 -0.03375852 0.0050336695 -0.10347268
0.097322226 0.11006961 0.054454148 0.04626906 0.046788156 -0.09145258 -0.039084777 -0.06876992
-0.05215554 0.055547077 -0.15068832 0.07448243 0.055491615 0.22899579 -0.12797558 0.2441065
-0.028556105 0.03354691 -0.03558803 -0.02872982 0.036081854 0.08370469 -0.04673963 -0.012944769
-0.02109322 -0.03545265 0.022445137 -0.06764191 0.023020534 -0.007807126 0.030529441 0.030146347
0.0068531423 0.027897442 0.028276134 -0.01116451 -0.033233546 0.06668932 0.01904246 0.029997298
-0.088113286 -0.08025046 -0.016640918 0.004097763 0.0065918975 0.0034852307 -0.014813299 -0.07855622
-0.11827395 -0.049601313 0.05526466 0.032194573 -0.026441254 0.05397472 0.072975084 0.0046894057
-0.07049553 0.22830974 -0.13862637 -0.15170798 0.01663259 -0.16298172 -0.06373352 -0.08112252
-0.028877376 -0.015472986 -0.047017965 -0.03490624 0.050981145 -0.014588654 0.046092525 0.05882121
0.041732226 -0.07293217 -0.005300489 -0.08981586 0.13622239 0.15521744 0.0029084727 0.037446182
-0.018737426 -0.083940126 -0.0005476697 -0.11978536 -0.05744191 -0.0738411 -0.01146679 -0.053823363
0.053609703 -0.06890507 0.1275658 0.16789421 -0.033219025 -0.04428635 -0.10082323 0.027377343
0.07214497 -0.006772055 -0.060868964 0.0671018 0.036332693 -0.011169247 0.15713379 -0.036670413
-0.008890382 -0.03763781 -0.020743402 -0.042017087 -0.080333486 0.13852005 -0.07039259 0.21248245
-0.027760407 0.21785586 0.055543724 -0.05799909 -0.0019276389 0.029921146 -0.0021236215 0.009241104
0.003956302 -0.01635836 0.011836021 0.02333918 -0.087169185 -0.043569673 0.050997127 -0.05452649
0.023993451 -0.028976135 -0.004489823 -0.010220596 -0.07893278 -0.01583608 0.0071524708 0.008843606
-0.08615586 0.017179523 0.031897005 0.0052465457 0.105195485 0.0062245186 0.06808776 0.093346596
-0.0031085 0.020917112 0.021848267 0.04976268 -0.005630513 0.013118913 0.07368385 -0.052356716
-0.011517914 -0.011596648 0.02661502 0.28574044 -0.0110418005 0.009674042 -0.011894971 0.106118165
-0.011759598 0.0002643183 0.0148724085 0.07345738 0.13143 -0.0627899 0.059481036 -0.09566742
0.11483165 -0.024194825 -0.008913301 -0.06796858 0.042350605 0.03275155 -0.048769094 -0.08449146
0.0152481105 0.02313939 0.0036302123 0.03953389 -0.012441379 -0.06935137 -0.04191135 0.05933165
0.0043908176 0.008740635 0.067574814 0.028802412 0.071774006 -0.055356387 -0.03799234 0.0162502
0.061801363 0.19084807 0.0371799 0.07602748 -0.118143335 0.034040958 0.07762229 0.03527945
0.07377102 0.050694615 -0.08117361 0.04261657 0.050285354 0.05375906 0.004541235 0.073770046
-0.030940173 -0.026257511 0.08299742 0.11127835 0.1276783 -0.029481906 -0.046354305 -0.069257684

features.0.bias f4 [50]
00000000: fc88 a93d d0ff df3c 0c32 f1ba 6c36 80bd
00000010: 35d8 c2bc 2754 353d 8fd3 d3bd 547d 60bd
00000020: c234 8abd fd3d dabd d0e0 1fbd 9308 bdbd
00000030: c7db 4d3d e276 193d e46c 833d dc04 0a3d
00000040: b3d5 1ebc 7f00 bebd 67af 11be b8d2 b83c
00000050: 8e7b febc 2c31 49bd fed9 34bc 825a 07be
00000060: d127 0bbe 2bf0 dcbd bd2f 1fbe a506 0fbd
00000070: 5073 30be 9ff5 dc3d 9ae7 57bd 55aa 65bc
00000080: debf 11bc 6284 8bbd 9406 973d 2c67 733c
00000090: fa0e ee3b f654 2dbd 761c 14bd 7652 49bd
000000a0: ab24 a6bd bf30 32bd bfbe 653d 0f0d 32bd
000000b0: 6345 e0bc e68a 04be a96d 1fbe cb05 363b
000000c0: 82ae e13d e17b cdbd
0.08278081 0.02734366 -0.0018401756 -0.0626038 -0.023784736 0.044269707 -0.10343086 -0.054807022
-0.06748344 -0.106563546 -0.039032757 -0.09230151 0.050258424 0.03746689 0.064172536 0.03369604
-0.009694505 -0.09277438 -0.14227067 0.022561416 -0.031064775 -0.04911916 -0.0110383015 -0.1321812
-0.13589408 -0.10787996 -0.15545554 -0.034918446 -0.17231488 0.10789036 -0.052711107 -0.014017661
-0.008895842 -0.068123594 0.073743016 0.014856141 0.007264969 -0.042317353 -0.036159955 -0.049150907
-0.081124626 -0.04350352 0.056090113 -0.043469485 -0.027376836 -0.1294361 -0.15569176 0.002777445
0.11019613 -0.10033394

head.weight f4 [2, 50]
00000000: 5313 993e ed3a 673e dcb3 0dbe df9b ed3d
00000010: 4d2c 8c3d 828b 25bd 8114 05be b131 4d3e
00000020: f039 cabd 5c67 3fbe ad24 ea3d 45c3 663e
00000030: 905b 393e dffd a2bd 82bf 65bd 6538 103d
00000040: d7e2 413d 2c49 24be b008 bb3e 680b 803e
00000050: aba0 1dbd ca68 d23d f5cc 243c 9ef4 3cbb
00000060: 0736 1ebd 681a 37be 2377 e9bc e3fd 95bd
00000070: 7944 0b3e 90c7 af3d 66f9 2ebd b1a2 553e
00000080: f01c a83e 73c3 a53e f93d aebb a4b6 1abe
00000090: 0b98 ba3d 0f22 fe3d a23a 0d3e e45d 3dbe
000000a0: 490b 853d 07a4 b73e 622d 1f3d f859 ec3c
000000b0: 4334 e0bc f6e8 893d b9a7 ebbc e6c3 e0bc
000000c0: 33aa 6f3d 15b4 21be 2790 ecbd 52a2 88be
000000d0: 59eb 9cbd 15d4 7c3e a34e 3d3c d422 bebc
000000e0: 1114 51be dcae b6bd 6205 ba3c 1b54 283d
000000f0: 1cfa ff3c fa3b b33d b517 9e3d 4db7 e4bc
00000100: 70f8 d4bd c731 89bc 78b4 3fbc 3c9f 193e
00000110: 55c9 58be 48bb 81bd 4e8e 0d3e 5083 0e3d
00000120: dae5 56bb 41a6 8bbd a7a5 2abe aacb c0bd
00000130: a7ff db3d c88a 193e 6aa2 14be b776 2d3c
00000140: e04f 813d e97d f6bc 68dd 53be d2fa 81bd
00000150: c55d e5bd 0c93 64bd 5f21 623d f674 043e
00000160: 8d6e 493c d03e 2abe c669 e43d 457a 7cbe
00000170: 607b 6e3d 385f 083e e961 9e3c d9cd 3abe
00000180: 06e2 a23d b0f3 bbbd 2df3 ddbd a8c7 1cbe
0.29897556 0.22581072 -0.13838142 0.11601996 0.06844387 -0.04041625 -0.12996103 0.20038487
-0.09874332 -0.18691772 0.114327766 0.22535427 0.18101335 -0.07958578 -0.05609084 0.035210032
0.047335472 -0.16043538 0.36530066 0.25008702 -0.038483303 0.10273893 0.010058631 -0.0028832327
-0.038625743 -0.17881167 -0.028499192 -0.07323816 0.13600339 0.085829854 -0.042718314 0.20862843
0.32834578 0.32375678 -0.0053174463 -0.15108734 0.09111031 0.1240884 0.13791898 -0.18492848
0.06496293 0.3586733 0.03886164 0.028851494 -0.02736867 0.06733887 -0.0287665 -0.027437162
0.058511924 -0.15791352 -0.115509324 -0.2668634 -0.076620765 0.24690278 0.011554393 -0.023209967
-0.20417811 -0.089200705 0.022707645 0.041095834 0.031247191 0.08751674 0.077193655 -0.027919436
-0.10398948 -0.016747368 -0.011700742 0.1500215 -0.21170552 -0.06334549 0.13823816 0.034793198
-0.003279081 -0.0681882 -0.16664754 -0.09413846 0.10742121 0.14994347 -0.14515081 0.010587386
0.06314063 -0.030089336 -0.20689929 -0.06346668 -0.11199526 -0.055804297 0.055207606 0.12935242
0.012294424 -0.16625524 0.11152987 -0.24656017 0.05822313 0.13317573 0.019333797 -0.18242587
0.07953267 -0.09177339 -0.10837398 -0.15310538

head.bias f4 [2]
00000000: 1d31 343d c285 103d
0.04399215 0.03528381
