trained_models/20220211/retiring_adult/reweighting/mlp_seed0_epochs5_bs128_lr0.0003_decay0.0005_constrainteopp_eta0.2_iter10.pt (torch, 4319 bytes, 4 tensors)

features.0.weight f4 [50, 10]
00000000: b697 363d d72c 75bc d9d2 35be e9e5 06be
00000010: 6f48 b6bb efd9 aebd d267 5bbc 88b4 a0bb
00000020: fce7 2ebe dfc4 c53d 541c 379d 9767 999e
00000030: fb55 6c1d 358a 3d9b 2dba 809f 856d aa97
00000040: 37ed 259a 4eed 139e fa4f d99f 46b5 389f
00000050: 3d7b 373c 5f41 44bc 5b4a e7bc a5ad 043c
00000060: 3da8 dc3d 537b 4b3d d04b 873d 18a1 b8be
00000070: cd5a edbc 066c 533d 0dea 7533 249f 98b5
00000080: c618 23b6 b971 3135 1157 a2b3 1379 87b5
00000090: 7d60 cd35 cc00 dfb1 14e9 1435 0bf0 dfb5
000000a0: 8abf 34bd 0870 d8be 321e e3bc cb7a 98bd
000000b0: 842c abbd 926b 88bd 5e48 a93c b614 043e
000000c0: 5bc0 aa3c 3750 1e3e bb91 95b2 b637 3e33
000000d0: 057f ab30 48f8 f732 c087 0ab2 5218 e7b2
000000e0: b857 b9b0 2d22 96b1 c849 deb1 4738 1fb4
000000f0: b286 1d32 02d5 34b2 aafb 6db2 3150 9db1
00000100: dce7 2032 ed76 8a33 ea62 6f31 bf78 a8b2
00000110: d3d0 8ab0 e1d7 33b2 2cab 95bc 109e ae3a
00000120: c887 823b 1c87 873b c6a2 443a 9f90 4f3b
00000130: bef4 753c 6008 763b 7dfc 38bc 9647 613b
00000140: 07f9 a6be 835e b2bd ae0b 7ebb 2d06 01be
00000150: 5844 56bd c8e4 d1bc 37db 82bd 45c8 1cbe
00000160: 74d0 7b3e 91bf b73d 3ccf b9bc c5d1 033d
00000170: 4040 0f3e afc7 adbc dd2e 9fbe b03b fb3b
00000180: c0c0 183c 7d4d 56bc c45c 91bc 133c 603d
00000190: 4a16 0c3e 94df 323c a2c9 bebc b2de cdbb
000001a0: bf46 933d 68ff cdbc eca5 893c 934c 0cbf
000001b0: dcdf 65bd 3c1f 17be ac1e 4ebe 2539 e73d
000001c0: e2ad 6cbe 481c 07bd 5df5 92bd 8c9e 01bb
000001d0: 6d95 6e3c 4b5b fabd 100c 973d 9eff ca3d
000001e0: b4dc b5bc a7c3 35bd f944 51be 81f2 5e3c
000001f0: 3f6e 2fbf aca4 1c3c 6928 483c 8923 5bbb
00000200: ba7f 67bd 3a27 51bd a879 2ebe a0b7 05bb
00000210: d794 cabc 3b45 88bd 70d8 03bc 1888 f73c
00000220: 6e50 1c3d 1352 99bd 3b5b de3d 8be0 9e3d
00000230: 7a2f e9bc 80a1 223d 8d27 2e3e 49fe cfbc
00000240: 0bb3 c0be f619 003c 8f1a 413c 81c8 64bc
00000250: 6588 a8bc 1b6b 873d bf72 91ba a720 3abe
00000260: 9c6c 83bb f481 213b bccb 933b d772 13bb
00000270: 333a 63bb 0540 03bf fc37 3e3a cfad 61bb
00000280: a931 fdbc 8b43 413b d21b 10be 8449 05be
00000290: f3cc 36bd 60f8 70bd 8f49 75be 0708 193a
000002a0: f477 77be 0a64 393d 02e4 923c 94ec 2dbe
000002b0: 3904 083e 2c30 e23c b80f d8be 4ff0 273d
000002c0: fc11 023b 3efa ccbd dab1 9b3d 2814 d03b
000002d0: f6a8 723d b136 1abe 1efa 543e 497a d4bb
000002e0: b614 523d 1779 bfb8 781d e3ba 7aee 123d
000002f0: 724b d0bd 0b47 263e 23cc e2b7 148e e8b8
00000300: 26e4 02b7 6640 83b9 c96f e338 a938 d238
00000310: c0c8 5f39 6869 2db9 dc53 4736 8e49 4fb9
00000320: 0740 92bd 58ad f83c 4d21 6bbc 857b 13be
00000330: 76db 18bd f6ae 9d3d a8b2 c43d 0314 cd3b
00000340: c65d 423e 7f74 8a3d b394 3a3d 738e e2bc
00000350: 5ae8 78bc 05b1 6dbd a80b ccbc 3222 17bd
00000360: 12c7 963d 8511 aabc a2d1 403d 2adc b4bd
00000370: 052b a139 34bb b33a c8e8 0dba f3f6 99b9
00000380: dda0 14ba 1617 10b9 1925 8839 809d 92b8
00000390: f8e7 c639 780c 44b8 fbc7 1dbb d519 6c3d
000003a0: e1ca 083b 6446 1e3e 6d69 d73d 2adc d1bb
000003b0: 3d53 30bb 67ed eebb e3d5 76bd ee47 c63b
000003c0: 1980 083b 0e77 b8bd c8f8 3cbb dec3 2f39
000003d0: 9442 373a 29f5 5ebb 0c37 af36 ecec fbbe
000003e0: f433 823b 0eb5 80bb 550d 48be 6835 6f3c
000003f0: 3785 943b ad27 acbc cb38 adbc ebb7 953a
0.044578277 -0.014964304 -0.17756213 -0.13173641 -0.005562834 -0.08537661 -0.013391452 -0.0049043335
-0.17080683 0.09656691 -2.4234494e-21 -1.6242349e-20 3.127879e-21 -1.5678371e-22 -5.451811e-20 -1.1013639e-24
-3.431282e-23 -7.831189e-21 -9.2035385e-20 -3.911346e-20 0.011198816 -0.011978476 -0.028233698 0.008098041
0.107742764 0.049678158 0.06606257 -0.36060405 -0.028973961 0.05161669 5.7256376e-08 -1.1371199e-06
-2.4303313e-06 6.6103127e-07 -7.55955e-08 -1.0093521e-06 1.5301772e-06 -6.490245e-09 5.547347e-07 -1.6684656e-06
-0.04412798 -0.42272973 -0.02772436 -0.07445296 -0.083581 -0.066611424 0.02066439 0.12898526
0.020843675 0.15460287 -1.7412153e-08 4.428849e-08 1.2477989e-09 2.886749e-08 -8.063523e-09 -2.6902999e-08
-1.3485453e-09 -4.36946e-09 -6.4694383e-09 -1.4828503e-07 9.169229e-09 -1.0525811e-08 -1.3852437e-08 -4.578418e-09
9.3659445e-09 6.447758e-08 3.4835304e-09 -1.9612683e-08 -1.0100173e-09 -1.04682565e-08 -0.018270098 0.0013322253
0.0039834715 0.0041359793 0.0007501062 0.0031671894 0.015011964 0.0037541613 -0.011290667 0.0034374944
-0.32611868 -0.08709433 -0.0038764286 -0.12600012 -0.05231127 -0.025621787 -0.06389468 -0.15310772
0.24591237 0.08972085 -0.022681825 0.032182474 0.13989353 -0.02121338 -0.3109044 0.0076670274
0.009323299 -0.013079998 -0.01774443 0.05474479 0.13680378 0.010917563 -0.023289505 -0.006282651
0.07191228 -0.025146201 0.01680275 -0.54804343 -0.056121692 -0.14758009 -0.20128888 0.11290196
-0.23113206 -0.032985955 -0.071757056 -0.001977834 0.014561993 -0.12224444 0.073753476 0.09912036
-0.022199966 -0.04437604 -0.20436467 0.013607622 -0.685276 0.009560745 0.012216666 -0.0033437929
-0.056518294 -0.0510628 -0.17038596 -0.0020403638 -0.024729175 -0.0665383 -0.008047208 0.030216262
0.03816264 -0.074863575 0.108572446 0.07757672 -0.028465021 0.0397048 0.17007275 -0.025389807
-0.376366 0.00781869 0.011786117 -0.0139638195 -0.02057285 0.066122256 -0.0011096819 -0.18176518
-0.00401075 0.0024644108 0.004510371 -0.002249887 -0.003467214 -0.5126956 0.0007256267 -0.0034435873
-0.030907469 0.0029489722 -0.14073113 -0.13016325 -0.04462905 -0.05883062 -0.23953842 0.0005837683
-0.24166852 0.04526142 0.017930988 -0.16984779 0.13282861 0.02761086 -0.42199492 0.04100066
0.0019847145 -0.100086674 0.07602282 0.006350059 0.059243165 -0.15059926 0.20798537 -0.006484304
0.051289283 -9.1301445e-05 -0.0017327508 0.03587196 -0.1017064 0.16238038 -2.7036358e-05 -0.00011089086
-7.801724e-06 -0.00025034248 0.00010845025 0.00010024134 0.00021341722 -0.00016537833 2.9702123e-06 -0.0001976846
-0.071411185 0.030356094 -0.014351201 -0.14402588 -0.03731867 0.07699387 0.096043885 0.006258489
0.18981084 0.06760501 0.045551967 -0.027655816 -0.015192116 -0.058030147 -0.024907902 -0.036897846
0.073621884 -0.020760307 0.04707492 -0.088310555 0.00030740365 0.0013712407 -0.000541341 -0.00029366426
-0.00056697224 -0.0001374151 0.0002596758 -6.991159e-05 0.00037938333 -4.6741654e-05 -0.0024075496 0.057641823
0.0020872878 0.1545654 0.10518155 -0.0064044194 -0.0026905083 -0.007291484 -0.060262572 0.006051055
0.0020828305 -0.09007083 -0.0028834809 0.00016762267 0.0006990817 -0.0034020639 5.2218147e-06 -0.49204195
0.0039734785 -0.0039278334 -0.19536336 0.014600135 0.004532482 -0.021015013 -0.021145245 0.001142261

features.0.bias f4 [50]
00000000: f4e9 05bd 9595 63a0 f9fc 8e3e edff b7b4
00000010: 7c85 50be 1b65 8fb4 e576 15b2 8f93 8e3b
00000020: e0c5 123e 5186 0e3d 9378 b8be 55b0 033e
00000030: 2318 86be 82f5 663d 238a 2b3d 5a08 b73e
00000040: b283 4cbd 9bc4 c2bd fc7a 953c 70da a9b9
00000050: ddb7 3d3d a6a4 f93c 3120 1bba 2596 0f3a
00000060: b708 533e 62f1 1ebe 0931 b1bd e232 b3a8
00000070: 205e 8d3d 1c44 c1bc ddaa 28be f168 243c
00000080: d4ec 68be c6d5 fabd 90d7 87bd 26dd 8934
00000090: 17e1 8e3d 3800 6e3e 212a 0cbb 84cc 153e
000000a0: d5a4 863d 41bd 22be 1cd8 84bd 9350 86bd
000000b0: ea2d 18be de04 31bb 1d0b 40be 78bc 10be
000000c0: 4474 6dbe 35e8 fd3d
-0.03269382 -1.927714e-19 0.27927378 -3.4272617e-07 -0.2036342 -2.670939e-07 -8.699975e-09 0.0043510864
0.14333296 0.034796063 -0.3602949 0.12860234 -0.2619029 0.05638648 0.041879784 0.3574856
-0.049930282 -0.09510156 0.01824712 -0.0003239694 0.046317924 0.030474018 -0.00059175777 0.00054773904
0.20608793 -0.15521768 -0.08651931 -1.9895059e-14 0.069027185 -0.023592047 -0.16471429 0.010034786
-0.22746593 -0.12247805 -0.06632912 2.5679145e-07 0.06976526 0.23242271 -0.0021387415 0.14628798
0.06574408 -0.15892507 -0.06486532 -0.06558337 -0.14861265 -0.0027010958 -0.1875424 -0.14134395
-0.23188883 0.123978056

head.weight f4 [2, 50]
00000000: c7e1 52be ca86 c12a d9fa a33e a831 37b5
00000010: 0edf b6be 863f e0b4 fb17 9e32 e634 133c
00000020: ea1c ad3e 4a41 6dbe ce76 f9be bffb 863e
00000030: 682d 08bf 31c4 223e 6877 91be f56a e23e
00000040: 2879 8abe 5177 aebe ea7d 5cbe b0a9 a9b7
00000050: 1684 433e fec8 ce3d 7c10 89b9 d5eb 043e
00000060: f887 ba3e 9963 843e 4982 6ebe 2ae2 abb2
00000070: 21e3 2b3e 9885 4b3e 0c86 bf3e a044 88be
00000080: 9bd9 97be 107f 66be 14a5 23be 7a75 7435
00000090: 87ab 093e e04b c53e 8d84 0aba a2c6 7d3e
000000a0: 691e 733e cb8a e8be 5cce ecbe 1a7a 533e
000000b0: c25e 8e3e 2f21 b0bd c818 bf3e 856d e7be
000000c0: a5a9 bd3e 8d24 693e 89e1 523e f789 41ab
000000d0: 69f9 a3be 8731 3735 f4de b63e 5f30 e034
000000e0: 0918 9eb2 ed34 13bc dd1c adbe ce40 6d3e
000000f0: bc76 f93e 03fc 86be 5c2d 083f 71c4 22be
00000100: 5276 913e f75f e2be 2379 8a3e 2877 ae3e
00000110: 3d83 5c3e c99c a937 5384 43be 15c9 cebd
00000120: 2910 8939 f1eb 04be 5b88 babe a463 84be
00000130: 1f82 6e3e d6df ab32 4ae3 2bbe c285 4bbe
00000140: 2186 bfbe 7644 883e 8fd9 973e f67e 663e
00000150: 01a5 233e c386 74b5 aeab 09be 124d c5be
00000160: 4384 0a3a ecc6 7dbe a91e 73be 978a e83e
00000170: efcd ec3e 357a 53be d15e 8ebe ed20 b03d
00000180: d818 bfbe 616f e73e b2a9 bdbe a724 69be
-0.2059394 3.4377216e-13 0.3202732 -6.824507e-07 -0.35717052 -4.176947e-07 1.8404526e-08 0.00898478
0.33811122 -0.23169437 -0.48723453 0.26363942 -0.53194284 0.15895154 -0.28411412 0.44222227
-0.2704556 -0.34075406 -0.21532407 -2.0225387e-05 0.19093356 0.1009693 -0.00026142958 0.12980588
0.3643186 0.25857237 -0.23291887 -2.0009868e-08 0.16785862 0.1987518 0.37406957 -0.26614857
-0.29658207 -0.22509408 -0.15980941 9.1068034e-07 0.13444339 0.3853445 -0.0005284034 0.24782804
0.2374207 -0.4541839 -0.4625119 0.20652047 0.2780667 -0.08600079 0.37323594 -0.45200744
0.3704349 0.2276785 0.20593847 -6.875884e-13 -0.32026222 6.8244884e-07 0.35716975 4.1758446e-07
-1.840455e-08 -0.008984786 -0.33811083 0.23169252 0.487234 -0.26364145 0.5319421 -0.15895249
0.28410584 -0.4421384 0.27045545 0.34075284 0.21534438 2.0219379e-05 -0.19093446 -0.10096947
0.00026142717 -0.1298063 -0.36432156 -0.2585727 0.23291825 2.0008809e-08 -0.16785923 -0.19875243
-0.3740702 0.26614732 0.29658172 0.22509369 0.15980913 -9.109319e-07 -0.13444397 -0.38535362
0.0005283991 -0.24782914 -0.23742165 0.45418236 0.46250865 -0.20652087 -0.27806714 0.0860003
-0.37323642 0.45202163 -0.3704353 -0.22767888

head.bias f4 [2]
00000000: 60a7 6c3e f0d7 6bbe
0.23110723 -0.23031592
