trained_models/20220214/compas/adv_debiasing/mlp_sex_seed4_epochs50_bs128_lr0.0005_decay0.0005_adv_lamb3.0_eta0.01_constrainteopp.pt (torch, 82527 bytes, 4 tensors)

features.0.weight f4 [50, 401]
000000 b7 c2 fb 3c 50 bc bf 3b ef 7d 2d bd a4 65 26 bd
       0.030732496 0.005851306 -0.042356428 -0.040624276
000010 f2 c2 6f bd 9f c3 85 bd bb 2a 30 3d a7 06 6d 3d
       -0.058535524 -0.065314524 0.0430095 0.057867672
000020 83 35 0e 3b 15 6b 62 3d 0e 14 d7 bc d9 e7 59 bc
       0.0021699376 0.055277903 -0.02625468 -0.013299906
000030 6b 4d 8b 3d 8c d8 e5 38 41 7c 41 3c cc 1a fb 3c
       0.06801876 0.00010959906 0.01180941 0.030652426
000040 71 c3 6e 3d 64 13 5b bc b2 5a ed 3a b3 31 ef bc
       0.058291856 -0.013371322 0.0018108694 -0.029198503
000050 43 ff 98 3c 76 ff 01 bc 54 61 77 3d 4e 5a 9f ba
       0.018676406 -0.007934442 0.060395554 -0.001215765
000060 71 0c 1a 3d 3b 50 cd 3c 4e eb f9 3c aa 3d a0 3c
       0.03760952 0.02506267 0.03050771 0.019560654
000070 41 ce 33 3d 8f 96 09 bc 5e 38 32 3d e4 5d 44 3d
       0.04389787 -0.008397712 0.043510787 0.047941104
000080 71 fa 00 bc 12 43 87 3c 84 b8 95 29 20 59 57 bc
       -0.00787221 0.016511474 6.6489376e-14 -0.013143808
000090 93 8b f8 bb 88 f8 0a 3d ab 79 e8 3c 48 5d 5f 3b
       -0.007584998 0.033928424 0.028378328 0.00340827
0000a0 42 e1 ee 3c fd 0c 34 3d 84 3e 0f 3d 3d 32 7a bc
       0.029160146 0.0439577 0.03497173 -0.015270767
0000b0 d8 40 1c bc 32 9b d6 3c 60 f3 59 3c b2 ac 40 bc
       -0.009536944 0.02619705 0.013302654 -0.011759924
0000c0 76 ce 78 9e 35 ac 2f 3d 05 02 77 bc 7e 15 4b 23
       -1.3171706e-20 0.04288884 -0.015076165 1.1009203e-17
0000d0 93 b7 45 a5 16 6c 52 aa b5 61 dc bc 94 cf 9c 3b
       -1.7149224e-16 -1.8689247e-13 -0.02690206 0.0047854874
0000e0 fb 05 c3 3c a6 fa fc 3c 79 24 e4 19 d7 c6 84 3d
       0.023806563 0.030881237 2.3589379e-23 0.06483238
0000f0 9c 59 ac bc 64 9a 52 3d 4c 25 02 bd 1b 14 15 3d
       -0.021038823 0.05141677 -0.03177385 0.036396127
000100 13 96 e7 ba 0a 1c e8 3c ce 1e 8a 3c e1 46 b9 a5
       -0.0017668627 0.028333683 0.016860392 -3.2140414e-16
000110 69 40 ec 3c f1 1b 5c 3c 60 2b b6 b9 71 bf f0 bc
       0.028839307 0.013434396 -0.00034746062 -0.029388161
000120 9b 02 38 bc fa 52 26 bc dc d0 63 bc 9e 00 dc 3c
       -0.01123109 -0.010151619 -0.013904776 0.026855763
000130 f6 8f c2 3c 53 4c 21 3d aa 6e e0 b9 10 a8 ab bc
       0.023750287 0.03937943 -0.0004280706 -0.020954162
000140 e7 26 99 1b 3a 41 74 3d 43 5a 03 3d 8d 9c aa bc
       2.5336867e-22 0.059632517 0.032068502 -0.020826602
000150 92 b7 f8 3c bd 6d 3f 3b 31 02 a8 25 94 88 42 22
       0.03036097 0.0029209696 2.914484e-16 2.6364207e-18
000160 22 2b c6 bc 92 b7 0a bd 15 44 a7 3c f8 13 bc 3c
       -0.02419049 -0.033866473 0.020418206 0.02295874
000170 2f 53 1b 3d 67 b8 da 23 f8 fb 25 3d 91 7a 0a bc
       0.037921127 2.3713705e-17 0.0405235 -0.008452074
000180 c7 5d f1 bc 86 cf ad 3c 71 39 3d 2a 67 62 c8 bc
       -0.029463662 0.021217119 1.6806501e-13 -0.024460984
000190 7c 22 ad 23 49 56 0d 3d e1 7e 39 3d 36 25 b8 3b
       1.8771302e-17 0.034506116 0.045287017 0.0056196703
0001a0 08 42 84 bc 55 1c 23 3b 91 60 f3 bc 34 ac 0b bc
       -0.016144767 0.0024888713 -0.029709132 -0.008524943
0001b0 23 27 9e 3c d6 f8 ca 3b 3b 4c 34 3a 7e 82 9b ba
       0.019305771 0.0061942143 0.00068778143 -0.0011864451
0001c0 89 6a 33 26 dd c3 42 3b db 2a 67 3c 8c c6 47 3d
       6.224748e-16 0.0029718794 0.014109339 0.048773333
0001d0 db b8 2d bb 54 d5 b8 3c 37 ef 53 3b 9f 53 dd 3b
       -0.0026507888 0.02256266 0.0032338628 0.006754353
0001e0 19 fc b0 3b 20 91 48 bc 72 99 fc 9c 1d 5e 42 9a
       0.005401146 -0.012241632 -1.6715626e-21 -4.0194284e-23
0001f0 cc d6 47 3d 95 b2 ce 3c 90 ac c0 3c 23 b0 b7 3c
       0.04878883 0.025231639 0.023519784 0.022422856
000200 5b 79 c4 3c e3 3b d9 3c 50 be 27 3c 62 44 68 3d
       0.023983648 0.026517814 0.010238245 0.05670584
000210 a9 67 b4 3b 3c 76 e8 ba a0 36 8b 3c 30 e5 fb ba
       0.0055055213 -0.0017735432 0.01699382 -0.0019218083
000220 b3 6b 4b 3d 36 eb 1b bb b0 8f 11 3d dc ad 7d bb
       0.049663257 -0.002379132 0.03553742 -0.0038708365
000230 22 c0 7c 3a af 2b a2 3c 43 f0 00 bd b1 d1 b5 3c
       0.0009641667 0.01979622 -0.03147913 0.022194715
000240 a9 4e e0 3c 7f 75 39 3c b7 83 ff 8f 43 37 e4 3a
       0.027381258 0.011319517 -2.5195676e-29 0.0017411489
000250 cc 3c 15 3d 1b bc 10 3d 52 e4 65 bc cc e0 04 3d
       0.036434934 0.03533564 -0.014031487 0.032440946
000260 7d cb ce bc d5 90 09 92 5b 71 fa bb 3e fe 0a bc
       -0.025243515 -4.3408097e-28 -0.0076429076 -0.008483468
000270 52 52 c1 bc cb 46 bf a6 24 61 03 39 7f d1 56 ba
       -0.023598824 -1.3272476e-15 0.00012529321 -0.00081946695
000280 a5 63 bf bb e7 ef 35 bc 8a 03 c0 bc 62 35 91 3c
       -0.005840736 -0.01110456 -0.023439188 0.01772565
000290 ca 84 a3 bc 61 41 45 bc a4 a0 53 3c a0 a2 3d 3d
       -0.01996078 -0.012039513 0.012916718 0.04629767
0002a0 48 f1 bd bb a9 8d 10 bd 7c 03 1e 3d 8e 4f 62 3d
       -0.005796585 -0.035291348 0.03857754 0.05525165
0002b0 2c ce 12 3d 13 27 8b 3c d0 6a 64 3c 01 a3 1b bb
       0.035841152 0.016986405 0.013941482 -0.002374828
0002c0 1c 9b 09 3d 74 ca 99 3c 21 3b 3f bc 51 ca 02 3d
       0.03359519 0.018773295 -0.011671812 0.031931225
0002d0 1e b7 c7 3c 4f 3f f3 3c e5 34 b6 bc 38 77 31 bc
       0.02437931 0.029693274 -0.022242019 -0.010831647
0002e0 e0 16 ec b9 f3 cc c8 3c 71 7b 4c 3c 4b cf ce 1a
       -0.0004503047 0.02451179 0.012480603 8.55345e-23
0002f0 6f 51 42 3d 2b 8a 81 bc 01 18 a1 3c e7 91 40 3d
       0.047440942 -0.015812954 0.019664766 0.047014143
000300 dd 65 83 3d 56 5d b4 bc 3f 16 62 3d 53 82 02 3d
       0.06415913 -0.022017162 0.055196997 0.031862568
000310 96 a2 58 bb e6 f3 88 3c 8b 47 78 3d cf 2d db bc
       -0.0033055893 0.016717862 0.060615104 -0.026755242
000320 db 0e 64 3d 78 2f c1 bc cd 4a 0c 3d 8f c7 08 3d
       0.05567823 -0.023582205 0.034251023 0.03339344
000330 2c 04 2f bc b8 4b 2d 3d c3 67 d2 bc 81 1b ce 3a
       -0.010682147 0.04230854 -0.025684243 0.001572475
000340 78 75 f7 3c 13 f9 00 3d 79 3c 00 3d 59 f0 88 96
       0.03020738 0.031487536 0.03130767 -2.2123666e-25
000350 83 7c 06 bc 88 a3 13 3d 74 b6 c1 3c ce cf d8 3c
       -0.008208397 0.036044627 0.02364657 0.026466276
000360 93 c5 35 3d 4a 1e 89 bb 67 9b ea 3c 8c 08 57 3d
       0.044377875 -0.004184519 0.028638555 0.052498385
000370 23 3e 33 a9 1d e2 da bc 69 9b b6 bc 84 7a 5b 9b
       -3.979988e-14 -0.026719147 -0.022290902 -1.8154842e-22
000380 d1 e2 8e 3c c9 8c 69 bc 1f f3 ac 3c 7a 01 07 bd
       0.017442139 -0.014254757 0.021112023 -0.032960393
000390 a5 da 83 3a b4 2c 37 3d fc f4 fd bb ed ba eb 3a
       0.0010059668 0.044720367 -0.0077501517 0.0017984785
0003a0 b0 68 fb 38 bf d7 40 3d 14 85 30 3d 94 22 28 3b
       0.00011988112 0.04708075 0.043095663 0.0025655376
0003b0 4f d0 6f 3c 52 1e f7 bc 2c c3 fe bb 59 f4 54 3d
       0.014637067 -0.030165825 -0.007774731 0.05199084
0003c0 00 60 a4 bc 36 45 0d 3d 6b b8 de bb d2 27 f4 3b
       -0.020065308 0.034489833 -0.0067968867 0.007451036
0003d0 de 95 7b 3d 32 48 28 3d 45 fd 73 bc 47 55 77 19
       0.06142222 0.041084476 -0.014891927 1.2786822e-23
0003e0 78 14 c0 bc 01 f9 cd 9b ab 27 3a bc 19 6d 0f 3c
       -0.02344726 -3.407532e-22 -0.011361997 0.008754038
0003f0 8f a1 cf bc 96 61 09 ba 68 68 df bc 97 01 e3 bc
       -0.025345592 -0.00052406767 -0.027271464 -0.027710719

features.0.bias f4 [50]
000000 61 3a 08 3b c4 45 08 bd 53 b9 13 bd a3 31 98 bc
       0.002078675 -0.03326966 -0.03606541 -0.018578356
000010 7c 6f 9f 3d 65 c9 8f bc 74 6a d0 bc 44 8f e4 bc
       0.07784936 -0.017552087 -0.025441386 -0.027900346
000020 0e 58 3e 3c 2a 4d 53 3c b6 fe e1 3d 96 06 b7 3d
       0.011617674 0.012896815 0.110349104 0.08936803
000030 02 55 3b 3d 75 22 a5 bc 78 b4 80 3d d0 e9 e7 3c
       0.045735367 -0.020158032 0.06284422 0.028309733
000040 d1 e9 20 bb 3a 2e f0 3c 73 23 30 bc 49 2e a9 bb
       -0.0024553428 0.029318918 -0.010750639 -0.0051629883
000050 6b 29 e0 3b d4 1c 1d bc 72 53 7b 3c 1f 4f a5 bb
       0.006840875 -0.009589393 0.015339719 -0.0050448324
000060 0f c5 43 3d db 6a 3a 3d 49 39 11 3d 10 fd 88 3d
       0.04779535 0.04551206 0.035455022 0.06688893
000070 3b 7e da 3c 6c 13 b9 3c 99 1c 22 3d 07 2f bb 3d
       0.02667152 0.022592269 0.039578054 0.09139829
000080 ff c2 bf 3c 86 95 3d bd 14 de 32 3d a4 6b 81 bc
       0.023408411 -0.046285175 0.04366882 -0.015798397
000090 88 9a 9d 3d b1 e9 71 3d f8 c9 ae 3b 91 6d 8a b9
       0.0769549 0.059060756 0.005334135 -0.00026403044
0000a0 f7 3e 71 3c c3 4d a4 ba 48 66 1c 3d 91 4a 99 3c
       0.014724485 -0.0012535382 0.03818348 0.018712314
0000b0 b1 83 97 bc 1b e2 33 bd 2e 25 dc 3c 27 2d 89 bc
       -0.018495413 -0.043916803 0.026873197 -0.016745163
0000c0 7f 37 40 3d 21 2f 6c 3d
       0.046927925 0.057662133

head.weight f4 [2, 50]
000000 41 49 53 bd 29 29 15 3c 54 3d 10 3e 6b c1 21 3e
       -0.051583532 0.009104052 0.14085895 0.1579644
000010 97 6e c6 3d 92 38 b9 3c ac da 70 3d cd 82 04 3e
       0.09689062 0.022609983 0.05880229 0.12940522
000020 e7 e5 15 be ca 8c 8d 3c fc 98 f2 3d be 92 e1 bd
       -0.14638482 0.017279048 0.11845586 -0.11014317
000030 4f c3 ae 3d 26 51 24 3d a5 b6 28 be 53 9e 0b 3e
       0.08533346 0.04011645 -0.16475923 0.13634615
000040 9b bf 71 bd 19 06 3d bd df a4 23 3d 93 61 62 bd
       -0.05902062 -0.046148393 0.039952155 -0.055268835
000050 f5 1d 87 bd 04 3e 8a bd 7f 82 57 bd cc c6 8a bd
       -0.06597511 -0.0675011 -0.052614685 -0.06776199
000060 26 f5 49 3c ba d6 b4 3d df 02 fc 3d ab 9b 30 be
       0.012326514 0.08830018 0.12305235 -0.17246883
000070 5b 70 89 3d 17 ad 07 bd 57 71 ab bd 0a cc 1c 3e
       0.06710883 -0.033124056 -0.08371227 0.1531221
000080 42 85 ee bd 72 da 3e bc 36 14 07 3e ee b6 26 3d
       -0.11646511 -0.011648761 0.13191304 0.0407018
000090 57 b6 02 be b2 df 28 bd ea e8 21 3e e0 fb 1c 3d
       -0.1276487 -0.041228957 0.15811506 0.038326144
0000a0 3e ff a6 bd a2 0c 7c 3d 9b 6a d8 bd 2b dd 15 3e
       -0.08154152 0.061535485 -0.105672084 0.1463515
0000b0 d8 da e6 bb 6c 91 2b 3e 8e 05 c4 3d a2 73 51 bd
       -0.007045131 0.16754693 0.09571372 -0.051135667
0000c0 0d 4d d6 3d 53 0f 88 bd 12 3e f8 bd 55 47 9f bd
       0.10463915 -0.06643548 -0.12121214 -0.077772774
0000d0 84 4c 37 3c 9c ef a0 3c a5 c6 1d bd d5 ce 30 bd
       0.011187676 0.019645505 -0.03851952 -0.043166
0000e0 3e 95 31 3e 7d 5b 2b 3e 10 97 7e 3d ce b0 e8 bd
       0.17342088 0.16734119 0.062155783 -0.11361848
0000f0 46 99 9a bd fc 5c b5 3d 64 33 82 bd 5c f3 1e 3e
       -0.07548766 0.08855626 -0.06357458 0.15522522
000100 78 e6 c7 3d 92 d9 26 bd a4 7d fb 3d 0c f3 e7 3d
       0.09760755 -0.040734835 0.122798234 0.113256544
000110 66 7e f4 bd 0e 8e b7 bd 2a db a7 bc ea 41 c1 bc
       -0.11938171 -0.08962642 -0.020490248 -0.023591
000120 4a 69 d4 3d c2 e0 c9 3d 0e 98 fa bd 3b 8f b6 bd
       0.10371645 0.09857322 -0.122360334 -0.08914038
000130 88 d3 73 bd c8 05 5d 3d 8d 07 06 3e 9c 10 fc bd
       -0.059527904 0.05396059 0.13088818 -0.123078555
000140 42 f4 05 bd 7f 16 0a be 14 6b ae 3d 8f 57 c3 bd
       -0.032703646 -0.13485144 0.08516517 -0.09538185
000150 be 23 2b 3e 4a 22 58 3d 59 e7 72 3d 99 9a ae 3d
       0.16712853 0.052767076 0.05930266 0.08525581
000160 c9 4e 23 3e 86 52 d0 bd b6 23 3b 3d 2a 66 b5 3d
       0.15948023 -0.1017199 0.045688353 0.08857377
000170 f5 2f b4 3d 37 57 1c 3e e3 fc 27 bd 36 41 ad 3d
       0.087982096 0.15267645 -0.041012656 0.084597036
000180 bc 37 52 bd ce 44 02 be c7 ab 15 bc ef e4 3a 3e
       -0.051322684 -0.1272156 -0.009135193 0.18251394

head.bias f4 [2]
000000 62 de 10 3e 6d 99 4c 3d
       0.14147332 0.049951006
