trained_models/20220214/compas/adv_debiasing/mlp_sex_seed1_epochs50_bs128_lr0.0005_decay0.0005_adv_lamb0.003_eta0.001_constrainteopp.pt (torch, 82527 bytes, 4 tensors)

features.0.weight f4 [50, 401]
0.08542559 -0.03197503 -0.028930455 0.013868234 -0.10408479 -0.11213137 0.0009386943 0.011120973
-0.0046881596 -0.020489475 0.028059777 -0.012510014 0.027022295 -0.032377902 -0.025800062 -0.026153382
0.027273048 -0.013041665 0.045572482 0.005346972 -0.01661862 -0.03954279 -0.026941583 -0.05517213
-0.012307447 -0.012524509 0.049678087 0.026800685 -0.022286551 0.032203205 0.007998442 0.049131025
0.010648019 -0.031721104 -1.8639941e-13 -0.017660601 0.045003276 0.008094538 0.00042195636 -0.017494157
0.054268904 -0.03913066 0.030802831 -0.012884212 -0.030279813 0.0020902846 -0.018117553 0.012065318
4.206912e-22 -0.0046547684 -0.02213612 -1.5145338e-17 7.850037e-17 -9.596049e-22 0.013058721 0.037438475
-0.028952103 -0.019398721 1.4556292e-16 0.03607071 -0.03261066 0.04721595 0.019074231 0.016203744
-0.036536768 -0.033155758 -0.030454895 7.206831e-23 -0.020251825 -0.05712241 0.010418567 -0.029934831
0.028963977 -0.012433132 0.042785276 -0.003132319 0.0105193425 0.03513052 -0.056379154 0.021484908
-1.3356953e-15 -0.020210745 -0.012394992 -0.014676269 0.03796398 -0.043843754 4.487292e-14 1.2828618e-15
-0.034766212 0.0032621345 0.0079406155 -0.04787827 0.017871749 2.8370952e-22 -0.04432595 -0.017586382
0.029232273 -0.0011170479 -3.898528e-18 -0.03670829 2.2733788e-14 -0.023558185 0.039425768 0.056954592
-0.036049716 -0.021103784 0.06289499 -0.016530458 0.03597174 0.013847565 -0.0039037096 0.012957988
1.8057241e-13 -0.0193622 -0.017364051 0.039077643 0.028887788 0.03473919 -0.050009437 -0.01988992
-0.050390817 -0.011741986 -3.326094e-13 -3.4812744e-16 0.03999091 -0.018330691 -0.021939116 -0.015084798
0.030348763 0.037691496 -0.04410559 0.016266992 0.04732936 0.031072216 0.03154173 0.039852735
0.025351588 -0.0025770485 -0.039525773 -0.05273555 -0.024674388 -0.014150048 -0.037808314 0.02475207
0.0075134533 -0.024378022 7.7521573e-19 0.006151027 0.028741235 0.041857567 -0.041319598 0.043539748
-0.01923944 1.9740174e-29 -0.05783199 -0.019175546 -0.026646929 -4.6543253e-18 0.029070185 -0.03747063
-0.06380249 0.0052885776 -0.004105743 0.027947675 -0.01799188 0.013663401 -0.029669972 -0.028341834
-0.029954234 -0.040118136 -0.034002002 0.036389824 0.0021486264 0.02715907 0.026511995 0.035360266
0.038804293 0.010857451 -0.019625759 0.035246328 -0.021386186 -0.013800939 -0.021206768 -0.014939493
-0.019188376 0.04306941 -0.021234907 3.366164e-15 -0.020553097 -0.0182106 0.011431067 -0.016737781
-0.037473157 -0.0124368565 0.064571805 -0.049369913 0.0016268565 0.041601487 0.06590516 -0.019701729
0.018532138 -0.020070162 0.044627655 -0.01676611 0.025892187 -0.014040619 -0.013771783 -0.013318363
0.0044738012 0.028541902 0.015579537 -1.1888485e-21 -0.021560552 0.018169653 0.059114467 0.039954387
0.039722793 -0.019904198 -0.01660238 0.04499824 4.5097415e-15 0.052645642 -0.020508712 -1.4350652e-15
0.0056478353 -0.037646454 -0.015244874 0.0050655445 0.024795545 0.014925205 0.019511374 -0.020422706
0.017468132 -0.01508953 -0.023938732 -0.0105342 -0.04746674 0.03246731 0.007894941 -0.020573761
-0.039920535 -0.013867261 0.01421108 -0.013289199 -0.037031457 -0.012774413 -0.021936482 -1.5988057e-15
-0.05569574 1.3572317e-14 0.036538772 -0.029216643 -0.018975899 -0.00286867 0.007742261 -0.035083156
00000000: 9df3 ae3d 40f8 02bd 90ff ecbc 9737 633c
00000010: 682a d5bd 22a5 e5bd b512 763a be34 363c
00000020: 229f 99bb 8bd9 a7bc 9edd e53c cdf6 4cbc
00000030: dc5d dd3c b19e 04bd a75a d3bc 9e3f d6bc
00000040: ba6b df3c b5ac 55bc 36aa 3a3d a735 af3b
00000050: c623 88bc 9ff7 21bd 98b4 dcbc 2cfc 61bd
00000060: 2da5 49bc 9933 4dbc 407b 4b3d 1c8d db3c
00000070: 4992 b6bc 82e7 033d e60b 033c 9d3d 493d
00000080: 0775 2e3c fded 01bd f9dd 51aa f7ac 90bc
00000090: 5b55 383d f49e 043c 063a dd39 e84f 8fbc
000000a0: 1249 5e3d 7947 20bd 3856 fc3c 4d18 53bc
000000b0: 5f0d f8bc 28fd 083b 436b 94bc 9dad 453c
000000c0: cf4a fe1b 0787 98bb cf56 b5bc ebb0 8ba3
000000d0: 7102 b524 eb02 919c 3ff4 553c 1659 193d
000000e0: f62c edbc 11ea 9ebc 97d2 2725 e1be 133d
000000f0: c192 05bd 8365 413d 9041 9c3c b7bd 843c
00000100: 94a7 15bd 55ce 07bd 8b7c f9bc 2040 ae1a
00000110: 28e7 a5bc 30f9 69bd a3b2 2a3c e439 f5bc
00000120: dd45 ed3c 56b4 4bbc 9d3f 2f3d 9847 4dbb
00000130: 5259 2c3c 05e5 0f3d d4ed 66bd 1e01 b03c
00000140: 757e c0a6 0191 a5bc 5d14 4bbc bc74 70bc
00000150: 1e80 1b3d 8295 33bd f416 4a29 3fe1 b826
00000160: 0467 0ebd 89c9 553b 5b19 023c 011c 44bd
00000170: c667 923c ec7d ab1b 218f 35bd 5111 90bc
00000180: 8578 ef3c e869 92ba 8ed4 8fa2 6f5b 16bd
00000190: 8cc4 cc28 18fd c0bc ea7c 213d 3849 693d
000001a0: dea8 13bd d8e1 acbc 17cf 803d e26a 87bc
000001b0: 1a57 133d e6e0 623c 61d5 7fbb be4d 543c
000001c0: 744e 4b2a 7a9d 9ebc 0e3f 8ebc e10f 203d
000001d0: 15a6 ec3c ae4a 0e3d b2d6 4cbd 2ff0 a2bc
000001e0: 9a66 4ebd 7561 40bc 113e bbaa 8bae c8a5
000001f0: 82cd 233d 3f2a 96bc a9b9 b3bc 3b26 77bc
00000200: f89d f83c 6662 1a3d 10a8 34bd 5b42 853c
00000210: 6edc 413d 298b fe3c e731 013d 9f3c 233d
00000220: 22ae cf3c b3e3 28bb c7e5 21bd 3b01 58bd
00000230: f121 cabc 9ad5 67bc e4dc 1abd dac4 ca3c
00000240: 6a33 f63b 6bb4 c7bc a5cd 6421 8e8e c93b
00000250: bd72 eb3c d772 2b3d bd3e 29bd bc56 323d
00000260: 089c 9dbc 6c30 c80f 3de1 6cbd 0916 9dbc
00000270: a94a dabc dcb6 aba2 9924 ee3c ce7a 19bd
00000280: e1aa 82bd ce4b ad3b 7889 86bb 86f2 e43c
00000290: b563 93bc 75dc 5f3c 710e f3bc 222d e8bc
000002a0: 9562 f5bc ea52 24bd af45 0bbd 7f0d 153d
000002b0: f8cf 0c3b b37c de3c af2f d93c edd5 103d
000002c0: 40f1 1e3d 73e3 313c 33c6 a0bc 745e 103d
000002d0: 1532 afbc 551d 62bc d1b9 adbc c6c4 74bc
000002e0: f130 9dbc 8d69 303d d4f4 adbc c48e 7227
000002f0: f85e a8bc 652e 95bc 5f49 3b3c ac1d 89bc
00000300: 747d 19bd f5c3 4bbc 393e 843d 1b38 4abd
00000310: 3f3c d53a 5266 2a3d 49f9 863d 8565 a1bc
00000320: b6d0 973c 2e6a a4bc 7dcb 363d 1559 89bc
00000330: da1b d43c a00a 66bc 0ba3 61bc 4335 5abc
00000340: f798 923b b5d0 e93c 5041 7f3c 59a7 b39c
00000350: c19f b0bc 86d8 943c 0322 723d 36a7 233d
00000360: 5eb4 223d 210e a3bc b701 88bc 1350 383d
00000370: 067b a227 f5a2 573d e301 a8bc 90d0 cea6
00000380: 7a11 b93b 2b33 1abd a3c5 79bc defc a53b
00000390: 0720 cb3c d988 743c 51d6 9f3c 854d a7bc
000003a0: 5419 8f3c 133a 77bc 291b c4bc a397 2cbc
000003b0: 7c6c 42bd 71fc 043d c859 013c 4e8a a8bc
000003c0: b783 23bd 8233 63bc 97d5 683c f1ba 59bc
000003d0: 4cae 17bd c64b 51bc 23b4 b3bc 8569 e6a6
000003e0: 3721 64bd 447f 7428 aea9 153d be57 efbc
000003f0: 5873 9bbc 4c00 3cbb cbb2 fd3b 5bb3 0fbd

features.0.bias f4 [50]
0.03071417 -0.022262372 0.047600802 0.018036738 0.00863353 0.03099349 0.09083763 0.06304173
0.027609583 0.038098443 0.047602512 0.08296154 0.0046972283 0.060106922 -0.019694254 0.08886779
0.06218427 0.04762119 0.007925549 0.031517353 0.019096518 -0.035962757 0.038771566 0.044316214
0.045173813 0.013902974 -0.004599824 0.062363338 0.006210499 0.03211387 0.041299094 0.0860073
0.035033945 0.06714028 0.066196606 0.039545342 -0.015395504 0.033643316 0.0200428 0.004881444
0.03614159 0.037468143 0.04150484 0.0682786 0.009593804 0.0019828472 0.046990246 0.05800451
0.08511755 0.046709806
00000000: 489c fb3c 945f b6bc 0ff9 423d c8c1 933c
00000010: a673 0d3c 0fe6 fd3c 1409 ba3d 061c 813d
00000020: 7e2d e23c 1d0d 1c3d dafa 423d bde7 a93d
00000030: 35eb 993b ad32 763d d855 a1bc 5100 b63d
00000040: efb4 7e3d 700e 433d 29da 013c 5718 013d
00000050: 4d70 9c3c af4d 13bd efce 1e3d eb84 353d
00000060: 2d08 393d 4dc9 633c 1fba 96bb b370 7f3d
00000070: 7181 cb3b d589 033d 3d29 293d 9824 b03d
00000080: c17f 0f3d d880 893d 1692 873d 4cfa 213d
00000090: 6d3d 7cbc 93cd 093d cc30 a43c 85f4 9f3b
000000a0: 3409 143d 3278 193d fb00 2a3d a7d5 8b3d
000000b0: 552f 1d3c a8f2 013b d878 403d 2396 6d3d
000000c0: 1c52 ae3d c852 3f3d

head.weight f4 [2, 50]
0.17496659 -0.1255738 0.17800002 -0.009078368 0.13614792 0.14445248 -0.023173276 -0.010849508
-0.07808327 -0.03168448 0.12455551 -0.1294582 -0.1287441 -0.034068 -0.012701438 -0.07515315
-0.055717517 0.12450851 -0.165332 -0.018451164 -0.09362276 0.112544574 -0.017067093 -0.16152684
0.10531568 0.110681176 -0.048389755 -0.008416053 0.025260797 -0.044743408 0.03190186 0.061959364
0.015012118 0.10104384 -0.20159617 -0.09453684 0.0585166 -0.0045752563 0.03505881 0.042764675
0.028877424 0.1729354 0.18054795 0.0016191304 0.12197077 -0.12403166 0.18838917 -0.1834158
-0.17282014 -0.06322964 -0.07436468 0.023175586 -0.039406758 -0.20168164 -0.11107131 0.0010667271
0.16099481 -0.17387192 0.1057879 -0.21551724 -0.13852479 0.044648383 0.026391312 0.056792542
0.04133325 0.13522883 -0.21132745 -0.15464875 0.022818832 -0.21237916 0.095010586 -0.04083884
0.19195734 0.14755902 -0.03676376 -0.05164535 0.10361777 0.1709733 0.1077036 0.15545323
-0.112962484 -0.13375346 -0.14707616 -0.044182636 -0.019012049 0.07437615 -0.16951667 -0.19091406
0.19340141 -0.107781194 -0.14276561 0.027894124 -0.012523123 -0.20502582 -0.1271228 0.13167307
-0.07430764 0.15118441 -0.014009924 0.14412087
00000000: 712a 333e 6b96 00be a345 363e 6fbd 14bc
00000010: 5c6a 0b3e 5aeb 133e e2d5 bdbc 23c2 31bc
00000020: 1fea 9fbd 96c7 01bd f616 ff3d b190 04be
00000030: 7ed5 03be e38a 0bbd b119 50bc e5e9 99bd
00000040: 0d38 64bd 51fe fe3d cb4c 29be e526 97bc
00000050: 4abd bfbd c57d e63d 4ad0 8bbc 4b67 25be
00000060: bfaf d73d d0ac e23d 5634 46bd 7ce3 09bc
00000070: bbef ce3c dd44 37bd 86ab 023d 1ac9 7d3d
00000080: 63f5 753c 13f0 ce3d 3a6f 4ebe 889c c1bd
00000090: 1aaf 6f3d 08ec 95bb d499 0f3d 032a 2f3d
000000a0: 5990 ec3c fa15 313e 90e1 383e 0039 d43a
000000b0: d0cb f93d 5004 febd 17e9 403e 5ad1 3bbe
000000c0: c3f7 30be 8b7e 81bd 824c 98bd bada bd3c
000000d0: fb68 21bd a285 4ebe 5b79 e3bd 6cd1 8b3a
000000e0: d3db 243e 7b0b 32be 54a7 d83d 8db0 5cbe
000000f0: 71d9 0dbe 39e1 363d 9832 d83c 4c9f 683d
00000100: 0e4d 293d 6d79 0a3e 3966 58be 3e5c 1ebe
00000110: 8fee ba3c ec79 59be e994 c23d a146 27bd
00000120: 7790 443e b619 173e 9995 16bd 138a 53bd
00000130: 8e35 d43d a013 2f3e b493 dc3d 222f 1f3e
00000140: e058 e7bd abf6 08be 229b 16be daf8 34bd
00000150: 28bf 9bbc 8652 983d c795 2dbe fa7e 43be
00000160: 050b 463e 63bc dcbd 2631 12be 3882 e43c
00000170: c92d 4dbc 4af2 51be 7b2c 02be 4ed5 063e
00000180: 9b2e 98bd 16d0 1a3e e189 65bc 6c94 133e

head.bias f4 [2]
-0.072775505 -0.06465357
00000000: 530b 95bd 1769 84bd
