trained_models/20220214/compas/adv_debiasing/mlp_sex_seed2_epochs50_bs128_lr0.0005_decay0.0005_adv_lamb0.03_eta0.01_constrainteopp.pt (torch, 82527 bytes, 4 tensors)

features.0.weight f4 [50, 401]
0	0x3d8faeee	0.07015787
1	0xbd6e0cdc	-0.058117732
2	0xbcd7ad5f	-0.026327787
3	0x3c97d318	0.018533275
4	0xbd2f900c	-0.042861983
5	0xbde0339c	-0.10947344
6	0x3d53d68f	0.05171829
7	0xbd5fae4b	-0.054609578
8	0xbd22e28f	-0.039766844
9	0xbd7cb0fd	-0.061692227
10	0x3cca325d	0.024682218
11	0xbbbf6d67	-0.005841899
12	0xbc1469b5	-0.009058406
13	0x3d0097ca	0.031394757
14	0xba10fa42	-0.00055304554
15	0x3c719cd2	0.0147468615
16	0x3d25efe5	0.040511984
17	0xbc5799f8	-0.013159268
18	0xbc8b3883	-0.01699472
19	0x3d195460	0.037433982
20	0xbc8f4591	-0.017489227
21	0xbc6625bf	-0.014047085
22	0xbc60dcdb	-0.013724531
23	0x3cf6da57	0.03013341
24	0x3c408617	0.0117507195
25	0x3cb67dcf	0.022276787
26	0xbc86ff58	-0.01647918
27	0xbd061ec8	-0.0327442
28	0xbc536868	-0.01290331
29	0xbc44bd45	-0.012008016
30	0xbd55d795	-0.05220755
31	0xbc624e0f	-0.013812556
32	0xbb47cd86	-0.0030487492
33	0x3c100364	0.008789871
34	0x92328352	-5.632876e-28
35	0xbc3fc3c8	-0.011704393
36	0x3cef7ae5	0.029233405
37	0x3ab07416	0.0013462331
38	0xbc14b563	-0.009076449
39	0xbc500a7d	-0.012697813
40	0xbc258e37	-0.010104707
41	0xbd2e6e77	-0.042585816
42	0x3c8e74ba	0.017389644
43	0x3d0867a0	0.03330195
44	0xbaa9ee11	-0.0012964626
45	0x3b04491d	0.002018518
46	0x3bc5fc32	0.006042027
47	0xbc168321	-0.009186537
48	0x185ae522	2.8291522e-24
49	0xbb1cb6e3	-0.002391272
50	0x3c045f48	0.008079357
51	0xa66cf835	-8.221533e-16
52	0x2708afed	1.896916e-15
53	0xa5401243	-1.6659533e-16
54	0xbc18c660	-0.00932464
55	0x3c54e0f3	0.012993085
56	0xbcaafc33	-0.020872211
57	0x3bff995e	0.007800265
58	0x965d6a46	-1.7885772e-25
59	0x3d5b3de2	0.053525813
60	0x3d180978	0.037118405
61	0xbce781fa	-0.02826022
62	0x3c8b26fb	0.01698636
63	0x3cc5aac0	0.024129272
64	0x3d207d71	0.03918213
65	0xbc725273	-0.014790165
66	0x3c8adc5a	0.016950775
67	0xaa1daae0	-1.4003685e-13
68	0xbc266d91	-0.010157959
69	0x3c9f2c2c	0.019430242
70	0xbd5ff06c	-0.054672644
71	0x3d9e60a7	0.07733279
72	0xbc63df3a	-0.013908202
73	0x398630ad	0.00025594738
74	0xbc1bb2a3	-0.0095030395
75	0xbb7b4893	-0.0038342818
76	0xbc016c37	-0.007899336
77	0xbc8b2d4d	-0.016989375
78	0xbcabb568	-0.020960525
79	0xbc5f3eef	-0.013625844
80	0xa787f237	-3.7732637e-15
81	0xbc02a396	-0.007973572
82	0xbc90c387	-0.01767136
83	0xbb50c387	-0.0031854825
84	0x3cebb572	0.028773043
85	0xbce1de44	-0.027571805
86	0x9800c194	-1.6641344e-24
87	0x22b98d7b	5.029415e-18
88	0xbd1b674f	-0.03794032
89	0xbcffd75c	-0.031230621
90	0xbc8befbe	-0.017082091
91	0xbd0e52b4	-0.03474684
92	0x3cfb06ed	0.03064295
93	0x16f70e55	3.9914047e-25
94	0x3cfa8fc7	0.030586137
95	0x3d23b2ba	0.03996537
96	0xbcb6646f	-0.022264687
97	0xbc5da5cb	-0.013528298
98	0x25b3c5ce	3.1185588e-16
99	0xbcc84e8a	-0.024451513
100	0x208bc92b	2.3680638e-19
101	0xbc5e5e4c	-0.013572287
102	0xbd609a70	-0.054834783
103	0x3d3ec9ee	0.046579294
104	0x3cbf729f	0.023370085
105	0x3a323164	0.0006797521
106	0x3d3ea771	0.046546403
107	0x3d0ab021	0.033859376
108	0xbc8ffa78	-0.017575487
109	0xbb03b02a	-0.0020094016
110	0x3c9d621f	0.019211827
111	0xbc700c4e	-0.014651371
112	0x227af735	3.4012188e-18
113	0xbbeb82a3	-0.007187204
114	0xbcbf4364	-0.023347564
115	0xbc0eacc8	-0.008708186
116	0xbc99b6f1	-0.018763991
117	0x3d4315a5	0.047628064
118	0xbc82e9c7	-0.015980614
119	0x3c023725	0.007947718
120	0x3cef81b7	0.029236658
121	0x3aa52377	0.001259907
122	0x291134a1	3.2242116e-14
123	0xa73a66c2	-2.586839e-15
124	0x3d20da60	0.03927076
125	0xbc6e9f05	-0.01456428
126	0xbc2d4acd	-0.010576916
127	0x3c246c81	0.010035635
128	0xbc8e9837	-0.017406566
129	0xbd460ed7	-0.048353996
130	0xbd0b41e2	-0.033998378
131	0x3cdaa3ec	0.026689492
132	0xbcb6286e	-0.022236075
133	0xbd544259	-0.051821087
134	0x3ca92c80	0.020651102
135	0x3d13cebc	0.03608583
136	0x3c2590c6	0.010105317
137	0xbc840aa3	-0.016118353
138	0x3d2cccc8	0.042187482
139	0xbc2d08e5	-0.010561203
140	0xbcd0209f	-0.02540618
141	0xbc07bbab	-0.00828449
142	0x3d20a8eb	0.039223593
143	0x3ccf41dd	0.02529996
144	0xbb614423	-0.0034372888
145	0x3cff5f3b	0.03117334
146	0xa8052b30	-7.392348e-15
147	0x3cd42a8d	0.025899196
148	0x3d44c1d7	0.048036423
149	0xbc5ae332	-0.013359832
150	0x3cb46f5c	0.022025757
151	0xbc09b1f0	-0.00840424
152	0xbcc0d62c	-0.023539625
153	0x0e7c7d75	3.1121804e-30
154	0xbccef85b	-0.02526491
155	0xbc83cd3f	-0.01608908
156	0xbcb06dab	-0.021536669
157	0x1027240e	3.2962718e-29
158	0x3d23d165	0.039994616
159	0xb94ecca9	-0.00019721933
160	0xbd37e436	-0.044895373
161	0x3c9e118e	0.01929548
162	0xbba9f4b3	-0.005186641
163	0xbd1f5df4	-0.03890796
164	0xbbc67e7d	-0.006057559
165	0x3cc56265	0.02409477
166	0xbd241b80	-0.04006529
167	0xbc52bd5b	-0.012862529
168	0xbc8fadc0	-0.017538905
169	0xbd1cb758	-0.038260788
170	0xbcf46f55	-0.029838243
171	0x3cc232cc	0.023705862
172	0x3d01b879	0.031670067
173	0x3a94f27c	0.001136377
174	0xbcc8ab60	-0.02449578
175	0xbc42d119	-0.011890673
176	0xbcc476fe	-0.023982521
177	0x3b86616f	0.0041009705
178	0x3ca16e99	0.019706057
179	0x3c92d105	0.017921934
180	0xbc9fcdbb	-0.01950728
181	0xbc148f0d	-0.009067309
182	0x39b0b9d1	0.0003370778
183	0x3caf5178	0.021401152
184	0xbc8b96a9	-0.017039614
185	0xbc56591b	-0.013082768
186	0xbc2cc362	-0.01054463
187	0xa07fb414	-2.1658923e-19
188	0x3d7f6e88	0.06236127
189	0x3b982955	0.004643599
190	0x3c635d20	0.013877183
191	0xbc834adf	-0.016026912
192	0x3d07732c	0.03306882
193	0x3c9d8509	0.019228475
194	0xbcb87166	-0.02251501
195	0xbcf2c482	-0.029634718
196	0xba81b421	-0.0009895602
197	0xbcd26532	-0.02568302
198	0x3d0e6350	0.03476268
199	0x3d31906d	0.043350626
200	0xbc64455b	-0.013932551
201	0xbc5dbcb9	-0.0135337645
202	0xbc37fa31	-0.011229084
203	0xbc83fca3	-0.016111678
204	0xbc31caee	-0.010851605
205	0x3cb011d3	0.021492874
206	0x3cd7bd27	0.026335312
207	0xbc270e54	-0.010196287
208	0xbc73ed01	-0.014888049
209	0xbc3b7fe0	-0.011444062
210	0xbc7f0db7	-0.015567235
211	0x1c97e921	1.0052604e-21
212	0x3c36534c	0.011128258
213	0xbcbd7c6f	-0.023130624
214	0xbd1fe088	-0.03903249
215	0x3cbf03fd	0.023317331
216	0x3c94b47b	0.018152466
217	0xbc250530	-0.010072038
218	0x3cabbe08	0.020964637
219	0x3d4a0f03	0.049330723
220	0x11919490	2.2968525e-28
221	0xbc68e858	-0.014215551
222	0x3d3c7ae3	0.04601563
223	0x2705f10c	1.858813e-15
224	0xbaccfe40	-0.0015639737
225	0xbcb2ad61	-0.02181119
226	0xbc392834	-0.011301089
227	0x3c75d999	0.015005493
228	0x3c385fe2	0.011253329
229	0xbc49e360	-0.012322277
230	0x3c8b9a13	0.017041242
231	0xbac62838	-0.0015118187
232	0xbbba0f0a	-0.0056780623
233	0xbbecf3c2	-0.0072312066
234	0xbc9341d6	-0.017975729
235	0xbbe36f12	-0.006940731
236	0xbcb5c111	-0.022186788
237	0xbcd6884b	-0.026188036
238	0xbc4687f8	-0.012117378
239	0xbc449137	-0.011997513
240	0xbcb67bd7	-0.022275848
241	0x3aec5f62	0.0018033797
242	0xbcc103a9	-0.023561316
243	0xbc8cab65	-0.017171571
244	0x3d9e486b	0.077286564
245	0x3cb8b268	0.022546008
246	0x3d1e0bca	0.03858546
247	0x228f4177	3.882954e-18
248	0xbcf94d1c	-0.030432276
249	0xa5dedfbe	-3.8662475e-16
250	0xbca9c072	-0.020721648
251	0xbc4d450e	-0.012528671
252	0x3d0a8e90	0.033827364
253	0xbc8b599d	-0.017010504
254	0xbd010108	-0.031495124
255	0x3cfbd39a	0.030740548

features.0.bias f4 [50]
0	0xbc0313e0	-0.008000344
1	0x3d4c9186	0.04994347
2	0x3d2d24a4	0.04227127
3	0x3c8d051b	0.017214349
4	0x3d6a0fa3	0.05714382
5	0x3d439491	0.047749106
6	0x3cd6a13f	0.026199935
7	0x3c602273	0.013680088
8	0x3d1528f1	0.036415998
9	0x3d0c9c47	0.034328725
10	0x3d94d157	0.07266491
11	0x3d5bd03c	0.053665385
12	0x3d2e555d	0.042561878
13	0x3d140c17	0.036144342
14	0x3b547c6f	0.00324228
15	0x3d57234d	0.0525239
16	0xbbd6001a	-0.006530774
17	0xbc619b27	-0.013769901
18	0xbd3b6c7e	-0.045757763
19	0x3cf54267	0.02993889
20	0xbb44ba4f	-0.0030018275
21	0x3dc2bd29	0.09508736
22	0x3d6811fa	0.05665777
23	0x3d9ff2a8	0.07809955
24	0x3db77597	0.08957975
25	0x3d40a1f5	0.047029454
26	0x3d841b09	0.06450469
27	0x3dadb48e	0.08481704
28	0x3d41f419	0.04735193
29	0x3d85674f	0.06513845
30	0xbc7b1047	-0.015323705
31	0x3d4a45a6	0.04938283
32	0x3b1516bf	0.0022749153
33	0xbc6624d3	-0.0140468655
34	0x3d7f612c	0.06234853
35	0x3cc77435	0.024347404
36	0x3cf8abaa	0.030355293
37	0x3c0b33a9	0.008496203
38	0x3d07ffb5	0.033202846
39	0x3db4b719	0.088239856
40	0x3d151e5d	0.03640591
41	0x3d80ffae	0.06298767
42	0x3ba94539	0.0051657227
43	0x3d78a717	0.060706224
44	0x3c856d0b	0.016287347
45	0x3b9bbfcf	0.00475309
46	0x3d447c1b	0.04796992
47	0x3cd94703	0.026523119
48	0xbd739200	-0.05946541
49	0x3d8b6f3b	0.06808325

head.weight f4 [2, 50]
0	0x3e326206	0.17420205
1	0x3d4b581e	0.049644582
2	0xbdce40b3	-0.10070934
3	0x3e058410	0.13038659
4	0xbdd1f3ea	-0.10251601
5	0xbdea4716	-0.1143934
6	0x3df9d58b	0.12198933
7	0x3cbbaecf	0.022910504
8	0x3e14d786	0.1453534
9	0xbd9c281d	-0.076248385
10	0x3e052657	0.13002907
11	0x3d4c82df	0.049929496
12	0xbe47889a	-0.19485703
13	0x3e2d9262	0.16950372
14	0x3cac9a77	0.021069748
15	0xbdf0d640	-0.11759615
16	0x3da0b9a9	0.07847912
17	0x3e10354b	0.1408283
18	0x3d0df09f	0.034653302
19	0x3e1b15d4	0.15145046
20	0xbdfc1f15	-0.12310616
21	0xbc05f9a6	-0.008177197
22	0x3e178246	0.14795789
23	0xbe1f0343	-0.15528588
24	0xbce44101	-0.027863028
25	0x3d647a5c	0.055780753
26	0xbe1da9f4	-0.15396863
27	0xbe012b66	-0.12614211
28	0xbe34b02f	-0.17645334
29	0xbd9b5a92	-0.07585634
30	0x3db2af9a	0.087248996
31	0x3e0f1574	0.13973027
32	0x3a941969	0.0011299077
33	0x3c8f0804	0.017459877
34	0xbd8e7375	-0.069556154
35	0x3d8a77fa	0.06761165
36	0xbd290769	-0.041266833
37	0xbe10dadf	-0.14145993
38	0xba46e880	-0.0007587746
39	0x3d655f30	0.05599898
40	0x3d52265c	0.051306114
41	0xbda4045c	-0.08008644
42	0x3e2eec38	0.17082298
43	0xbe390fa3	-0.18072371
44	0xbd8cb2c6	-0.06870036
45	0x3e06eb46	0.13175687
46	0x3d93270c	0.07185182
47	0x3e38acfd	0.1803474
48	0xbdd75b6a	-0.10515483
49	0x3c2577c4	0.010099355
50	0xbdfa3536	-0.122171804
51	0xbe4a5b09	-0.1976129
52	0x3df14825	0.117813386
53	0xbd99e959	-0.07515211
54	0x3d5a79ce	0.05333882
55	0x3db2681f	0.08711266
56	0xbd0dcd1e	-0.034619443
57	0xbe36ef63	-0.17864756
58	0xbd16d043	-0.036819708
59	0x3e027393	0.127394
60	0xbe492997	-0.19644772
61	0xbd4a6b41	-0.04941869
62	0x3dcaa52f	0.098947875
63	0xbd0155a1	-0.031575803
64	0x3e003430	0.12519908
65	0x3e223db6	0.15843853
66	0xbdcc2f9c	-0.09970018
67	0xbde8bf65	-0.113646306
68	0xbe38a72e	-0.18032524
69	0xbd9955b8	-0.07487053
70	0x3c552d22	0.013011249
71	0x3e3928c8	0.18081963
72	0xbb8df24e	-0.0043318635
73	0x3d3a8c7a	0.045544125
74	0xbe4a80a3	-0.19775634
75	0xbdb79562	-0.089640394
76	0x3dd21b76	0.10259144
77	0x3d66229f	0.05618536
78	0x3dc2fe5f	0.09521174
79	0x3e3570b0	0.17718768
80	0xbdf01a09	-0.11723716
81	0xbd006396	-0.031344973
82	0x3dcea2e9	0.100896664
83	0xbdcf14d8	-0.101113975
84	0x3d8fe7ac	0.0702661
85	0xbe095b3a	-0.13413706
86	0x3e0027ac	0.12515134
87	0x3e038559	0.12843837
88	0x3e33ab38	0.17545784
89	0xbe071c57	-0.13194405
90	0x3e35da73	0.17759113
91	0x3d611c24	0.054958478
92	0xbe50f00a	-0.20404068
93	0x3e08a4f4	0.13344175
94	0x3da6f608	0.081523955
95	0xbe1ebe57	-0.15502296
96	0xbe1e3ccf	-0.15452884
97	0xbcfe51a6	-0.031044792
98	0x3c74025b	0.01489314
99	0xbe123a21	-0.14279987

head.bias f4 [2]
0	0x3da041d7	0.07825058
1	0xbce62b07	-0.028096689
