trained_models/20220214/compas/reweighting/mlp_sex_seed3_epochs5_bs128_lr0.0001_decay0.0005_constrainteo_eta20.0_iter10.pt (torch, 82527 bytes, 4 tensors)

features.0.weight f4 [50, 401]
00000000: a511 06be b33c 83bd 1fdd dc3c 43e6 06bd
00000010: a49e 2f3d bcec d13d ba52 1a3d 297b e9bc
00000020: 813e cd3c c838 643d 4fb7 d1bc 5823 333a
00000030: b47a 99bb d1cb 3fbc 49b9 08bd be2c 2cbc
00000040: 0ff7 cdbb 69c9 4a3c 73db 573c a647 c53c
00000050: e953 e9ba 6db6 60bc 94c5 8cbb 8e86 31bd
00000060: bf1b 00bd 7cfe 70bb 7172 aebc 2af7 daba
00000070: 3856 74bb 0cc7 74bb f0a4 04bd 9500 4f3a
00000080: 6638 73bb 51dc d6bb 01cb bab2 564c 6fbb
00000090: e169 6ebb e776 16bd 351d 6fbb 79fe 393c
000000a0: 8537 6ebb 4e9e 0dbc b00b f43a 76db f9bb
000000b0: 79fb 2f3d e8db 04bb 1b3c 72bb 3f92 eebb
000000c0: c827 0080 265d 353d 5d14 153d 645f 128f
000000d0: 3e18 0080 a10d 1933 40dc 353d 26d1 3a3c
000000e0: 28c0 57bc 6a40 3f3d 6e22 bf12 37e9 cabb
000000f0: 36eb 033d 3db8 02bc c31e 2fbc fb81 b8bc
00000100: 4b4f 4dbc 38ae c5bc 82ab 443b b529 75ae
00000110: 85c7 e4ba 9a66 673c 2e7e cd3a 5c6b 3abc
00000120: 8590 c3bb ac08 753c 18e8 313b 5652 e83c
00000130: 02a6 613b cef9 463c b0d4 453c dcb2 993b
00000140: 7d16 a1b2 9f9e 78bb 6bce 7abb 8813 c03c
00000150: 495c 343a 465c a5bc 67ac 1b0e 60fa 13b3
00000160: 2711 ecbc b2f9 a1bc 0a1c a4bc 9acf 2f3c
00000170: 2f25 6dbc 13bf f434 05fd 1dbc 68e8 1abb
00000180: 579a cebb 9027 273d 041f 0080 014c a7bc
00000190: 3f0d 0080 a99f c63c 63d2 b3bc 4c5b 18bd
000001a0: e085 76bb 0eaf 6ebb 5137 cabb 8b62 cabb
000001b0: 16f8 8a3b 4691 94bc 4748 213d 328e 2c3d
000001c0: 43f3 2dac c1ca d23b 563b 0cbc 8fdb 77bb
000001d0: 5138 953c 7dea a23b f5b7 36bc 98cc 3f3d
000001e0: f0b0 953c edf3 7fbb 0910 b2b3 a5b9 881a
000001f0: e0ef 8ebb b50c 6fbb 7a45 05bb 91aa a93c
00000200: 8d5d 6ebb 0e20 10bc 8fd5 003d d8db 6fbb
00000210: 29f8 983c 30c9 03bd 6eb8 50bd b2f1 04bc
00000220: 99c7 db3c 1499 233d 19e1 56bc 8f6e 95bc
00000230: 799a dabb 9025 cd3c e428 19bc 033e b0ba
00000240: ddfc 26bc 5f89 07bc 9a09 0000 92b8 38bc
00000250: 395e d338 d81f 593c 573a 8dbb 0c28 453c
00000260: f632 a03b c958 f734 9a69 763d 2a59 78bb
00000270: 2cfa 583b 8b59 0080 5e9d 243c fcf2 c6bc
00000280: 4ec2 40bd d412 e3ba 7779 0e3d 688c 883c
00000290: 2587 77bb 8b8c 35bd 7d4a 803d f1d5 3fbc
000002a0: df7f a73b 24b5 253c bd71 dc3b 65c6 74bb
000002b0: 30e0 55bc 0801 bb3c 000f da3c 3399 dc3c
000002c0: a1aa cbbb 9117 d83b 1db9 1a3d 0c7e cbbb
000002d0: f8a2 333d 4bbe 4abb b0c6 393d 2679 463b
000002e0: 6196 a33c 8cf6 d8ba 46fb 0e3d 9a74 0d2b
000002f0: 281e 13bc 660d 8b3c 3699 203d 1ccd 72bb
00000300: b1b1 77bc 6cdc 3cbb c135 c9bb 161c 073d
00000310: b0f8 893c 3a10 513c 06fb cabb 4cda 4a3c
00000320: 29ac 71bb 7ff5 b637 f52b 993b 949f 793d
00000330: 4e0c 483d 79d2 92bc 4685 423a ad77 73bb
00000340: d9a5 a33c d2d5 70bb 9723 72bb 60ef c2ac
00000350: 6b9d 3a3c 0fa7 ad3c a338 b7bc 0c19 74bb
00000360: e1f7 7bbb b6b7 143c 6d9e 6fbb 17f6 083a
00000370: 3df4 79aa f320 7bbb 8fef 64bb 6576 4a2c
00000380: b6cb 173d ff54 0fbc f46a 6ebb 10ad 253d
00000390: 8e7e 303d 989a 78bb dec3 a13a 662f 443d
000003a0: 1959 833d cb4b 5a3d 41e5 dfbb cb92 7c3d
000003b0: 8f1c 9cbc caf3 403c 5b06 e43c 051f c5ba
000003c0: d367 153d f21b 2d3d 7d49 4dbb da59 6ebb
000003d0: 2628 a5bb 1f16 933b 21f0 2ebb 29b5 3d2b
000003e0: d37a a33d 7908 0000 b7e4 233d cb4f 043d
000003f0: a41b 92bb c0de 78bb 42ec 44bb 38e9 52bc
-0.13092668 -0.06408062 0.026960908 -0.03293444 0.0428759 0.102502316 0.03767655 -0.02850111
0.025054218 0.055718213 -0.025600104 0.0006833575 -0.004683817 -0.011706308 -0.033379827 -0.010508714
-0.006285555 0.0123771215 0.013174879 0.024082016 -0.0017801496 -0.013715369 -0.004296014 -0.043341212
-0.03127646 -0.0036772778 -0.021294804 -0.0016705741 -0.0037282836 -0.0037350086 -0.03238386 0.000789651
-0.0037112474 -0.0065570255 -2.1745565e-08 -0.0036514006 -0.0036379027 -0.036734488 -0.0036485915 0.011352175
-0.003634901 -0.0086437 0.0018619206 -0.0076250387 0.042964432 -0.0020272676 -0.0036962095 -0.0072806175
-1.4271e-41 0.044278286 0.036396373 -7.216727e-30 -8.696e-42 3.5635484e-08 0.0443995 0.011402404
-0.013168372 0.04669229 1.2062282e-27 -0.006192352 0.032206737 -0.007978496 -0.0106884865 -0.022522917
-0.012531112 -0.024130926 0.0030009453 -5.5743594e-11 -0.0017454481 0.014123583 0.0015677863 -0.0113781355
-0.005968156 0.014955681 0.0027146395 0.028359573 0.0034431224 0.012144519 0.012074634 0.004690511
-1.8753093e-08 -0.0037936342 -0.0038270007 0.023446813 0.00068802066 -0.020185601 1.9188234e-30 -3.445382e-08
-0.028816773 -0.019772384 -0.020032901 0.010730648 -0.014474197 4.5587566e-07 -0.009642844 -0.002363706
-0.00630502 0.040809214 -1.1126e-41 -0.020421984 -4.752e-42 0.024246054 -0.021950906 -0.037196442
-0.0037616417 -0.0036420259 -0.006171145 -0.006176298 0.004241 -0.018135678 0.03937557 0.042127796
-2.4719816e-12 0.0064328616 -0.008559069 -0.0037820076 0.01821533 0.004971801 -0.011152257 0.046825975
0.018272847 -0.0039055303 -8.291688e-08 5.6548207e-23 -0.0043620914 -0.003647608 -0.00203356 0.020711215
-0.0036371679 -0.008796705 0.031453665 -0.0036599543 0.01867302 -0.03217429 -0.050957136 -0.008114265
0.026828574 0.03994091 -0.013115191 -0.018241195 -0.0066712466 0.025042325 -0.009348128 -0.0013446215
-0.010192123 -0.008272498 3.444e-42 -0.011274474 0.000100788144 0.013252221 -0.004309933 0.012033474
0.0048888875 4.6071935e-07 0.060159303 -0.0037894943 0.0033108098 -3.2122e-41 0.010047285 -0.024285786
-0.047060303 -0.0017324337 0.034783807 0.016668513 -0.0037769761 -0.044323485 0.062642075 -0.011708722
0.005111679 0.010113988 0.006727426 -0.0037349698 -0.013053939 0.02282764 0.02661848 0.02692852
-0.006215409 0.006594606 0.037774194 -0.0062100943 0.04385659 -0.0030936177 0.0453555 0.0030284612
0.019969167 -0.0016552969 0.0349076 5.025508e-13 -0.008979358 0.016974162 0.039208613 -0.0037048524
-0.0151180485 -0.0028817905 -0.006140441 0.03298577 0.016842216 0.012760216 -0.006194475 0.012381148
-0.0036876297 2.1810409e-05 0.0046744295 0.0609432 0.04883986 -0.017922627 0.0007420372 -0.003715019
0.019976543 -0.003674854 -0.0036947483 -5.5403876e-12 0.01139007 0.021197824 -0.022365874 -0.0037246374
-0.0038447308 0.009077003 -0.0036562935 0.00052246585 -2.220038e-13 -0.00383192 -0.0034932827 2.8771649e-12
0.03705951 -0.008748292 -0.0036379667 0.04044825 0.043089442 -0.0037933942 0.0012341698 0.047896765
0.064134784 0.053294938 -0.006832749 0.06166343 -0.019056587 0.011776874 0.027835062 -0.0015039152
0.036475968 0.04226298 -0.003132432 -0.0036369474 -0.0050401865 0.004488721 -0.002669342 6.73977e-13
0.07982411 3.04e-42 0.04001304 0.03230266 -0.0044588614 -0.0037974566 -0.0030048047 -0.0128729865

features.0.bias f4 [50]
00000000: 7e42 493c da15 1cbc 02d2 883d 2370 b8bb
00000010: 4ee6 783b 7770 043c 9790 333d ed40 723d
00000020: 8612 13bd 912d 883c 0a08 583c 3c26 9b3c
00000030: 7b26 843d 810d 923d b919 543d 3693 08bc
00000040: 3376 fb3c 4f9b a93c e97b 873d 614b aa3b
00000050: a0e9 b03d 85ff 313d 7717 8f3d 41b6 033d
00000060: 5732 353d 5a13 673d d95a 113d 169e 2b3d
00000070: babb 8f3d f3d6 8e3d e34a 873c 72c7 283d
00000080: 03d3 8b3d fe70 10bd 4137 863d 7164 5e3c
00000090: 80cf 2f3b 818b 393d 70c3 893c 980f a03c
000000a0: ca2c 883d 3856 853d dc00 fe3c cbbd 5d3d
000000b0: 82e0 fc3a 60b1 313d 902d ca3c 74b5 c13c
000000c0: a645 8f3d 8a09 c2ba
0.012283919 -0.009526694 0.06680681 -0.005628602 0.003797907 0.008083454 0.043839063 0.05914395
-0.035906337 0.01662329 0.01318551 0.01893913 0.06452652 0.07131482 0.051782344 -0.008335879
0.03069601 0.02070394 0.06615431 0.005196974 0.086383104 0.043456573 0.069868974 0.032156233
0.04423746 0.05641494 0.03548703 0.04189881 0.07018228 0.06974592 0.016515201 0.04120583
0.06827357 -0.035264008 0.065535076 0.013573752 0.002682656 0.045299057 0.016816825 0.019538686
0.06649168 0.065105855 0.03100627 0.05413608 0.0019292983 0.04338205 0.024679929 0.023646094
0.06995706 -0.0014803868

head.weight f4 [2, 50]
00000000: 9b1a 08be b23c 1f3e 8deb 083d d701 dbbd
00000010: c1f0 67bc c95f 113e 2581 c4bd b000 0b3e
00000020: 71df 28be 60d0 54bd a1dd 073e 1374 30be
00000030: cdc7 edbd 5b74 193e 23de 13bc 22d8 b8bd
00000040: d97f e3bd b273 173e c4cd 1abe 5372 153e
00000050: 6c72 24bd 2648 42be aaa9 40be 93fb 813d
00000060: 6813 9bbc d3d1 cd3d 2e06 85bc 602e dfbc
00000070: 2c0f 13bc f470 9bbd fc1a 9c3d 4a76 a83d
00000080: 8157 103e 74d1 1dbe 5448 273e 620e bc3d
00000090: 3b8f f13d a435 163e a411 bf3d b54a 39be
000000a0: 2380 db3c 30d3 31be d032 c73d 2f7b a83d
000000b0: 446a 2e3d 9231 013e 062c e1b9 d78e ac3d
000000c0: d5b6 1cbe 9afd 35bd 5e57 a53c 5420 01be
000000d0: 13d4 553e 285e 4d3d 786a 2cbe b3db 33be
000000e0: e372 ef3d b6b7 b8bd 391a 013c b622 ad3d
000000f0: cb44 28bc 1469 033e 853f 143d 5c30 1fbd
00000100: bb43 3e3e 14ac a53d 1931 6c3d c222 edbd
00000110: 34dc 8e3d d005 403d 6777 123e 1919 113c
00000120: 85ac 043d 66cb d5bd afb3 063e 770a 3bbe
00000130: 96e0 27be 4e9f 0d3e 4f56 2c3e 82f0 33be
00000140: 086f 26be 80a3 84bd b4d5 1fbe b901 e83d
00000150: 2336 013c 1df7 08be 1390 febc 45d6 05be
00000160: 9cf1 43bd 096a db3d 66d9 28be ff95 353d
00000170: ac99 afbd 8ee7 0ebe cafc 20bd 789e bebd
00000180: 8732 b1bd 2361 26be 7c29 e9ba fb4b cf3d
-0.13291399 0.15550497 0.033427764 -0.1069371 -0.014156521 0.14196695 -0.09594945 0.13574481
-0.16491486 -0.051956534 0.13268138 -0.17231779 -0.116103746 0.14985792 -0.0090251295 -0.09025599
-0.111083694 0.14790228 -0.15117556 0.14594392 -0.040148184 -0.18972835 -0.18814722 0.06346812
-0.018930152 0.100497864 -0.016238298 -0.027243793 -0.008975785 -0.075899035 0.07622334 0.08225687
0.1409588 -0.15411931 0.16336185 0.09182431 0.11794897 0.146689 0.093295366 -0.18094905
0.026794499 -0.17365718 0.097264886 0.082266204 0.04258181 0.12616566 -0.00042948144 0.08425682
-0.1530412 -0.044431306 0.020183261 -0.12609988 0.20881681 0.050138623 -0.1683749 -0.17564277
0.11691835 -0.09019415 0.007879787 0.08453886 -0.010270308 0.12833053 0.03619339 -0.03886448
0.18580525 0.08089462 0.05766401 -0.11578895 0.06975594 0.046880543 0.14303361 0.008856081
0.03239109 -0.10439186 0.13154481 -0.18265711 -0.16394266 0.13830301 0.16829799 -0.17572215
-0.16253293 -0.06476498 -0.15608865 0.113284536 0.007886442 -0.13375516 -0.03107456 -0.13070019
-0.04783784 0.10713584 -0.16489181 0.0443325 -0.085742325 -0.13955519 -0.03930358 -0.09307569
-0.086522155 -0.16247992 -0.0017788853 0.10121914

head.bias f4 [2]
00000000: d420 fdbb e8c5 a23d
-0.0077248607 0.07947904
