trained_models/20220214/compas/reweighting/mlp_sex_seed4_epochs5_bs128_lr0.0003_decay0.0005_constrainteo_eta0.1_iter10.pt (torch, 82527 bytes, 4 tensors)

features.0.weight f4 [50, 401]
0.052470867 -0.056833684 -0.0921048 -0.11425001 -0.13855106 -0.2828433 0.006714828 0.053493403
0.03205495 0.011467869 0.014629058 0.013026761 0.04964068 -0.0028824762 0.010329465 0.02538106
0.043076083 0.012381477 -0.006763901 0.009048843 0.0123236915 0.0028223665 0.055927068 -0.012401137
0.046483383 0.0129356915 0.050019745 0.02348465 0.00527125 0.010227995 0.011723998 0.025596729
0.0003872418 -0.0008078277 2.0678174e-37 0.011179868 0.010989091 0.02904848 0.0030677863 0.0026466642
0.013814614 0.03734824 0.032623127 0.004846652 0.00018282073 0.005486056 0.0035893607 0.019886823
7.491e-42 0.044487905 0.0012124907 -1.76e-42 1.2299e-41 -2.1282656e-36 -0.0016485166 -0.008417916
0.032366645 -0.0012231917 -3.805e-42 0.04251184 0.0098404875 0.036498893 0.004259039 0.016592978
-0.009644695 0.01882815 0.01134534 1.4942e-41 0.011725676 0.017235732 -0.023578903 0.004905797
0.008798943 0.0048472257 0.014485419 0.004381304 0.027789805 0.023087788 -0.009434437 0.012885249
-2.184e-41 0.026403518 0.019051468 -0.0025055516 0.010200377 0.012140572 -5.518e-42 8.723e-42
-0.012318073 -0.005134617 0.016692333 0.03316746 0.034835033 -1.136e-41 0.04770875 0.009927993
0.0129762115 -0.0010924555 3.7344503e-36 -0.00053316774 -1.6224e-41 0.038962897 0.04654022 0.001573407
-0.012596486 -0.0015329309 0.016871974 0.0027049694 0.010778102 -0.005713738 -0.0006242948 -0.0012158239
6.3606e-41 0.0048478395 0.006643061 0.027921218 0.016828556 0.014977582 0.027122477 -0.0018877415
0.013716143 -0.0010413107 -1.2986e-41 -2.381e-41 0.030109307 0.011971843 0.012295007 -0.0009438195
0.014402099 0.006762312 -0.0014801669 0.032587826 -0.0055121905 -0.04295965 0.041641444 -0.014927187
0.030009473 -0.0009350985 0.008961071 -0.022131125 -0.0075249625 -9.680918e-05 0.0029368252 0.013992219
0.0152239 0.018091774 -6.5372e-41 0.00023575641 0.020393753 0.03383279 0.009414486 0.019279525
0.0027984073 5.035e-42 -0.011925852 0.013857616 0.020366322 -1.21609e-40 -0.0064743883 -0.010063321
0.021968832 -0.016995443 -0.002406812 0.019921651 -0.0016267621 -0.049263407 -0.02954771 0.03694474
0.015879378 -0.009639075 0.032505296 0.03865276 0.020413928 -0.044253707 0.0043421797 -0.005478704
0.020324817 0.011866442 -0.0010114759 0.036135633 0.017749013 0.010833651 -0.00017162527 0.014258645
-0.0032912039 0.011369565 -0.004316077 -2.1587e-41 0.032827586 0.0048465617 0.00033448348 0.031560216
0.039089806 0.010386495 0.040710032 0.032254506 0.0038136684 0.017368397 0.04004591 0.012423466
0.041259006 0.012762718 0.019811802 -0.00037103373 -0.009065276 -0.012673367 0.012463006 0.00484786
0.03218611 0.018685263 0.022028584 3.693e-41 0.013124325 0.031231303 0.030022813 0.013361381
0.026687225 0.00484763 0.004847853 0.019556679 -6.8843243e-38 0.011877538 0.010801977 -3.146e-42
0.026966354 0.0001240812 -0.00039043702 -0.025701912 -0.0015512403 0.0008177441 -0.04343395 -0.0009084586
-0.0063722124 0.006963621 0.037184816 0.0016051986 -0.009246743 -0.010931951 -0.0008767878 0.016709676
6.1448314e-05 0.0023415303 0.01140163 -5.2804175e-05 0.051325046 0.01609262 0.01451586 2.5693e-41
-0.018976709 -2.232e-41 0.009860607 0.014540961 0.01798222 -0.0023536994 0.011042911 0.034077916
00000000: b1eb 563d 70ca 68bd 71a1 bcbd e9fb e9bd
00000010: 54e0 0dbe d6d0 90be 0f08 dc3b e61b 5b3d
00000020: 0d4c 033d bbe3 3b3c b7ae 6f3c 326e 553c
00000030: 0754 4b3d ede7 3cbb eb3c 293c f1eb cf3c
00000040: 8c70 303d aedb 4a3c b7a3 ddbb 9941 143c
00000050: 4fe9 493c 74f7 383b c813 653d 232e 4bbc
00000060: 5c65 3e3d 39f0 533c 81e1 4c3d e162 c03c
00000070: 73ba ac3b 5293 273c 0316 403c 3bb0 d13c
00000080: b706 cb39 66c4 53ba 76ba 8c02 c42b 373c
00000090: 970b 343c 14f7 ed3c ea0c 493b a873 2d3b
000000a0: b156 623c 78fa 183d d49f 053d aad0 9e3b
000000b0: 91b3 3f39 60c4 b33b 7b3b 6b3b b1e9 a23c
000000c0: e214 0000 f338 363d 70ec 9e3a e804 0080
000000d0: 4922 0000 850d 3584 0a13 d8ba 4ceb 09bc
000000e0: e392 043d 8153 a0ba 9b0a 0080 e520 2e3d
000000f0: ff39 213c dd7f 153d 698f 8b3b ffed 873c
00000100: c804 1ebc 7e3d 9a3c cee1 393c a729 0000
00000110: 0d1d 403c f331 8d3c 8b28 c1bc cfc0 a03b
00000120: 7129 103c 7ad5 9e3b 4054 6d3c 0b91 8f3b
00000130: 72a7 e33c 9a22 bd3c e692 1abc a71c 533c
00000140: e23c 0080 314c d83c d311 9c3c 2e34 24bb
00000150: 7b1f 273c 40e9 463c 620f 0080 5118 0000
00000160: bed1 49bc 4a40 a8bb 5cbe 883c 9ada 073d
00000170: 2eaf 0e3d ab1f 0080 406a 433d 05a9 223c
00000180: 2d9a 543c b930 8fba 90d8 9e04 48c4 0bba
00000190: 3a2d 0080 8f97 1f3d f5a0 3e3d c73a ce3a
000001a0: 7e61 4ebc a0ec c8ba 1837 8a3c db45 313b
000001b0: a396 303c 4f3a bbbb b7a7 23ba 485c 9fba
000001c0: 4fb1 0000 a0da 9e3b 09ae d93b 0abb e43c
000001d0: 0adc 893c 8864 753c f52f de3c 186e f7ba
000001e0: acb9 603c 977c 88ba 3324 0080 5f42 0080
000001f0: cba7 f63c 8d25 443c ff70 493c a86a 77ba
00000200: c8f6 6b3c 6296 dd3b 2902 c2ba d07a 053d
00000210: 9b9f b4bb 75f6 2fbd 3890 2a3d 2991 74bc
00000220: 6dd6 f53c 6621 75ba 75d1 123c 554c b5bc
00000230: f693 f6bb 0806 cbb8 c077 403b 9f3f 653c
00000240: aa6d 793c 3335 943c 3bb6 0080 6135 7739
00000250: cd10 a73c 4094 0a3d 373f 1a3c 18f0 9d3c
00000260: 7c65 373b 090e 0000 a664 43bc 0e0b 633c
00000270: 46d7 a63c ff52 0180 1b27 d4bb a1e0 24bc
00000280: fbf7 b33c 073a 8bbc 9bbb 1dbb bb32 a33c
00000290: 1439 d5ba 6dc8 49bd 0a0e f2bc 5e53 173d
000002a0: 7815 823c 36ed 1dbc 4624 053d 5b52 1e3d
000002b0: 1c3b a73c 6043 35bd d848 8e3b b386 b3bb
000002c0: 3b80 a63c 776b 423c 8093 84ba f502 143d
000002d0: 6166 913c a07f 313c 4ff6 33b9 179d 693c
000002e0: 3db1 57bb 6947 3a3c e16d 8dbb 2d3c 0080
000002f0: 3876 063d e8cf 9e3b 9d5d af39 4945 013d
00000300: a21c 203d 1e2c 2a3c 90bf 263d 4d1d 043d
00000310: bdee 793b 2b48 8e3c 2e07 243d cb8b 4b3c
00000320: 34ff 283d b81a 513c 5c4c a23c 4e87 c2b9
00000330: 8686 14bc f4a3 4fbc a331 4c3c ccda 9e3b
00000340: 95d5 033d d611 993c 4a75 b43c f266 0000
00000350: 6907 573c cad8 ff3c 67f2 f53c b2e9 5a3c
00000360: 2b9f da3c ded8 9e3b bdda 9e3b 5435 a03c
00000370: bd68 bb81 019a 423c c6fa 303c c508 0080
00000380: 8be8 dc3c cb1b 0239 92b3 ccb9 d18c d2bc
00000390: fd52 cbba e15d 563a cce7 31bd a025 6eba
000003a0: fecd d0bb 162f e43b 1b4f 183d 8765 d23a
000003b0: a77f 17bc ed1b 33bc 3cd8 65ba bbe2 883c
000003c0: d0dd 8038 5c74 193b e7cd 3a3c 0d7a 5db8
000003d0: 363a 523d acd4 833c eed3 6d3c 9f47 0000
000003e0: 0b75 9bbc 383e 0080 628e 213c 363d 6e3c
000003f0: 734f 933c 8640 1abb 53ed 343c 4995 0b3d

features.0.bias f4 [50]
0.05426634 0.0059822644 0.0039813737 0.021054292 0.049097218 0.030029962 0.00325466 0.00209501
0.018979626 0.05630583 0.092662975 0.10615714 0.025157234 0.026489958 0.04955859 -0.00051990774
0.031055635 0.06432279 0.046347655 0.067680225 0.01501084 0.06167229 0.03669381 -0.019034952
0.06647109 0.053105406 0.005045735 0.08950718 0.07277134 0.052729614 0.050086375 0.07527755
0.026107473 0.0018273765 0.10212926 0.048407566 0.05067433 0.07349353 0.026230728 0.013264683
0.030295638 0.012492859 -0.0015316426 0.07650592 0.028151372 0.0027389815 0.029894527 0.021910558
0.027198065 0.09784136
00000000: 6246 5e3d df06 c43b 2f76 823b 0d7a ac3c
00000010: 2a1a 493d 6501 f63c 224c 553b 6f4c 093b
00000020: 297b 9b3c f1a0 663d 16c6 bd3d ea68 d93d
00000030: 8b16 ce3c 7801 d93c f3fd 4a3d 6b4a 08ba
00000040: 6368 fe3c abbb 833d 0ad7 3d3d ee9b 8a3d
00000050: 07f0 753c 159c 7c3d 404c 163d 30ef 9bbc
00000060: ff21 883d 0e85 593d b156 a53b 8a4f b73d
00000070: 2409 953d 02fb 573d 5f27 4d3d 1e2b 9a3d
00000080: 57df d53c 9584 ef3a 2529 d13d 0347 463d
00000090: e38f 4f3d c783 963d d3e1 d63c 1d54 593c
000000a0: 8f2e f83c d9ae 4c3c 66c1 c8ba 23af 9c3d
000000b0: b59d e63c 7c80 333b 5ee5 f43c c57d b33c
000000c0: 7ace de3c 0d61 c83d

head.weight f4 [2, 50]
0.051688854 0.04523692 0.21074452 0.21950759 0.13216124 0.11319417 -0.060027234 -0.019567898
-0.17525063 0.07663827 0.16943401 -0.13188885 0.10435108 -0.041890204 -0.16078629 0.1681166
-0.0935938 -0.11182947 0.14898412 0.038009122 -0.100920126 -0.15052497 -0.13509849 -0.12955907
0.056078475 0.11412678 0.17618625 -0.1888119 -0.040428165 0.03543318 -0.14581075 0.1758341
-0.11122356 0.066392794 -0.009792722 -0.0779097 -0.17610432 -0.09619205 -0.044430837 0.08558298
-0.10308819 -0.05766906 -0.10540654 0.26013437 0.09786911 0.22548002 0.1134553 0.050717633
0.14623226 -0.12682989 -0.21906361 -0.12921087 -0.065608256 -0.08348924 -0.123568736 -0.16901365
0.2266526 0.2640029 0.07114437 -0.19765799 -0.14720076 0.109378465 -0.1053631 0.1984336
0.094017394 -0.10384822 0.11783721 0.15546487 -0.23929127 -0.20905028 0.0025235582 0.04692067
0.14564402 0.11098554 -0.15215832 -0.15735544 -0.15132561 0.07306509 0.19016933 -0.20658556
0.04045824 -0.16657704 0.053260174 -0.18195325 0.25813195 0.15679683 0.116932005 0.12363417
0.3051996 -0.14299498 0.0585887 0.16815302 0.06493967 -0.016163511 -0.15918928 -0.01065403
-0.14967059 -0.21441245 -0.06983791 0.18858612
00000000: b1b7 533d 594a 393d 69cd 573e 99c6 603e
00000010: 4755 073e 58d2 e73d 1edf 75bd db4c a0bc
00000020: e774 33be 86f4 9c3d 1c80 2d3e df0d 07be
00000030: 05b6 d53d 1095 2bbd 29a5 24be c226 2c3e
00000040: 1bae bfbd d906 e5bd 4b8f 183e 74af 1b3d
00000050: 36af cebd 3823 1abe 4257 0abe 22ab 04be
00000060: 8bb2 653d 4dbb e93d 2b6a 343e e857 41be
00000070: 0198 25bd 6222 113d 6a4f 15be db0d 343e
00000080: 2ec9 e3bd f2f8 873d a771 20bc 1f8f 9fbd
00000090: b154 34be 5600 c5bd 1cfd 35bd 2146 af3d
000000a0: e71f d3bd 6436 6cbd 62df d7bd 5530 853e
000000b0: 9a6f c83d 3ce4 663e 415b e83d 4bbd 4f3d
000000c0: e9bd 153e b2df 01be 3652 60be db4f 04be
000000d0: 9f5d 86bd 68fc aabd 9b11 fdbd ea11 2dbe
000000e0: 9f17 683e 632b 873e 24b4 913d db66 4abe
000000f0: ccbb 16be d101 e03d 9cc8 d7bd 2d32 4b3e
00000100: 318c c03d 60ae d4bd a354 f13d 2f32 1f3e
00000110: c508 75be 4711 56be 4862 253b e32f 403d
00000120: b523 153e 634c e33d 64cf 1bbe c921 21be
00000130: 1af5 1abe 26a3 953d c0bb 423e 2a8b 53be
00000140: 8ab7 253d 2c93 2abe 5727 5a3d f451 3abe
00000150: df29 843e 598f 203e 0c7a ef3d e933 fd3d
00000160: 1f43 9c3e 476d 12be b4fa 6f3d 4e30 2c3e
00000170: 17ff 843d 5769 84bc 8402 23be 3e8e 2ebc
00000180: 3f43 19be f08e 5bbe 2e07 8fbd b81c 413e

head.bias f4 [2]
0.13455836 0.055053547
00000000: abc9 093e d47f 613d
