trained_models/20220214/compas/reweighting/mlp_sex_seed0_epochs5_bs128_lr0.0001_decay0.0005_constrainteo_eta20.0_iter10.pt (torch, 82527 bytes, 4 tensors)

features.0.weight f4 [50, 401]
0	0x3d8a188a	0.06742962
1	0x3d0ac1ca	0.033876218
2	0xbd2348fe	-0.039864533
3	0xbda60c80	-0.08107853
4	0xbd13e428	-0.03610626
5	0xbdf46f7e	-0.11935328
6	0xb8eab8e9	-0.00011192432
7	0x3d653af3	0.05596442
8	0xbd04d9c6	-0.032434247
9	0xbba84d2a	-0.005136152
10	0x3b62963e	0.0034574415
11	0xbb793e09	-0.003803136
12	0xbb806af2	-0.003918999
13	0xbc247d56	-0.010039648
14	0xbce96fec	-0.028495751
15	0xbbfe3639	-0.0077579287
16	0x3d02d7a1	0.03194392
17	0x3d205abc	0.03914903
18	0xbca705dd	-0.020388538
19	0xbbe7758f	-0.0070635746
20	0x3ca97004	0.020683296
21	0x3d199349	0.037493978
22	0x3b6b4fb2	0.0035905656
23	0x3cd47ce4	0.025938459
24	0xbaa10ff8	-0.0012288084
25	0x3c73fec3	0.014892283
26	0x3d5870ae	0.052841835
27	0xbca26bb8	-0.019826755
28	0xbb7a95b5	-0.0038236205
29	0x3ba2de0b	0.0049703172
30	0xbcf8ad2d	-0.030356014
31	0x3d61bf03	0.055113804
32	0xbb7abf5b	-0.003826103
33	0xbbb5393f	-0.005530506
34	0xadb64c90	-2.0725005e-11
35	0xbb801966	-0.0039092777
36	0xbb7a3ec8	-0.0038184393
37	0x3d10cf7b	0.03535412
38	0x3a26f912	0.0006369512
39	0x3b1bb0f5	0.0023756598
40	0x3c1e86b8	0.009675674
41	0xbc7ca6c4	-0.015420619
42	0x3c0c7b63	0.00857434
43	0xbb800d79	-0.003907856
44	0xbbeca120	-0.007221356
45	0xbb79decf	-0.003812719
46	0x3c02bac3	0.007979098
47	0x3cbaffe0	0.022827089
48	0x14dfff14	2.2617856e-26
49	0x3c580b8f	0.0131863495
50	0x3bdd6f10	0.0067576244
51	0x35084c1a	5.077469e-07
52	0x0db55399	1.1175112e-30
53	0x800011ae	-6.342e-42
54	0x3bd6b1e0	0.006551966
55	0xbd08d8c1	-0.033409838
56	0x3c9675a0	0.018366635
57	0xbb7c5828	-0.0038504694
58	0xad841587	-1.5016223e-11
59	0xbbb596df	-0.005541667
60	0x3c8df349	0.017327921
61	0x3d0a1699	0.033712957
62	0xbc0cbd50	-0.0085900575
63	0x3bd3d372	0.006464415
64	0x3c2f1ecc	0.010688495
65	0xbca972a6	-0.020684551
66	0x3bce5554	0.006296793
67	0x800002dc	-1.026e-42
68	0x3cc4368a	0.023951788
69	0x3ce7338d	0.028222824
70	0xbd2aaada	-0.041666843
71	0xbbef1e1c	-0.0072972905
72	0x3ced12f1	0.028939696
73	0x3c90f912	0.017696891
74	0x3d340e54	0.043958977
75	0x3c4fd387	0.012684709
76	0x3ca6c4b6	0.020357471
77	0xbb7e4793	-0.0038799986
78	0x3b4148b1	0.002949279
79	0xbb7a8d70	-0.0038231276
80	0xb4082789	-1.268037e-07
81	0x3d06bc37	0.03289434
82	0x3c9c2e81	0.019065144
83	0xbb81392f	-0.0039435844
84	0x3c597b49	0.013274022
85	0xbb755783	-0.0037436194
86	0x00002ae4	1.5386e-41
87	0x962e6528	-1.4087527e-25
88	0x3c7e5146	0.015522307
89	0xbc8f582e	-0.017498102
90	0x3c481254	0.012211401
91	0x3c52e49c	0.012871888
92	0x3d30df39	0.04318163
93	0x0aa3c5ea	1.5770776e-32
94	0xbc70a4d3	-0.014687735
95	0xbb7ac081	-0.0038261714
96	0x3c9b60b2	0.018967006
97	0xba63a35c	-0.0008683705
98	0xb0913824	-1.0566095e-09
99	0xbbe070ae	-0.00684937
100	0x342843d5	1.5670896e-07
101	0x3cebd3c6	0.028787505
102	0x3c83bd60	0.016081512
103	0x3d26ce07	0.040723827
104	0xbc6e67ff	-0.014551162
105	0xbb7932dc	-0.00380247
106	0xbbb89694	-0.0056331847
107	0xbbb8f447	-0.0056443545
108	0x3b975bdc	0.004619105
109	0x3bc64313	0.0060504763
110	0xbb798335	-0.003807259
111	0x3bcc1734	0.006228352
112	0xa906e072	-2.9948652e-14
113	0x3c977afc	0.01849126
114	0x3ca7b040	0.020469785
115	0xbb7da8c0	-0.003870532
116	0xbc8645f6	-0.016390782
117	0x3c5c16a7	0.013433135
118	0xbbc718ec	-0.006075969
119	0x3981cc91	0.0002475721
120	0x3c740998	0.014894865
121	0xba53f5d2	-0.00080856413
122	0x1b8bd2a0	2.3131734e-22
123	0x18e4d2aa	5.9149335e-24
124	0xbb807ca4	-0.0039211083
125	0xbb7a4e3c	-0.0038193604
126	0x3b8033db	0.0039124317
127	0xbb79c061	-0.0038109052
128	0x3bac49a6	0.005257803
129	0xbce50408	-0.027956024
130	0xbb991a63	-0.004672335
131	0x3ca5344e	0.020166542
132	0xbc244247	-0.010025567
133	0xbcbe71d4	-0.023247637
134	0x3ca639f7	0.020291312
135	0x3c926de1	0.01787466
136	0x3bd780ce	0.006576634
137	0xbb7934e0	-0.00380259
138	0x3b5547c3	0.0032543994
139	0x3d4777e6	0.04869833
140	0x3d3edc96	0.046597086
141	0x3b92e90b	0.0044833473
142	0x3cf86cc1	0.030325295
143	0x3c6db3e8	0.014508225
144	0xbc5d251b	-0.013497616
145	0xbbe7e4d9	-0.0070768413
146	0x2cfcdf19	7.1870396e-12
147	0xbb260c91	-0.002533708
148	0x3bea9af5	0.0071595856
149	0xbb7c32b3	-0.0038482368
150	0xbcbbc603	-0.022921568
151	0xbb7dace5	-0.003870779
152	0xbbb4671b	-0.005505455
153	0x24027e1b	2.8296072e-17
154	0x3a3a87af	0.00071155553
155	0xbb80949a	-0.0039239647
156	0x3d0b4174	0.033997968
157	0xb0a03838	-1.165751e-09
158	0xbb2e1f86	-0.0026569082
159	0xbc8a485f	-0.016880212
160	0x3b164825	0.0022931185
161	0xbc81fc31	-0.015867325
162	0xbbf2fca3	-0.0074153706
163	0x3b72ec2f	0.0037067046
164	0xbb793993	-0.0038028702
165	0x3c9ce5c8	0.019152537
166	0xbd06740a	-0.032825507
167	0x3cbf3e0b	0.023345014
168	0xbbbc487e	-0.0057459464
169	0x3c8858da	0.01664393
170	0x3d255b03	0.04037
171	0xbbb4f61d	-0.005522503
172	0x3d06238f	0.032748755
173	0x3cc27726	0.023738455
174	0xbbbc5bf8	-0.005748268
175	0x3c6c680b	0.014429103
176	0x3c423e7c	0.011855718
177	0xbd34920c	-0.044084594
178	0x3c11b8d7	0.008894167
179	0xbbb9c393	-0.005669066
180	0x3ba2f3b4	0.0049728993
181	0x3be20a3a	0.0068981918
182	0x3c1c4f7e	0.009540437
183	0x3c44eb78	0.012019031
184	0xba0e477e	-0.0005427523
185	0x3c9a1d15	0.018812696
186	0xbbb97919	-0.005660188
187	0x0000033a	1.157e-42
188	0xba7524d2	-0.0009351495
189	0x3bbf235c	0.0058330726
190	0x3cfaf6ac	0.0306352
191	0x3d299a0a	0.04140667
192	0xbc73140a	-0.014836321
193	0x3c2eac13	0.010661143
194	0xbb1ac838	-0.0023617875
195	0xbc8e2a1c	-0.017354064
196	0xbb7a3d0e	-0.0038183364
197	0x3cdd6a12	0.027028117
198	0xbbb64b2b	-0.00556316
199	0x3bf8196c	0.00757139
200	0x3c170297	0.009216926
201	0x3cda1724	0.026622362
202	0x3c0784c1	0.008271397
203	0xbb7b21ea	-0.0038319775
204	0xbbfe0335	-0.007751847
205	0x3c300289	0.010742792
206	0xbb7968de	-0.003805689
207	0x3c73c5bf	0.014878689
208	0x3c815139	0.0157858
209	0x3be4ca2b	0.006982108
210	0x3c2a6579	0.0104001695
211	0x800003f9	-1.425e-42
212	0x3c38bfd3	0.011276203
213	0xbc310601	-0.010804654
214	0x3c3740b2	0.011184858
215	0x3c60a66d	0.013711554
216	0xbb7c75f4	-0.0038522454
217	0xbb79e912	-0.0038133305
218	0x3c9f844f	0.01947227
219	0xbb7cff40	-0.003860429
220	0x00001af4	9.669e-42
221	0x3cbbd146	0.022926938
222	0x3cc5501f	0.024086056
223	0x8000473e	-2.5557e-41
224	0xbcb76d0a	-0.022390861
225	0x3cb2d592	0.021830354
226	0xbb7b6f31	-0.0038365836
227	0x3b431b85	0.0029771042
228	0xbc7575fc	-0.014981743
229	0xbb7938dd	-0.0038028278
230	0x3cc3103c	0.023811452
231	0x3c5dac9f	0.013529926
232	0xbc078fb9	-0.008274012
233	0x3c7f8822	0.015596421
234	0x3d26c328	0.04071346
235	0xbb7a9b7a	-0.0038239644
236	0x3c9a73ec	0.018854104
237	0xbcae6924	-0.02129037
238	0xbb798c72	-0.0038078097
239	0x3c09ed65	0.008418416
240	0x39d4558f	0.00040499537
241	0x3c3bdf30	0.011466786
242	0xbbb4a830	-0.0055132136
243	0xbb0449e0	-0.0020185634
244	0x3d5eb1ea	0.05436889
245	0x3bf634f6	0.0075136377
246	0x3d3caf45	0.046065588
247	0xb1d0e234	-6.079313e-09
248	0xbcaf68bc	-0.021412246
249	0x00001b7e	9.862e-42
250	0xbbb5aa6a	-0.0055439966
251	0x3c0f8a0e	0.008760942
252	0x3d845775	0.064619936
253	0xbb7950fe	-0.003804266
254	0xbc231d87	-0.00995577
255	0xbc1fcd8f	-0.009753599

features.0.bias f4 [50]
0	0x3d800c54	0.062523514
1	0x3c81b282	0.01583219
2	0x3cf34fa4	0.029701062
3	0x3cd67764	0.026179977
4	0x3c31bc23	0.010848078
5	0x3d56eb12	0.052470274
6	0x3d80c1d1	0.062869675
7	0x3d7dd206	0.061967872
8	0x3d970831	0.07374609
9	0xbb405f79	-0.002935378
10	0x3d104e7e	0.035231106
11	0xbcc7c1bf	-0.024384378
12	0x3d5f76ac	0.054556534
13	0x3da1c701	0.07899285
14	0x3d89e218	0.06732577
15	0x3d6c104c	0.05763273
16	0x3d1d141d	0.03834926
17	0x3d9207be	0.07130383
18	0x3dfc8d91	0.12331689
19	0x3d450802	0.04810334
20	0x3ccb4dec	0.02481743
21	0x3d1c80d8	0.038208812
22	0xbc877dc6	-0.016539466
23	0xba560a6c	-0.0008165005
24	0x3d82757b	0.06370064
25	0x3d59588a	0.053062953
26	0x3d7dbd5e	0.061948173
27	0x3ca3b314	0.019982852
28	0x3d2ae23a	0.041719653
29	0x3d8a96de	0.06767057
30	0x3d8d1e1c	0.068905085
31	0xbc122160	-0.00891909
32	0x3d47a649	0.048742566
33	0x3d81124e	0.063023195
34	0x3d72180d	0.059104968
35	0xbc3e56da	-0.011617387
36	0x3d3ae7a1	0.045631055
37	0x3d4a81e7	0.04944029
38	0x3d705e12	0.058683462
39	0x3d439cea	0.047757067
40	0x3d8a00e1	0.06738449
41	0x3d4a5958	0.04940161
42	0x3d58b839	0.052910063
43	0x3cc13007	0.023582472
44	0x3c01f272	0.007931339
45	0x3d88595e	0.066576704
46	0x3d091fa4	0.03347744
47	0x3d9a581b	0.07536336
48	0x3d26f984	0.0407653
49	0x3d3660e6	0.044526003

head.weight f4 [2, 50]
0	0xbd4cc46a	-0.049992003
1	0xbd23307f	-0.03984117
2	0x3de25ec6	0.11053233
3	0xbe2778ab	-0.16354625
4	0x3e18cea6	0.1492258
5	0x3d5f079f	0.054450627
6	0xbe4b4fe6	-0.19854698
7	0xbe4830d7	-0.19549881
8	0x3dc737ec	0.09727463
9	0x3d98c0c4	0.07458642
10	0xbd8aa30e	-0.067693815
11	0x3d85d409	0.06534583
12	0x3c98d6c3	0.018657094
13	0x3e2e6804	0.17031866
14	0xbda48bea	-0.08034499
15	0xbde1b794	-0.11021343
16	0x3d83c747	0.064344935
17	0xbe160441	-0.1465006
18	0xbd568ada	-0.052378513
19	0xbd8ef027	-0.06979399
20	0xbd3087b1	-0.043098155
21	0x3d830a15	0.06398407
22	0x3e182127	0.14856397
23	0xbd573b71	-0.052546922
24	0xbe1a48ca	-0.1506683
25	0x3cbdeb66	0.023183536
26	0x3da13d5a	0.0787303
27	0x3e0f2e18	0.13982427
28	0x3d2fdd6d	0.042935777
29	0xbe3f5403	-0.18684392
30	0x3d7a8f9a	0.061172105
31	0x3dd209c6	0.102557704
32	0xbbefd47d	-0.0073190317
33	0xbc43531a	-0.011921668
34	0x3ccfa2f3	0.025346255
35	0xbdd72eb8	-0.10506958
36	0x3c410aef	0.011782392
37	0x3e031916	0.12802538
38	0x3e026fcd	0.12737961
39	0x3e261f53	0.16222887
40	0xbd5e3189	-0.05424646
41	0xbd864fd9	-0.065581985
42	0x3dc75fb6	0.09735052
43	0x3e21a301	0.15784837
44	0x3c338d77	0.010959021
45	0xbdd029e4	-0.1016424
46	0xbe13e4fc	-0.1444282
47	0x3bdb7ce3	0.0066982373
48	0xbd596def	-0.053083356
49	0x3dd80f65	0.10549811
50	0xbe22a284	-0.15882307
51	0x3e50cd9a	0.20390931
52	0xbe3b6f69	-0.18304218
53	0xba02040c	-0.00049597095
54	0xbd427a6a	-0.047480024
55	0xbd9a8c8e	-0.0754634
56	0x3d419886	0.0472646
57	0xbc78e2db	-0.015190805
58	0xbd990b24	-0.07472828
59	0xbe0789a9	-0.13236107
60	0xbe1ec3b8	-0.15504348
61	0xbe18c7fd	-0.1492004
62	0x3e3c6a11	0.18399836
63	0xbd011dc3	-0.031522524
64	0x3e40798d	0.18796368
65	0x3da7c840	0.081924915
66	0xbd76caeb	-0.06025211
67	0x3d44045a	0.047855712
68	0xbe54a885	-0.2076741
69	0x3e27a2e3	0.1637073
70	0x3e1a4900	0.1506691
71	0xbda7d611	-0.08195127
72	0xbb527fa5	-0.003211954
73	0x3dfa1e4e	0.122128114
74	0xbac93a40	-0.0015352443
75	0xbdd801b2	-0.10547198
76	0xbe07b8ea	-0.13254133
77	0xbe15fbf6	-0.14646897
78	0x3e4053b6	0.18781933
79	0x3d7d0d11	0.06178004
80	0xbd55c34b	-0.0521882
81	0xbc74d715	-0.014943858
82	0xbe12f6af	-0.14351915
83	0x3e3c569d	0.18392415
84	0xbe2f1118	-0.17096364
85	0x3e1fd0d2	0.15607002
86	0xbe24568a	-0.16048637
87	0x3c43f7a8	0.011960901
88	0xbc41c37e	-0.011826394
89	0xbe31e15f	-0.17371128
90	0x3e463fbc	0.1936025
91	0x3e1399aa	0.14414087
92	0x3cc87eba	0.02447449
93	0x3c8bfae0	0.0170874
94	0xbe1a7f40	-0.15087605
95	0x3dc616d4	0.09672323
96	0x3de4a4b2	0.11164226
97	0x3e161049	0.1465465
98	0xbe5298be	-0.20566079
99	0xbd6e9415	-0.05824669

head.bias f4 [2]
0	0x3dd649fd	0.10463331
1	0xbdccd8d2	-0.10002293
