trained_models/20220214/adult/adv_debiasing/mlp_sex_seed3_epochs50_bs128_lr0.0005_decay0.0005_adv_lamb0.01_eta0.01_constrainteopp.pt (torch, 21919 bytes, 4 tensors)

features.0.weight f4 [50, 98]
-0.48007876 -0.045745123 -0.075038455 -0.21805187 -0.0010355389 -0.22165318 0.07172017 0.10418921
-0.008262429 0.01564343 -0.055180997 0.10538014 0.02352409 -0.10107764 -0.011129788 0.025766755
-0.0809176 0.08439295 0.016100679 0.12377501 -0.001350047 -0.117679656 0.057040647 -0.033860616
-0.00021572121 -0.022947202 0.01028179 0.0388469 -0.07354976 -0.03041227 -0.027330043 -0.024719076
-0.050000027 0.018613834 -0.05846355 -0.08628061 -0.11328953 -0.0038857334 -0.0161215 0.030031538
0.08292037 -0.034070816 0.034472268 -0.017288677 -0.023384307 -0.019128062 -0.04781265 -0.08192126
0.03133475 0.07543776 0.03242352 -0.06751286 0.014211927 0.08942086 0.09974044 -0.029420398
-0.013115732 0.022986488 0.056549102 0.04092429 0.08425475 0.03477236 0.0062866975 -0.08906617
-0.024407111 -0.008875205 0.0017687397 -0.012982097 0.012411631 0.05546299 -0.0006433938 0.021654526
-0.027014872 0.012312218 0.060477346 -0.0016914632 0.024190277 0.07969825 -0.016001973 0.04755819
-0.04058125 -0.10322825 -0.011610262 0.01693775 0.04844469 -0.04062127 -0.013474105 -0.03414745
0.022698214 0.006357303 -0.015956724 0.019585744 0.004433523 0.06154206 0.10430724 -0.031035624
-0.023396283 0.10847271 -0.13170853 -0.060148705 -0.10265478 -0.056347482 -0.123437524 -0.16210054
0.009479591 -0.03453896 -0.036539555 -0.033047207 0.07336394 -0.041047823 -0.00494051 0.09398748
-0.073862106 -0.110500045 0.037958056 -0.124445714 0.120993085 0.055512212 -0.030075641 0.13574874
0.026407402 -0.08211013 -0.058025498 -0.1122379 0.02098627 -0.011009195 0.011319424 0.008764923
-0.013770807 -0.024751509 0.08555219 0.016501337 0.048451494 0.056264587 -0.018362882 0.0027692995
0.026437955 0.09185643 -0.16404146 0.053714633 -0.14477016 0.056743313 -0.025258534 -0.015085644
-0.03276251 -0.030558908 0.059880406 -0.1623312 0.07698293 0.05333423 -0.077661194 0.061996095
0.038517144 0.041087896 0.06540145 -0.019748433 0.06449275 0.04456511 0.042584024 -0.031307388
0.009474425 -0.024872547 0.011540302 0.046715837 -0.02460004 0.008959583 0.055503976 -0.046557922
0.0017447777 0.0010382126 -0.019958558 -0.019596998 -0.07660388 -0.00059579004 -0.0063135787 0.036754023
-0.07943666 0.0320122 0.023405358 -0.01842559 0.06614044 -0.0047588926 0.05821912 0.03870619
0.038198873 0.042332962 0.016046356 0.037867844 -0.02793491 0.01541276 0.067872904 -0.03470335
0.013392442 -0.026722053 0.017758211 -0.008129601 -0.041555718 0.075309195 0.023378685 0.42977545
-0.117874674 0.020265482 0.11800554 0.057817075 0.12711899 -0.062948376 -0.08214996 -0.009369649
0.055056635 -0.14949098 -0.04393896 -0.07888526 0.0028256031 -0.026831876 -0.12567045 -0.03184085
0.0019618217 0.010474427 -0.033351444 0.04622738 -0.03747265 0.024946934 -0.008847783 0.12063141
0.043162968 -0.017725013 -0.0040029367 0.06273681 0.05326309 -0.13934016 0.07450861 0.002473059
0.079120174 0.07229042 0.06334804 0.08926323 -0.13270916 0.033066377 0.066211574 -0.023977704
0.016318083 0.043980833 -0.077980764 -0.011148276 0.052844934 0.012517798 0.034413744 0.10147281
-0.03283646 -0.034059837 0.026441593 0.03041026 0.06869005 -0.089232735 0.009267231 -0.074791424
00000000: e2cc f5be 3d5f 3bbd c3ad 99bd fd48 5fbe
00000010: ebba 87ba 0df9 62be 06e2 923d 2761 d53d
00000020: 245f 07bc a726 803c 7805 62bd 8bd1 d73d
00000030: 98b5 c03c cb01 cfbd b759 36bc cd14 d33c
00000040: 20b8 a5bd 36d6 ac3d 92e5 833c c17d fd3d
00000050: 0ff4 b0ba 0802 f1bd 74a3 693d 6eb1 0abd
00000060: 3933 62b9 c5fb bbbc f474 283c ed1d 1f3d
00000070: 42a1 96bd 2723 f9bc 41e3 dfbc a97f cabc
00000080: d4cc 4cbd 0a7c 983c 7a77 6fbd e3b3 b0bd
00000090: 5704 e8bd caa7 7ebb 3c11 84bc b304 f63c
000000a0: 28d2 a93d d78d 0bbd cb32 0d3d fca0 8dbc
000000b0: 7290 bfbc 74b2 9cbc 33d7 43bd 55c6 a7bd
000000c0: de58 003d 1d7f 9a3d 86ce 043d 2f44 8abd
000000d0: 24d9 683c 4922 b73d b744 cc3d 0c03 f1bc
000000e0: 5ee3 56bc 294e bc3c 08a0 673d 3aa0 273d
000000f0: c18d ac3d 766d 0e3d a400 ce3b 5368 b6bd
00000100: 6cf1 c7bc 4f69 11bc 0ed5 e73a ddb2 54bc
00000110: 275a 4b3c 292d 633d 6da9 28ba d564 b13c
00000120: 4b4e ddbc 2fb9 493c 18b7 773d 16b4 ddba
00000130: b02a c63c d638 a33d 9216 83bc 60cc 423d
00000140: 8638 26bd 5569 d3bd f838 3ebc 09c1 8a3c
00000150: f06d 463d 7d62 26bd 7ec2 5cbc 32de 0bbd
00000160: 9bf1 b93c ec50 d03b adb7 82bc 4872 a03c
00000170: 1647 913b 8713 7c3d 099f d53d 6c3e febc
00000180: 90a9 bfbc f126 de3d 9ade 06be 7d5e 76bd
00000190: ab3c d2bd 9ecc 66bd d0cc fcbd affd 25be
000001a0: 4950 1b3c b978 0dbd 80aa 15bd 825c 07bd
000001b0: d53f 963d c321 28bd 00e4 a1bb 827c c03d
000001c0: 0445 97bd d94d e2bd e879 1b3d 65dd febd
000001d0: 39cb f73d c660 633d 3161 f6bc b801 0b3e
000001e0: 5654 d83c 5b29 a8bd 25ac 6dbd fcdc e5bd
000001f0: 66eb ab3c e95f 34bc 1b75 393c c09a 0f3c
00000200: f39e 61bc adc3 cabc fd35 af3d d02d 873c
00000210: 1375 463d b275 663d c16d 96bc 237d 353b
00000220: 6994 d83c 391f bc3d 7cfa 27be e003 5c3d
00000230: a13e 14be ad6b 683d fcea cebc c729 77bc
00000240: fb31 06bd ad56 fabc 2845 753d 263a 26be
00000250: 3aa9 9d3d fe74 5a3d d50c 9fbd 9eef 7d3d
00000260: 27c4 1d3d c84b 283d 32f1 853d 77c7 a1bc
00000270: c614 843d e889 363d 966c 2e3d 2d3c 00bd
00000280: 9e3a 1b3c 83c1 cbbc 8913 3d3c 1b59 3f3d
00000290: 0686 c9bc 37cb 123c 2358 633d 85b3 3ebd
000002a0: 06b1 e43a a214 883a 2180 a3bc e289 a0bc
000002b0: 7fe2 9cbd cb2e 1cba 23e2 cebb 638b 163d
000002c0: b0af a2bd 3a1f 033d 98bc bf3c 43f1 96bc
000002d0: a474 873d 7cf0 9bbb 2c77 6e3d 628a 1e3d
000002e0: 6c76 1c3d 5465 2d3d a673 833c 501b 1b3d
000002f0: c1d7 e4bc cd85 7c3c f300 8b3d 1a25 0ebd
00000300: f96b 5b3c 35e8 dabc ab79 913c 0532 05bc
00000310: 5436 2abd b53b 9a3d a884 bf3c 870b dc3e
00000320: 4768 f1bd cc03 a63c e3ac f13d 99d1 6c3d
00000330: 7b2b 023e 14eb 80bd 3d3e a8bd 2883 19bc
00000340: 1183 613d 2a14 19be 57f9 33bd 988e a1bd
00000350: c12d 393b 86ce dbbc c1af 00be 8d6b 02bd
00000360: e891 003b ee9c 2b3c 869b 08bd ec58 3d3d
00000370: ec7c 19bd 835d cc3c 4bf6 10bc 9a0d f73d
00000380: a7cb 303d 0c34 91bc 112b 83bb 287c 803d
00000390: 662a 5a3d 30af 0ebe f897 983d 0c13 223b
000003a0: c209 a23d 000d 943d 9ebc 813d a4cf b63d
000003b0: e9e4 07be 9c70 073d ef99 873d e46c c4bc
000003c0: 80ad 853c 3f25 343d 61b4 9fbd 42a7 36bc
000003d0: ee73 583d 7317 4d3c 6df5 0c3d fad0 cf3d
000003e0: 867f 06bd 5482 0bbd 0a9c d83c f01e f93c
000003f0: 5ead 8c3d a7bf b6bd 96d5 173c 3f2c 99bd

features.0.bias f4 [50]
0.123171784 0.07278132 0.027429847 0.018165646 0.041267853 0.096014045 0.01235151 0.054464113
-0.034617767 0.00034692272 0.043570537 0.030248275 0.1664567 0.13409077 0.12833713 0.0861312
0.054653514 -0.021856181 -0.024305595 0.042649038 0.06413453 0.056440298 0.012079505 0.03415295
0.05251302 -0.009579963 -0.054892365 0.046111956 0.037082322 0.07430768 0.03131024 0.05550692
-0.022784466 -0.032216758 0.13599028 0.023530623 0.14238279 -0.034972273 0.03799092 0.07542063
0.030203585 0.046232346 0.10702168 0.010505706 0.080613025 0.018509656 -0.047118194 0.04584224
0.07681 -0.01896039
00000000: 7d41 fc3d 5f0e 953d 8fb4 e03c 1fd0 943c
00000010: 7b08 293d 03a3 c43d fd5d 4a3c c315 5f3d
00000020: 5ccb 0dbd 2ee3 b539 0577 323d 3bcb f73c
00000030: a073 2a3e 174f 093e cf6a 033e 8e65 b03d
00000040: 5ddc 5f3d bc0b b3bc 871c c7bc c2b0 2e3d
00000050: f758 833d f12d 673d 1ee9 453c f7e3 0b3d
00000060: e417 573d 47f5 1cbc d1d6 60bd e4df 3c3d
00000070: a2e3 173d a02e 983d 2b3f 003d 395b 633d
00000080: 7da6 babc b8f5 03bd 0941 0b3e 4bc3 c03c
00000090: cbcc 113e 163f 0fbd 5e9c 1b3d 2276 9a3d
000000a0: 826d f73c 215e 3d3d 2f2e db3d 2020 2c3c
000000b0: 7118 a53d 90a1 973c 02ff 40bd 13c5 3b3d
000000c0: 904e 9d3d d252 9bbc

head.weight f4 [2, 50]
0.2626457 0.19501641 -0.2892788 -0.076909006 0.18753101 0.13936462 0.12893812 0.29720375
-0.14345552 -0.25041834 0.24864526 0.22204669 0.2212076 -0.21259314 0.1831658 0.21851781
0.1602933 -0.20951857 0.26209718 0.201711 -0.20842883 0.24217115 0.19205943 0.17805581
0.15240473 -0.2316797 -0.13068283 -0.16228509 0.1548402 0.22144072 -0.17271665 0.16544643
0.16996475 0.26159406 0.1810544 -0.13414837 0.29945835 0.3029533 0.2436701 0.20305319
-0.044831853 0.18351915 -0.14694281 -0.09833602 -0.18698755 0.18947816 -0.12935834 0.1372633
0.20266913 0.12155484 -0.25657603 -0.20437963 0.10043177 0.27843523 -0.14239962 -0.1923187
-0.30327374 -0.25484854 0.12005493 0.18181503 -0.16171406 -0.040465005 -0.039913304 0.103618465
-0.27974403 -0.17105745 -0.14125192 0.19175626 -0.2277278 -0.18275143 0.25366572 -0.15904075
-0.20070337 -0.21750787 -0.23603472 0.062128 0.2125923 0.20218967 -0.09848358 -0.15013674
0.21639602 -0.12531511 -0.1879891 -0.20019765 -0.30982322 -0.016589047 -0.1675338 -0.09238152
-0.117796496 -0.43564963 0.18684922 -0.23468389 0.17469113 0.20027795 0.18121536 -0.2633113
0.18674144 -0.17727937 -0.21549802 -0.2526523
00000000: 7f79 863e 62b2 473e 5a1c 94be 7882 9dbd
00000010: 2108 403e 99b5 0e3e 5b08 043e 172b 983e
00000020: 01e6 12be d536 80be dd9c 7e3e 3560 633e
00000030: 3f84 623e 04b2 59be d18f 3b3e 22c3 5f3e
00000040: ed23 243e 098c 56be 9a31 863e 548d 4e3e
00000050: 5e6e 55be b7fb 773e 3aab 443e 4354 363e
00000060: fc0f 1c3e 713d 6dbe b8d1 05be 102e 26be
00000070: 6e8e 1e3e 5bc1 623e a2dc 30be ca6a 293e
00000080: 3d0b 2e3e a8ef 853e 5366 393e 315e 09be
00000090: 9b52 993e b21c 9b3e a884 793e 2ded 4f3e
000000a0: 9ba1 37bd 72ec 3b3e 2d78 16be 6564 c9bd
000000b0: aa79 3fbe 9006 423e 8376 04be c08e 0c3e
000000c0: 7f88 4f3e bef1 f83d ef5d 83be e548 51be
000000d0: 2caf cd3d 108f 8e3e 35d1 11be 31ef 44be
000000e0: b246 9bbe 827b 82be 5cdf f53d b82d 3a3e
000000f0: 5f98 25be a2be 25bd 227c 23bd eb35 d43d
00000100: 9c3a 8fbe af29 2fbe 58a4 10be c15b 443e
00000110: 7a31 69be 3123 3bbe 79e0 813e 94db 22be
00000120: 2f85 4dbe 62ba 5ebe 16b3 71be ee79 7e3d
00000130: ccb1 593e cf0a 4f3e c2b1 c9bd 72bd 19be
00000140: eb96 5d3e 9b52 00be 3780 40be 9d00 4dbe
00000150: 26a1 9ebe c1e5 87bc fb8d 2bbe 8632 bdbd
00000160: 4a3f f1bd 780d dfbe 6755 3f3e f950 70be
00000170: 3be2 323e aa15 4d3e 8590 393e bdd0 86be
00000180: 2639 3f3e b988 35be 83ab 5cbe a45b 81be

head.bias f4 [2]
0.047590394 0.076239295
00000000: 25ee 423d 5923 9c3d
