trained_models/20220214/adult/adv_debiasing/mlp_sex_seed0_epochs50_bs128_lr0.0005_decay0.0005_adv_lamb3.0_eta0.01_constrainteopp.pt (torch, 21919 bytes, 4 tensors)

features.0.weight f4 [50, 98]
-0.034504626 0.12135896 -0.05756331 -0.058570806 -0.04848838 -0.004444515 -0.11353643 0.10183501
0.037698515 0.10236718 -0.11349748 -0.06610437 -0.0062554157 -0.050795212 -0.039377227 -0.016724883
0.028667727 0.009923528 -0.020027021 -0.04695613 0.027786406 0.1322891 -0.022129204 0.11825418
-0.0891594 0.052501235 0.019342197 -0.02259427 -0.08968785 -0.036768593 -0.0016016284 0.09639858
-0.047201257 -0.033911977 -0.0828855 -0.10013614 -0.10025956 0.06750749 0.050179936 0.06831923
-0.0069300854 -0.047701456 0.021046262 -0.05994524 0.003111329 0.0052977614 -0.0034761403 -0.004191626
-0.012021253 -0.01596875 0.082424216 0.07146124 -0.025503788 0.029849561 0.05238252 -0.057452764
0.01656233 -0.07654021 -0.119538054 -0.030534424 0.08653181 0.009587893 -0.006492855 0.011936389
0.055023264 0.056076884 0.039496735 0.0134920785 0.032973345 0.048421837 0.009096974 -0.0062033427
0.03478465 0.058410823 0.064269945 0.16015457 0.15352836 -0.03266609 -0.0104209175 -0.04949325
-0.00840035 0.06679354 0.054608278 -0.020892011 0.04396847 0.034240074 0.0103572905 -0.03437415
-0.026700914 0.007436821 -0.029054757 -0.040288426 0.067378156 0.04607911 -0.11766567 -0.038136587
-0.034698516 0.037026737 -0.109636195 -0.09894647 0.00651474 -0.066355586 0.010944442 -0.110697
-0.0334959 -0.00456991 0.0010320334 -0.109398335 -0.072861366 0.036644876 0.008864481 0.07828427
-0.039307553 0.11911493 0.059570156 -0.13074344 0.034914665 0.0063002175 0.043431394 0.047333878
-0.0054645725 0.012989227 0.002731544 -0.018528009 0.028812522 -0.02352166 -0.0074194022 0.06868731
-0.0190486 -0.1518887 -0.015249709 0.023246858 -0.057244375 0.054420345 0.1630778 0.012246995
-0.030567901 -0.09931116 0.042577628 0.13784423 0.100276746 0.13623463 0.07267377 -0.116718486
-0.034765575 0.025309777 0.061194435 -0.040619124 -0.053096663 -0.025021287 0.04962047 -0.018420372
-0.046588194 0.035972424 0.00011336104 -0.05212669 0.063948035 0.03450005 -0.014165644 0.032533236
0.027984157 -0.021821283 -0.03580689 -0.009208735 -0.0017181967 -0.008591113 -0.034550905 -0.013639595
0.0044681616 0.018631777 0.075338304 -0.0106217405 0.07615891 0.025706017 -0.006784205 0.051400065
0.028400091 -0.03416589 0.057824954 -0.039309327 -0.025222514 0.03367257 0.037766024 0.05080507
0.0015417092 0.06609524 -0.0027530012 0.029621841 -0.004206729 0.09749965 0.038591795 0.028757004
-0.04248018 0.02087957 -0.021539863 -0.027480934 -0.032131948 -0.015174466 -0.08027981 -0.14670233
-0.04462478 0.15158556 -0.044646673 -0.09195472 -0.070708126 0.03404728 0.059553117 0.10820708
0.021729497 0.061113995 -0.06281936 -0.02386696 0.017187135 -0.13622785 0.0061697518 0.02999076
0.022341322 -0.058508832 0.021418296 -0.027759263 0.09132253 0.066213556 0.014141144 -0.10182359
-0.05459247 0.04993554 -0.009373403 -0.05561807 -0.04394969 0.019694721 0.037987564 0.076301076
0.037156675 0.046016097 0.06958091 -0.077945545 0.13093415 -0.005310694 -0.040559493 0.046125654
0.03377374 0.11138569 -0.05323118 -0.07521633 -0.02359797 -0.06259017 0.050671984 -0.037401382
0.056727864 -0.037696514 -0.027804032 0.010085621 0.0394417 0.01481408 -0.007151972 -0.02920495
00000000: b954 0dbd 0c8b f83d 81c7 6bbd f1e7 6fbd
00000010: c09b 46bd 4ba3 91bb ca85 e8bd e08e d03d
00000020: c269 1a3d e2a5 d13d 5e71 e8bd ba61 87bd
00000030: 3bfa ccbb a40e 50bd 044a 21bd 9f02 89bc
00000040: 95d8 ea3c 4b96 223c b50f a4bc 1255 40bd
00000050: 51a0 e33c cb76 073e 4e48 b5bc 3f2f f23d
00000060: 3499 b6bd 890b 573d 8773 9e3c 9e17 b9bc
00000070: 43ae b7bd aa9a 16bd bbed d1ba 9e6c c53d
00000080: 1b56 41bd 49e7 0abd dfbf a9bd 2d14 cdbd
00000090: e254 cdbd 5e41 8a3d 7a89 4d3d f4ea 8b3d
000000a0: c515 e3bb 9a62 43bd 3669 ac3c 2489 75bd
000000b0: 70e7 4b3b d898 ad3b f5cf 63bb e859 89bb
000000c0: caf4 44bc e5d0 82bc 07ce a83d 455a 923d
000000d0: 52ed d0bc 1187 f43c 0e8f 563d 9753 6bbd
000000e0: b9ad 873c 1dc1 9cbd 5ed0 f4bd 5423 fabc
000000f0: 9737 b13d 8a16 1d3c 04c2 d4bb d890 433c
00000100: 1360 613d e0b0 653d 54c7 213d e10d 5d3c
00000110: 0f0f 073d fa55 463d 790b 153c 6945 cbbb
00000120: 597a 0e3d 3040 6f3d f69f 833d 8fff 233e
00000130: 8a36 1d3e e1cc 05bd 7fbc 2abc 6fb9 4abd
00000140: 9fa1 09bc 0dcb 883d eeac 5f3d b925 abbc
00000150: 4818 343d 523f 0c3d a0b1 293c e9cb 0cbd
00000160: e0bb dabc 93b0 f33b 3e04 eebc 7a05 25bd
00000170: 8ffd 893d 73bd 3c3d b3fa f0bd 1c35 1cbd
00000180: 0820 0ebd 59a9 173d f188 e0bd 72a4 cabd
00000190: 9a79 d53b 70e5 87bd 5150 333c 1cb5 e2bd
000001a0: ff32 09bd 2fbf 95bb 4b45 873a 3c0c e0bd
000001b0: 5738 95bd f018 163d 543c 113c 8153 a03d
000001c0: f500 21bd 87f2 f33d d6ff 733d 9ce1 05be
000001d0: ae02 0f3d 0e72 ce3b 1ee5 313d 2be1 413d
000001e0: 2810 b3bb c4d0 543c b403 333b 0dc8 97bc
000001f0: 3d08 ec3c 7fb0 c0bc 751e f3bb efab 8c3d
00000200: cf0b 9cbc b688 1bbe ead9 79bc 3270 be3c
00000210: 1479 6abd dee7 5e3d defd 263e 9fa7 483c
00000220: 8969 fabc a663 cbbd e165 2e3d 0a27 0d3e
00000230: e55d cd3d 1781 0b3e fcd5 943d 1a0a efbd
00000240: 5966 0ebd 7356 cf3c 04a7 7a3d 3d60 26bd
00000250: e37b 59bd 71f9 ccbc d53e 4b3d 52e6 96bc
00000260: 43d3 3ebd d257 133d 3fbc ed38 cc82 55bd
00000270: 30f7 823d ed4f 0d3d 0417 68bc 9241 053d
00000280: 083f e53c 8cc2 b2bc 3faa 12bd 3ce0 16bc
00000290: 1d35 e1ba bdc1 0cbc 4085 0dbd 9c78 5fbc
000002a0: a869 923b aba1 983c f84a 9a3d cf06 2ebc
000002b0: 34f9 9b3d 6d95 d23c 094e debb e088 523d
000002c0: 4fa7 e83c 88f1 0bbd dcd9 6c3d d102 21bd
000002d0: 729f cebc 40ec 093d 8cb0 1a3d fa18 503d
000002e0: 2d13 ca3a f15c 873d b26b 34bb 81a9 f23c
000002f0: 9ad8 89bb e6ad c73d 6e12 1e3d cf93 eb3c
00000300: b2ff 2dbd a20b ab3c 5e74 b0bc b21f e1bc
00000310: ca9c 03bd 539e 78bc be69 a4bd 2339 16be
00000320: 79c8 36bd 3f39 1b3e 6edf 36bd c252 bcbd
00000330: 6ccf 90bd 2975 0b3d f8ed 733d ac9b dd3d
00000340: 0f02 b23c ab52 7a3d 70a7 80bd a584 c3bc
00000350: 09cc 8c3c 507f 0bbe a12b ca3b 2faf f53c
00000360: 2605 b73c f5a6 6fbd 6c75 af3c 6567 e3bc
00000370: 4e07 bb3d f99a 873d 42b0 673c e388 d0bd
00000380: 5b9c 5fbd 3589 4c3d e792 19bc c6cf 63bd
00000390: 9704 34bd d356 a13c d998 1b3d bd43 9c3d
000003a0: 9931 183d 607b 3c3d 7080 8e3d eaa1 9fbd
000003b0: 9a13 063e 5505 aebb b621 26bd 41ee 3c3d
000003c0: 5556 0a3d 2e1e e43d f008 5abd 050b 9abd
000003d0: 8850 c1bc 462f 80bd 6d8d 4f3d 3132 19bd
000003e0: 7a5b 683d a967 1abd 48c5 e3bc 293e 253c
000003f0: 9f8d 213d c1b6 723c 175b eabb 383f efbc

features.0.bias f4 [50]
0.013065154 0.0050168717 0.03991125 0.16107893 -0.02175499 -0.076639056 0.015756026 0.11057528
0.09168726 0.07782487 -0.07939998 -0.089579575 0.00083704997 0.034717374 -0.08667449 -0.050640687
-0.02620905 -0.07060076 0.10071413 0.29771683 -0.0031826408 -0.05527118 0.1898308 0.037715495
0.15554045 0.08264673 0.11965577 0.04181528 0.14839442 0.27801037 0.20528929 0.14451118
0.0969711 -0.0035032749 0.23831694 0.014655456 0.10773113 0.07829183 0.2002133 0.06405992
0.15697837 0.037608057 0.07782531 -0.010967604 0.03360322 0.18234405 0.095188394 0.014238453
0.03308257 0.014593286
00000000: 3a0f 563c 9264 a43b fb79 233d e0f1 243e
00000010: 8537 b2bc f0f4 9cbd c812 813c 4b75 e23d
00000020: 88c6 bb3d a562 9f3d 759c a2bd 7f75 b7bd
00000030: 796d 5b3a ce33 0e3d 6582 b1bd 9c6c 4fbd
00000040: 5db4 d6bc 2297 90bd 3643 ce3d 576e 983e
00000050: da93 50bb 0864 62bd 0163 423e 907b 1a3d
00000060: ff45 1f3e b042 a93d 160e f53d 8046 2b3d
00000070: b5f4 173e 6057 8e3e 5b37 523e bdfa 133e
00000080: c998 c63d 3397 65bb 5b09 743e 701d 703c
00000090: 24a2 dc3d 7857 a03d b704 4d3e d931 833d
000000a0: f0be 203e e80a 1a3d e062 9f3d 77b1 33bc
000000b0: 88a3 093d 66b8 3a3e 22f2 c23d 6648 693c
000000c0: 9781 073d ae18 6f3c

head.weight f4 [2, 50]
0.12264828 0.054002587 0.069048464 0.24141963 -0.09057775 -0.12523398 -0.07979593 -0.09834745
0.2631798 -0.2187063 -0.23018587 0.08202898 -0.23154023 -0.21668202 0.13529189 -0.098000556
-0.04089237 0.020662228 -0.0940323 0.11976513 0.098616704 -0.22066472 0.18389587 -0.13800381
0.19750737 0.03501671 -0.34825233 0.2725633 -0.32245693 0.21123523 0.20500053 0.281489
-0.280391 -0.006954231 0.33912534 -0.31818086 0.2070357 -0.12220887 0.18277901 -0.13473506
0.33378056 0.039826266 0.16006474 0.06419557 0.0026847206 -0.048756696 -0.38841766 -0.22211027
0.27412552 -0.15624785 0.19473271 -0.18001564 -0.11984773 -0.15565419 -0.17646061 0.04355846
-0.20516492 -0.21666446 -0.09597267 0.13576695 0.002369443 0.18740602 -0.035335228 -0.15865323
0.036500648 -0.067161925 -0.17317082 0.11989238 0.12520337 -0.28829956 -0.015851628 -0.021380944
-0.2598577 -0.10231332 -0.2062855 -0.35455278 0.08768054 -0.19985014 0.17872082 -0.17493321
-0.2912555 -0.26938966 -0.23200394 0.1345906 -0.22712106 -0.14625877 -0.011526519 -0.25641504
-0.29861277 0.20501909 -0.3211574 -0.23098128 0.14468722 0.0013879196 0.18562222 -0.26878673
0.10181597 -0.018707987 -0.32719132 -0.23431154
00000000: 052f fb3d d131 5d3d 4869 8d3d b536 773e
00000010: d480 b9bd 563d 00be 0c6c a3bd 636a c9bd
00000020: 81bf 863e 8bf4 5fbe d8b5 6bbe cffe a73d
00000030: e218 6dbe e4e1 5dbe f589 0a3e 84b4 c8bd
00000040: c27e 27bd d543 a93c 0294 c0bd 6c47 f53d
00000050: 8ef7 c93d eff5 61be 334f 3c3e df50 0dbe
00000060: 5f3f 4a3e af6d 0f3d 214e b2be 6b8d 8b3e
00000070: 1319 a5be 0c4e 583e a9eb 513e 541f 903e
00000080: 698f 8fbe 51e0 e3bb d6a1 ad3e 9ae8 a2be
00000090: 2b01 543e a548 fabd 6c2a 3b3e fdf7 09be
000000a0: 49e5 aa3e de20 233d 03e8 233e f878 833d
000000b0: 23f2 2f3b 1ab5 47bd aede c6be e070 63be
000000c0: 2e5a 8c3e 70ff 1fbe 0368 473e 0556 38be
000000d0: ba72 f5bd d063 1fbe 17b2 34be 5b6a 323d
000000e0: c116 52be 4add 5dbe 528d c4bd 7e06 0b3e
000000f0: a848 1b3b 5de7 3f3e acbb 10bd fe75 22be
00000100: b481 153d 318c 89bd b153 31be 238a f53d
00000110: 5035 003e 009c 93be 46db 81bc 1727 afbc
00000120: 120c 85be a589 d1bd 823c 53be f187 b5be
00000130: db91 b33d 84a5 4cbe 9702 373e b121 33be
00000140: 711f 95be 71ed 89be 7192 6dbe 1ed2 093e
00000150: 6c92 68be dcc4 15be bad9 3cbc d548 83be
00000160: c6e3 98be 86f0 513e be6e a4be 5b86 6cbe
00000170: e328 143e dbea b53a c013 3e3e 6a9e 89be
00000180: e484 d03d 7e41 99bc 9f85 a7be 5def 6fbe

head.bias f4 [2]
-0.12173303 0.042613886
00000000: 2b4f f9bd e68b 2e3d
