trained_models/20220214/adult/adv_debiasing/mlp_sex_seed4_epochs50_bs128_lr0.0005_decay0.0005_adv_lamb100.0_eta0.003_constrainteo.pt (torch, 21919 bytes, 4 tensors)

features.0.weight f4 [50, 98]
-0.0067104255 -0.26624224 -0.0052145957 -0.063585356 -0.046659634 -0.0029351718 0.027969902 0.03842857
0.073610805 0.034110785 0.030080665 0.022557426 0.061260372 0.03247021 0.08806792 0.29893214
0.12960766 -0.0771763 -0.018772177 0.0076651173 0.09822092 -0.23964563 -0.27421844 -0.057020396
0.16147992 -0.14278182 0.004762424 -0.07159973 0.17636503 0.01740905 0.34217197 0.10527255
0.053733412 0.0039384402 0.008635136 -0.09055639 0.025131099 0.10698757 0.024741821 0.020162957
0.3495751 0.100395545 0.10058171 -0.07330179 -0.12717815 -0.05532121 0.021085594 0.027112167
0.005407313 0.06930382 -0.16041707 -0.05104091 0.04458761 -0.044782806 -0.07612847 0.29840824
-0.015403533 0.18419912 0.028912516 0.017461717 -0.0105268415 0.088886485 0.036750503 0.049161114
0.009739561 0.041451126 -0.017202007 -0.021553507 0.07866964 0.03319643 -0.006880603 0.026442915
0.0064594448 0.06986469 0.06607888 -0.00272817 0.011556141 -0.0021184958 -0.006440358 0.06729505
-0.016870562 0.13650405 -0.04297638 0.06496857 0.043585755 0.11461936 0.14647068 0.13839132
-0.06915328 -0.025819974 0.061280992 -0.04306795 -0.001559066 0.11023077 0.025396833 -0.087882765
-0.006115498 -0.053427402 0.0063768732 -0.14197084 0.0005301058 0.03776585 0.00016618455 0.003872169
-0.024361825 -0.06962242 -0.047964998 -0.016483564 -0.016626364 -0.027829252 0.10535702 -0.041662097
0.106323205 -0.1301263 0.09664911 0.36220303 -0.027501425 0.027256222 -0.020686934 -0.047936853
0.0043243635 -0.030183999 0.0068007605 0.078231916 0.16274232 -0.07529678 0.017080953 0.12769091
-0.013235685 -0.039304886 -0.0062132245 0.1565517 0.0765617 -0.11197385 -0.0060515497 -0.028925993
0.14080472 -0.02389395 -0.00434087 0.14307085 0.1330021 0.09309052 -0.08211279 -0.027768623
0.055594247 -0.02034907 -0.02013286 -0.09784442 -0.015347493 0.07095307 0.1282392 0.07034233
-0.010129551 -0.17737068 0.08998689 0.0627827 0.09791634 0.14207226 -0.031456333 0.014062485
-0.024815682 0.059144113 0.06408668 0.09679665 0.013605385 -0.015386778 0.1242198 0.09132126
0.022276439 -0.041202005 0.12021177 -0.0088342745 -0.021715086 0.20594795 0.07074717 0.15295134
-0.012128304 0.038437963 0.054540083 0.2546526 0.13762769 -0.034756266 -0.00595697 -0.022723343
0.017848838 -0.10346585 0.15163659 -0.014261844 0.0003768267 0.1503833 0.09376665 0.0245922
-0.083508186 0.07684521 0.040510647 0.2201986 -0.0130591 0.010562798 0.020544732 -0.11373683
-0.021266397 -0.016436627 0.00462059 0.034458827 -0.04464955 -0.016518755 -0.04401924 0.02632397
0.063396364 0.08130058 0.005739149 0.08319518 0.07051169 0.07635869 0.06681596 0.07001673
0.05787631 -0.03984624 -0.061400563 0.0737271 0.044578783 -0.010163026 -0.11045187 0.0128589375
0.04632344 -0.04026819 -0.03168255 -0.101813205 -0.05884164 0.10914154 -0.0731746 -0.035342414
0.014958555 0.26189655 0.0024571312 0.030530766 0.07178585 -0.053284805 0.074497245 0.11832404
-0.15620002 0.068200685 -0.08583722 0.0050763106 0.0048811473 0.04841298 -0.16085707 0.04482592
0.019951724 0.014263025 -0.09154679 0.19292308 -0.10053479 0.015426576 -0.11651616 -0.057001907
00000000: 21e3 dbbb e750 88be 33df aabb 0a39 82bd
00000010: 2c1e 3fbd 035c 40bb 2321 e53c 4767 1d3d
00000020: 43c1 963d c0b7 0b3d ba6b f63c 5aca b83c
00000030: 28ec 7a3d 7cff 043d f45c b43d a20d 993e
00000040: dfb7 043e 9c0e 9ebd 1cc8 99bc aa2b fb3b
00000050: 0d28 c93d aa65 75be 5c66 8cbe 388e 69bd
00000060: fe5a 253e 6635 12be 1c0e 9c3b e1a2 92bd
00000070: 0999 343e 6d9d 8e3c 2a31 af3e 2299 d73d
00000080: 9117 5c3d 080e 813b 637a 0d3c a175 b9bd
00000090: bcdf cd3c 4d1c db3d 5caf ca3c c92c a53c
000000a0: 82fb b23e 2e9c cd3d c9fd cd3d 401f 96bd
000000b0: fd3a 02be 7e98 62bd b2bb ac3c 561a de3c
000000c0: d42f b13b 29ef 8d3d 5f44 24be 4610 51bd
000000d0: 7fa1 363d 2d6e 37bd 3ee9 9bbd f7c8 983e
000000e0: 1a5f 7cbc b29e 3c3e f1d9 ec3c e00b 8f3c
000000f0: c678 2cbc 1e0a b63d b287 163d 2a5d 493d
00000100: ae92 1f3c a8c8 293d 39eb 8cbc fb90 b0bc
00000110: 8c1d a13d fbf8 073d ae76 e1bb d09e d83c
00000120: c0a9 d33b 3815 8f3d 5d54 873d 19cb 32bb
00000130: f855 3d3c 76d6 0abb a309 d3bb fdd1 893d
00000140: 2234 8abc b8c7 0b3e 0008 30bd 3e0e 853d
00000150: fa86 323d 8ebd ea3d 69fc 153e 74b6 0d3e
00000160: 3ca0 8dbd 6984 d3bc c701 7b3d 0568 30bd
00000170: 9359 ccba acc0 e13d 050d d03c e1fb b3bd
00000180: 8464 c8bb b1d6 5abd 17f5 d03b ce60 11be
00000190: ccf6 0a3a 5db0 1a3d d341 2e39 37c4 7d3b
000001a0: 7392 c7bc 3396 8ebd f276 44bd 8a08 87bc
000001b0: 0334 88bc 2cfa e3bc 6cc5 d73d e0a5 2abd
000001c0: fbbf d93d d43f 05be f8ef c53d ad72 b93e
000001d0: ab4a e1bc 7148 df3c a577 a9bc 6f59 44bd
000001e0: 64b3 8d3b 6f44 f7bc ead8 de3b 0e38 a03d
000001f0: eca5 263e 3335 9abd 5bed 8b3c 68c1 023e
00000200: 7dda 58bc 29fe 20bd 4e98 cbbb 174f 203e
00000210: 61cc 9c3d 8c52 e5bd 144c c6bb 34f6 ecbc
00000220: 1d2f 103e 3fbd c3bc db3d 8ebb 2a81 123e
00000230: b431 083e 3ea6 be3d c02a a8bd 067b e3bc
00000240: cbb6 633d 18b3 a6bc abed a4bc a862 c8bd
00000250: 0d74 7bbc d84f 913d 2351 033e a40f 903d
00000260: 6bf6 25bc a9a0 35be 0c4b b83d 3794 803d
00000270: 5d88 c83d 647b 113e 5bd8 00bd 5666 663c
00000280: 424a cbbc 1941 723d e13f 833d 523d c63d
00000290: 1fe9 5e3c d318 7cbc f366 fe3d a406 bb3d
000002a0: 147d b63c 6fc3 28bd 9731 f63d a2bd 10bc
000002b0: d6e3 b1bc 05e4 523e e4e3 903d 479f 1c3e
000002c0: cbb5 46bc 2071 1d3d 6c65 5f3d d361 823e
000002d0: 46ee 0c3e 965c 0ebd b032 c3bb 4e26 babc
000002e0: ba37 923c e7e5 d3bd 9f46 1b3e 82aa 69bc
000002f0: d390 c539 14fe 193e bb08 c03d 9575 c93c
00000300: 5706 abbd 0561 9d3d 7eee 253d be7b 613e
00000310: d6f5 55bc 960f 2d3c 6d4d a83c dbee e8bd
00000320: de36 aebc 1ba6 86bc 5168 973b b324 0d3d
00000330: 72e2 36bd 5752 87bc 854d 34bd 5ea5 d73c
00000340: f4d5 813d eb80 a63d 790f bc3b 3c62 aa3d
00000350: 6f68 903d f261 9c3d ced6 883d ee64 8f3d
00000360: b60f 6d3d d035 23bd 287f 7bbd 3cfe 963d
00000370: 3e98 363d d282 26bc 9734 e2bd 4bae 523c
00000380: a6bd 3d3d 42f0 24bd 90c5 01bd 7183 d0bd
00000390: ee03 71bd 9a85 df3d 91dc 95bd 35c3 10bd
000003a0: ba14 753c 4e17 863e d207 213b a81b fa3c
000003b0: 7604 933d 2b41 5abd 0392 983d e053 f23d
000003c0: e6f2 1fbe cdac 8b3d 6dcb afbd 2e57 a63b
000003d0: 08f2 9f3b b04c 463d b7b7 24be 629b 373d
000003e0: cc71 a33c 76af 693c e27c bbbd a18d 453e
000003f0: 2fe5 cdbd c0bf 7c3c 06a0 eebd d57a 69bd

features.0.bias f4 [50]
-0.19711265 0.04323208 0.05765273 0.027749289 -0.33125865 -0.14337017 -0.009072211 -0.14458936
0.13538194 -0.055323843 0.012983038 0.0128973145 0.11245896 -0.023022207 -0.27759656 -0.08305609
-0.05359029 0.049521375 0.059695512 -0.07650095 -0.08855944 0.06453854 -0.08591965 -0.25719965
0.073117964 -0.12991367 -0.1196393 -0.07226332 -0.11168003 -0.027193768 -0.015681751 0.039029047
-0.22743885 -0.11505781 -0.13787535 -0.0881953 -0.026704444 -0.19889548 -0.21944027 -0.23995668
-0.1796274 -0.0032443553 -0.4048514 0.016661607 -0.052038886 -0.07966607 -0.039603166 -0.12093459
-0.020667506 -0.15573743
00000000: e6d7 49be 1f14 313d 4525 6c3d 7a52 e33c
00000010: bc9a a9be a1cf 12be 9ca3 14bc 3c0f 14be
00000020: 90a1 0a3e 419b 62bd cfb6 543c 424f 533c
00000030: e250 e63d 1199 bcbc 2321 8ebe 5019 aabd
00000040: 7e81 5bbd edd6 4a3d 4883 743d 88ac 9cbd
00000050: a75e b5bd c82c 843d a4f6 afbd acaf 83be
00000060: dfbe 953d 1708 05be 7305 f5bd cbfe 93bd
00000070: 80b8 e4bd 77c5 debc 0477 80bc ecdc 1f3d
00000080: bbe5 68be 6ea3 ebbd 322f 0dbe bd9f b4bd
00000090: 47c3 dabc 42ab 4bbe f3b4 60be 34b7 75be
000000a0: 3ff0 37be 409f 54bb af48 cfbe ec7d 883c
000000b0: ba26 55bd f727 a3bd ee36 22bd 8eac f7bd
000000c0: e74e a9bc a279 1fbe

head.weight f4 [2, 50]
0.39709085 -0.113754034 0.14210658 -0.23136182 -0.043025877 -0.112775676 -0.076931044 -0.12202991
0.09346908 0.022410898 0.10879288 -0.04035741 0.011286225 0.18573701 -0.30516058 -0.15559709
0.25081962 -0.10783685 0.059690494 -0.14643241 -0.027306216 0.01699507 0.059459403 0.44632137
-0.07239733 -0.06457494 0.24574234 -0.02938027 -0.1320856 0.13396686 0.022053376 0.23653562
-0.23895462 -0.11392459 -0.18408552 -0.023893122 0.295638 0.41803205 0.5552619 -0.2546593
-0.06785611 0.26237956 -0.33296728 0.024228953 0.3030269 0.058751043 -0.10193126 -0.16452406
0.0010266559 0.075176254 0.12273886 -0.25728154 -0.08531531 -0.0787097 0.35996786 -0.19116586
0.06448262 -0.08495606 -0.07409462 -0.059077214 -0.23993139 0.05339099 -0.027180241 0.16902025
-0.10405277 -0.27315426 0.022822218 -0.21122815 -0.2126974 -0.0854279 0.052192096 -0.08759818
-0.3055673 0.09625745 0.1158551 0.15651606 -0.0494563 -0.14019369 -0.2122259 -0.09190329
-0.18196163 0.032535784 0.048783116 0.03979312 -0.024636352 0.175484 0.07837833 0.18555799
0.08378534 -0.049567387 0.18297191 0.07924608 0.079120755 -0.045865852 0.1670618 -0.3113347
-0.41097283 -0.14031422 0.07065904 0.20903882
00000000: 7e4f cb3e e0f7 e8bd 6384 113e 1dea 6cbe
00000010: e73b 30bd eff6 e6bd 068e 9dbd d1ea f9bd
00000020: b86c bf3d 0f97 b73c cdce de3d d04d 25bd
00000030: dce9 383c d831 3e3e 023e 9cbe d854 1fbe
00000040: 6e6b 803e 91d9 dcbd 057e 743d 61f2 15be
00000050: 49b1 dfbc 3f39 8b3c b48b 733d 3c84 e43e
00000060: 0d45 94bd de3f 84bd e1a3 7b3e e4ae f0bc
00000070: 7341 07be 9c2e 093e 48a9 b43c 6536 723e
00000080: 85b0 74be 4c51 e9bd ea80 3cbe 82bb c3bc
00000090: dd5d 973e 4c08 d63e a525 0e3f b462 82be
000000a0: 25f8 8abd 9d56 863e b07a aabe cc7b c63c
000000b0: 5826 9b3e efa4 703d 56c1 d0bd ff78 28be
000000c0: db90 863a 02f6 993d 835e fb3d 68ba 83be
000000d0: cbb9 aebd 8d32 a1bd b54d b83e fcc0 43be
000000e0: 770f 843d 71fd adbd ecbe 97bd f3fa 71bd
000000f0: 93b0 75be 83b0 5a3d 19a9 debc a513 2d3e
00000100: 9e19 d5bd e0da 8bbe a9f5 ba3c 314c 58be
00000110: 59cd 59be d3f4 aebd 61c7 553d ad66 b3bd
00000120: 5173 9cbe a022 c53d 7045 ed3d bf45 203e
00000130: b092 4abd ef8e 0fbe bf51 59be cb37 bcbd
00000140: 2654 3abe 3e44 053d ced0 473d 1cfe 223d
00000150: 2dd2 c9bc 14b2 333e d184 a03d ea02 3e3e
00000160: a697 ab3d 2c07 4bbd fd5c 3b3e c54b a23d
00000170: 100a a23d d5dd 3bbd 4012 2b3e 4367 9fbe
00000180: 086b d2be 88ae 0fbe b0b5 903d 460e 563e

head.bias f4 [2]
-0.061961077 0.103627525
00000000: e6ca 7dbd ab3a d43d
