trained_models/20220214/adult/adv_debiasing/mlp_sex_seed2_epochs50_bs128_lr0.0005_decay0.0005_adv_lamb50.0_eta0.003_constrainteo.pt (torch, 21919 bytes, 4 tensors)

features.0.weight f4 [50, 98]
0	0x3ca77320	0.020440638
1	0xbd9541fa	-0.07287975
2	0x3d24d724	0.040244237
3	0xbbd857de	-0.0066022715
4	0x3cb05caf	0.02152857
5	0x3cc565e6	0.02409644
6	0x3c92d791	0.017925056
7	0xbd1f694c	-0.03891878
8	0xbb6292d9	-0.0034572391
9	0xbc1e540e	-0.009663595
10	0x3ca51a30	0.020154089
11	0xbc2496d1	-0.010045723
12	0xbc6524c6	-0.013985818
13	0x3dd5229b	0.10406991
14	0xbd02eee2	-0.031966098
15	0x3e3eb23d	0.1862268
16	0x3dd40f01	0.10354424
17	0x3b43fed9	0.002990654
18	0xbc26624c	-0.010155272
19	0x3dcfc33f	0.10144662
20	0xbd8362e3	-0.064153455
21	0xbc2f2619	-0.0106902355
22	0xbca38dda	-0.019965101
23	0x3db9d22a	0.09073289
24	0xbd188aaf	-0.037241634
25	0x3b95f3ac	0.004576167
26	0x3d0273f5	0.031848866
27	0xbcbdb9bd	-0.023159856
28	0xbd45c8f4	-0.048287347
29	0xbde90dba	-0.11379571
30	0xbbd19776	-0.0063962294
31	0xbd696627	-0.056982186
32	0x3e187a55	0.14890416
33	0x3dcee647	0.10102516
34	0xbd0d05af	-0.03442925
35	0xbdddbc99	-0.10826988
36	0xbd3593a7	-0.044330265
37	0x3b07d7ff	0.002072811
38	0x3d0fbb5e	0.035090797
39	0xbd32c45a	-0.043644287
40	0x3c504adb	0.012713159
41	0xbd8422c4	-0.064519435
42	0x3d8fef9e	0.07028125
43	0x3e3a3308	0.1818353
44	0xbc1fc938	-0.009752564
45	0x3d5aa018	0.053375334
46	0xbb581e63	-0.0032977096
47	0xbd77e6ec	-0.06052296
48	0xbbcc6022	-0.006237046
49	0x3d2eafc0	0.042648077
50	0x3db6c912	0.0892507
51	0x3df2d9f4	0.118579775
52	0x3c825cc8	0.015913382
53	0x3dd6e3ac	0.10492644
54	0xbdee4c0e	-0.116356
55	0xbd415997	-0.04720458
56	0xbbd323cc	-0.0064434763
57	0x3cb47515	0.022028485
58	0x3bc531c0	0.0060178936
59	0x3e021e57	0.12706886
60	0x3d5cb154	0.05388005
61	0xbdacbb43	-0.08434155
62	0x3d0d30b1	0.034470264
63	0x3e3b1434	0.18269426
64	0x3d8e7f95	0.06957928
65	0x3bc9d80a	0.006159787
66	0x3c1b113e	0.00946456
67	0x3c2f2139	0.010689073
68	0xbc6eda1f	-0.014578371
69	0x3d98215b	0.07428237
70	0xbb31b3c1	-0.0027115198
71	0x3e04649a	0.12929001
72	0xbce68c3c	-0.02814304
73	0x3c8aa758	0.016925499
74	0xbbd54c83	-0.006509365
75	0x3ccaedcb	0.024771592
76	0xbc346231	-0.011009739
77	0xbd5a022e	-0.053224735
78	0x3d0370a0	0.03208983
79	0xbcdb3db3	-0.026762819
80	0x3e2c1e62	0.16808465
81	0x3cdba062	0.026809875
82	0xbcf8d560	-0.030375183
83	0x3d589f61	0.05288637
84	0x3d8edf08	0.069761336
85	0x3cdfc876	0.027317267
86	0x3998d4c6	0.00029150228
87	0x3ddbac28	0.107261956
88	0xbdbd9f6f	-0.09258925
89	0x3a04a397	0.0005059777
90	0xbc0c305f	-0.008556454
91	0xbcaceb4e	-0.021108296
92	0x3cdb8115	0.02679495
93	0xb996e5ef	-0.00028781543
94	0xbc510184	-0.012756709
95	0x3ccc5f5e	0.024947818
96	0xbcac980b	-0.021068593
97	0x3ddd3af3	0.10802259
98	0xbdaba53a	-0.08381124
99	0xba1a5149	-0.0005886746
100	0x3d722b92	0.059123583
101	0x3cfbd512	0.030741248
102	0xbd4bb240	-0.04973054
103	0x3c53a5e3	0.012917968
104	0x3d776811	0.06040198
105	0x3d8e3419	0.069435306
106	0x3ce48deb	0.027899703
107	0x3d8fa566	0.07013969
108	0xbda12927	-0.07869177
109	0x3cf07b58	0.02935569
110	0x3d8fc3ab	0.070197426
111	0xbdf37b35	-0.11888734
112	0xbcbc571d	-0.022990758
113	0xbc9e2dff	-0.019309042
114	0xbd4d7d4d	-0.050168324
115	0xbda97dd1	-0.08275951
116	0xbc09e66c	-0.008416753
117	0x3dca3ee8	0.0987528
118	0x3d7bc779	0.06146953
119	0x3d8393b5	0.06424657
120	0x3d93f98f	0.07225334
121	0x3d055010	0.032547057
122	0xbda514d0	-0.0806061
123	0x3de14c8a	0.11000927
124	0x3d71083e	0.05884575
125	0xbd099f9e	-0.03359949
126	0xbe00e087	-0.1258565
127	0xbd82e993	-0.06392207
128	0xbdb06931	-0.08613814
129	0xbdec4304	-0.1153622
130	0xbc9a9fbf	-0.018875001
131	0x3e16e0e4	0.14734226
132	0xbcdd68ef	-0.027027575
133	0xbdd72b20	-0.10506272
134	0x3d2aabdf	0.041667815
135	0x3dcb6140	0.09930658
136	0x3d2497e8	0.04018393
137	0xbd1f8d77	-0.03895327
138	0x3d9c98d8	0.0764634
139	0x3dafc7f5	0.08583061
140	0xbd44dd5b	-0.048062664
141	0xbcd23810	-0.025661498
142	0x3d5813eb	0.05275337
143	0x3c06423a	0.008194501
144	0x3d567e1f	0.052366372
145	0x3d859a36	0.06523554
146	0xbdf5abd8	-0.11995667
147	0x3d9de438	0.07709545
148	0x3da6a78a	0.08137424
149	0xbcadbddc	-0.021208696
150	0x3c33918e	0.010959996
151	0x3ccc8236	0.024964433
152	0xbe0dd287	-0.13849841
153	0xbc0f64c9	-0.008752056
154	0xbd3cfeb6	-0.04614135
155	0xbdad548b	-0.08463391
156	0xbc44b935	-0.012007047
157	0x3d0d89ca	0.034555234
158	0x3dbbdca6	0.09172945
159	0x3d2dd54b	0.04243974
160	0xbd8c811e	-0.06860565
161	0x3c04f9d4	0.008116204
162	0xbc9a16d8	-0.01880972
163	0xbdb23bd5	-0.08702818
164	0xbc2506d3	-0.010072428
165	0x3c7fd7b5	0.015615393
166	0xbcb421dd	-0.021988804
167	0x3b8c9ece	0.004291392
168	0xbd1aeacc	-0.037821576
169	0xbd8d4550	-0.06897986
170	0xbbbce003	-0.005764009
171	0x3c6b2b2c	0.014353555
172	0x3d93f77a	0.07224937
173	0xbd32105b	-0.04347263
174	0xbda4e600	-0.080516815
175	0x3d04a53c	0.032384142
176	0xbdaee8c0	-0.08540487
177	0x3cb2168b	0.021739265
178	0x3d545c84	0.051846042
179	0x3d0f9fb9	0.035064433
180	0xbcedaec7	-0.029014004
181	0xbd05a137	-0.03262445
182	0xbac31dfe	-0.0014886258
183	0x3ce658dc	0.028118543
184	0xbdb54539	-0.08851094
185	0xbd856a0d	-0.06514368
186	0x3ce7db61	0.02830285
187	0x3d839e65	0.06426696
188	0x3dd815a2	0.10551001
189	0x3d613a9b	0.05498753
190	0x3d708874	0.05872388
191	0xbd986d46	-0.07442717
192	0x3d84ab53	0.0647799
193	0x3d830d47	0.06399017
194	0x3d4454bb	0.047932368
195	0xbe1f528b	-0.15558831
196	0xbd158383	-0.036502372
197	0xbcb9a382	-0.022660974
198	0x3cc600b9	0.024170266
199	0x3d68cc61	0.056835536
200	0xbdcf69ce	-0.101276025
201	0xbd225d01	-0.039639477
202	0xbd95a53d	-0.07306907
203	0xbd64d514	-0.05586727
204	0xbc54726b	-0.0129667325
205	0x3b8d0dd7	0.0043046284
206	0x3d6b251e	0.057408445
207	0xbb1c74f8	-0.002387343
208	0x3ce3eead	0.02782377
209	0xbd42f37a	-0.04759548
210	0xbd763847	-0.060112264
211	0xbd0f1150	-0.03492862
212	0xbd0ca9ca	-0.03434161
213	0xbd4c5f18	-0.049895376
214	0xbdce4e65	-0.10073546
215	0x3c14ab86	0.0090740975
216	0x3dbd3f03	0.09240534
217	0xbbe688c5	-0.007035347
218	0x3d517c0d	0.051143695
219	0x3de69278	0.112584054
220	0x3d80fdbd	0.06298397
221	0xbdc9fd67	-0.09862786
222	0x3dc27868	0.09495622
223	0x3d6dc2e0	0.058047175
224	0xbddfacb9	-0.10921616
225	0xbdbaaf37	-0.09115451
226	0x3c499499	0.012303495
227	0x3dad5c5b	0.08464881
228	0xbc19a0e4	-0.009376738
229	0x3c008a55	0.007845481
230	0x3b0e701b	0.00217343
231	0xbd484d23	-0.04890169
232	0xbd6a2f3b	-0.05717395
233	0x3b5ce3c5	0.0033705097
234	0x3c21aa25	0.009867226
235	0xbcc6b090	-0.024254113
236	0xbb97223a	-0.0046122344
237	0xbc97f692	-0.018550191
238	0xbd19fe0c	-0.037595794
239	0xbb195fb6	-0.0023402995
240	0xbd51e434	-0.051243022
241	0x3cfc3220	0.03078562
242	0x3de7c1a9	0.113162346
243	0xbdc3b264	-0.0955551
244	0x3d97684c	0.0739294
245	0x3d584a92	0.05280549
246	0x3d885b4e	0.0665804
247	0x3d15ed94	0.036603525
248	0xbd39f9d3	-0.045404267
249	0xbbb7321b	-0.00559069
250	0xbdd4561d	-0.10367987
251	0xbb7fa990	-0.003901098
252	0x3d5677f4	0.05236049
253	0xbd2fa1c0	-0.042878866
254	0xbdbde765	-0.09272651
255	0x3c5d5f5d	0.013511506

features.0.bias f4 [50]
0	0xbdabe808	-0.08393866
1	0xbd1d5c1a	-0.038417913
2	0x3d433415	0.04765709
3	0x3d44e939	0.04807398
4	0xbd92f60b	-0.07175835
5	0xbe1ceb33	-0.15324096
6	0xbe2ee018	-0.17077672
7	0xbdbb0ee0	-0.091336966
8	0xbdce1f2e	-0.10064541
9	0x3ca39322	0.01996762
10	0xbcd30861	-0.025760831
11	0xbbc235cd	-0.0059268237
12	0x3ca7253c	0.020403497
13	0xbdc2fa17	-0.09520357
14	0xbd9acd01	-0.07558633
15	0xbe543de0	-0.20726728
16	0x3d39079f	0.045173284
17	0x3cc3c54c	0.02389779
18	0xbd432445	-0.04764201
19	0x3c4ba16d	0.012428624
20	0xbe128c70	-0.14311385
21	0xbddec9d4	-0.108783394
22	0xbd09fe58	-0.033689827
23	0x3c7deece	0.01549883
24	0xbd60ed10	-0.05491358
25	0x3da8e605	0.08246998
26	0x3c7a3ed0	0.015273765
27	0x3d10fab4	0.03539534
28	0xbdcc585f	-0.09977793
29	0xbdb1a3a5	-0.08673791
30	0xbd4a53d4	-0.04939635
31	0x3ce3d10b	0.02780964
32	0xbda4bc78	-0.0804376
33	0xbe14f928	-0.1454817
34	0xbd997c61	-0.074944265
35	0x3d80a693	0.062817715
36	0xbd0f35f9	-0.03496358
37	0xbde864f1	-0.11347378
38	0xbde3f075	-0.11129848
39	0xbc3d57c0	-0.011556566
40	0x3c374bff	0.0111875525
41	0xbdc6fdff	-0.09716415
42	0xbdda954b	-0.106730066
43	0xbcaef64b	-0.021357676
44	0xbdef4400	-0.11682892
45	0x3c19970e	0.009374393
46	0xbc8c57ec	-0.017131768
47	0x3c30ced2	0.010791497
48	0xbdbc6a8e	-0.09200011
49	0xbca70581	-0.020388367

head.weight f4 [2, 50]
0	0xbd046fbd	-0.032333124
1	0xbcea5c48	-0.028608456
2	0x3d9e1ee4	0.07720736
3	0x3a17d87d	0.0005792452
4	0xbd8c7675	-0.068585314
5	0x3e190500	0.14943314
6	0x3c225f1a	0.009910369
7	0xbd94e261	-0.07269741
8	0x3c74fceb	0.0149528785
9	0x3e10de64	0.14147335
10	0x3db77084	0.089570075
11	0x3d77a8a4	0.060463563
12	0x3e1e09cb	0.15433423
13	0x3e0dab15	0.13834794
14	0xbd92ac67	-0.071617894
15	0xbe2e475f	-0.17019413
16	0x3cb2ce6a	0.021826942
17	0xbc207acf	-0.009794905
18	0xbe0dd446	-0.13850507
19	0x3d71c14b	0.05902223
20	0xbe42a955	-0.19009908
21	0x3e4e8b99	0.2017044
22	0xbdb0111f	-0.085970156
23	0x3ddab7aa	0.106795624
24	0xbe257437	-0.16157614
25	0x3d51b632	0.051199146
26	0x3d8d5daa	0.069026306
27	0x3d8ab53c	0.06772849
28	0x3c87ce47	0.016577853
29	0xbd7bb17f	-0.06144857
30	0x3de6536e	0.11246382
31	0x3e0c3941	0.13693716
32	0x3b83d3dd	0.004023059
33	0xbe398f30	-0.18121028
34	0xbe1e3956	-0.1545156
35	0xbdd69f46	-0.10479598
36	0xbcb2da21	-0.021832528
37	0x3e346d87	0.17619906
38	0x3e02cd57	0.12773643
39	0x3ca0085d	0.019535238
40	0x3e04ac68	0.12956393
41	0xbe5e6ffa	-0.21722403
42	0xbe648255	-0.22315343
43	0x3e197aff	0.14988326
44	0x3d762d15	0.060101587
45	0xbe4e7fc0	-0.2016592
46	0xbd14e129	-0.036347542
47	0xbd166483	-0.03671695
48	0x3e3852bd	0.18000312
49	0xbd67c876	-0.05658766
50	0xbe8bd819	-0.27313307
51	0x3dd444a9	0.103646584
52	0x3d480044	0.04882838
53	0x3d991269	0.074742146
54	0xbe09f300	-0.13471603
55	0x3d0f16a7	0.034933712
56	0xbe54fc98	-0.20799482
57	0x3d92e0c8	0.0717178
58	0x3df71ec5	0.12066416
59	0x3c8d18de	0.017223772
60	0xbdfccf65	-0.12344245
61	0xbdffcb51	-0.124899514
62	0x3dfd7915	0.1237661
63	0x3e229b03	0.15879445
64	0x3ac8f063	0.001533043
65	0x3dad1bba	0.08452554
66	0x3d33e191	0.04391629
67	0xbe488500	-0.19581985
68	0x3d5b8d44	0.05360152
69	0xbde587f8	-0.112075746
70	0xbe0f12e1	-0.13972045
71	0xbbe3d664	-0.0069530476
72	0x3e2f540b	0.17121904
73	0x3d837965	0.064196385
74	0x3d229618	0.03969392
75	0x3dda1b9f	0.106497996
76	0x3d271eba	0.040800788
77	0x3d718a37	0.058969703
78	0xbd846b09	-0.06465728
79	0xbda5fede	-0.08105253
80	0xbe1389a1	-0.1440797
81	0x3ddee666	0.10883789
82	0xbdef7f84	-0.116942436
83	0xbca937b0	-0.020656437
84	0x3d925e9c	0.071469516
85	0x3c0d1b65	0.008612488
86	0xbdf9526c	-0.12173924
87	0x3d2c1959	0.04201636
88	0x3dd4c763	0.103895925
89	0xbdb22c22	-0.08699824
90	0x3cdf15ae	0.027232017
91	0xbd5cb087	-0.053879287
92	0xbae7931f	-0.0017667747
93	0x3c8ddc1a	0.017316867
94	0xbe420c46	-0.18949994
95	0xbddf9b2c	-0.109182686
96	0xbdc9d5a1	-0.098551996
97	0x3dadb8a1	0.08482481
98	0xbe78fc4a	-0.2431499
99	0x3db58477	0.08863156

head.bias f4 [2]
0	0xbc059b96	-0.00815477
1	0xbd52902a	-0.051407017
