trained_models/20220214/adult/adv_debiasing/mlp_sex_seed3_epochs50_bs128_lr0.0005_decay0.0005_adv_lamb20.0_eta0.003_constrainteo.pt (torch, 21919 bytes, 4 tensors)

features.0.weight f4 [50, 98]
-0.19419041 -0.19744788 -0.012127779 -0.31611747 -0.18327719 -0.116128094 0.0019935912 0.019590594
0.04386113 -0.005861475 0.1093518 0.046365704 -0.0075153443 -0.07644567 -0.12013852 0.14378135
-0.11659024 0.2028457 0.11512129 0.29038846 -0.0069611687 -0.031275712 -0.049289133 0.03882214
-0.03541303 -0.066530995 -0.054944504 -0.016259445 -0.03944098 -0.103070274 0.14019236 0.01433039
-0.04736676 0.003233851 -0.050076704 -0.115929425 -0.06129477 0.0136389965 0.011891886 -0.0549482
0.20010927 0.20625375 0.102903195 -0.09176979 0.040619105 -0.06573986 -0.027284663 -0.04005691
-0.14198315 0.01848177 0.036859613 -0.18622598 0.07816406 0.5124771 -0.1818227 0.029269995
-0.010180191 -0.010192162 0.055265475 0.020007689 -0.008693749 -0.0019153403 -0.045627512 -0.002462305
0.014742963 0.0109689515 -0.04831039 -0.026459847 0.11120344 0.004809148 0.0201872 0.07602231
0.05117094 -0.00937107 0.043019276 0.024059951 -0.0239766 0.039808415 -0.022565074 0.029827615
0.014235887 -0.087215014 -0.057506826 -0.028083054 0.016983349 -0.074184336 -0.029433168 -0.053431697
-0.07325869 -0.019496487 0.046229854 0.05196929 -0.0006002294 0.09101447 0.08779161 0.075952634
-0.04779447 0.14636461 -0.00039171844 -0.18184131 0.0032358975 -0.12312067 0.03557698 0.0010497458
-0.008998781 0.0031758973 -0.031485654 0.0029300463 0.007378389 -0.010560635 0.016546765 0.15968761
0.0193654 -0.07558523 0.017540323 -0.024584314 0.08884637 0.17239513 0.012175705 0.012983013
0.06751495 -0.11829164 -0.06205081 -0.2654717 -0.07183249 -0.14355716 -0.023141313 0.041544307
0.045131017 -0.050407745 0.030638805 0.07664364 0.024607586 0.02748683 -0.014552536 0.008891854
-0.0048625837 -0.018031513 -0.12649167 0.057804797 -0.049321696 0.01131958 0.064769335 -0.016291982
0.054306157 0.008000736 -0.003429323 -0.12116444 -0.16460893 -0.0049410304 0.01606439 0.38044474
-0.006846732 0.33062944 0.04732836 -0.008295296 0.013090115 0.009323836 0.0052823853 -0.08325803
0.0050663487 0.015246383 -0.08118166 -0.046990238 -0.06388555 -0.032892082 0.09622326 0.038959254
-0.01806193 -0.0383269 -0.009518284 -0.02890887 -0.046669744 -0.050638635 0.00609788 0.01632025
-0.078781664 -0.007889745 0.06175796 0.11609738 0.08253163 0.02914004 0.06533133 0.06833102
0.016312031 -0.013902528 0.035523694 0.046926726 0.008793212 -0.0033846581 0.086884655 -0.04297696
-0.041712828 0.033407364 0.037108757 0.22525395 0.005278494 0.00045811536 0.0013485298 0.05895144
0.00800697 0.009908523 0.03380503 0.03983275 0.09822744 0.0025079986 0.062896036 0.032202113
0.116754234 -0.043872528 -0.0733865 0.048181035 0.039782897 0.08163858 -0.08778775 -0.06688267
0.05702711 0.011784837 0.004440293 0.11363618 0.0074720993 -0.24682815 -0.081117384 0.12264158
0.009205503 -0.040522184 0.21398726 0.049730305 0.2716899 -0.084443994 -0.025040222 0.023690615
0.060066644 0.099207886 0.035349358 0.06953781 -0.0986241 -0.016034689 0.120043606 0.059210464
0.0010321087 0.06817596 -0.11704849 0.05912643 0.08907804 -0.013281114 -0.05110745 0.05315446
-0.03559534 -0.06356699 0.101793095 0.20714226 0.15022649 -0.061284415 -0.018310575 -0.0872471
00000000: dad9 46be c72f 4abe 98b3 46bc 26da a1be
00000010: 04ad 3bbe 91d4 edbd e9a6 023b 747c a03c
00000020: baa7 333d 9e11 c0bb d6f3 df3d f7e9 3d3d
00000030: 4743 f6bb 8c8f 9cbd 2f0b f6bd 6b3b 133e
00000040: ddc6 eebd c8b6 4f3e b6c4 eb3d ccad 943e
00000050: 841a e4bb f61a 00bd 67e3 49bd f703 1f3d
00000060: 410d 11bd 6741 88bd 7d0d 61bd 8732 85bc
00000070: dd8c 21bd 8216 d3bd 968e 0f3e 03ca 6a3c
00000080: a603 42bd 04ef 533b 3b1d 4dbd 686c edbd
00000090: 3a10 7bbd 1976 5f3c 2fd6 423c 5d11 61bd
000000a0: 72e9 4c3e 2f34 533e e9be d23d cdf1 bbbd
000000b0: 3860 263d 9fa2 86bd 1684 dfbc b712 24bd
000000c0: 0864 11be 1567 973c 1bfa 163d 06b2 3ebe
000000d0: 7b14 a03d b331 033f bb2f 3abe a1c7 ef3c
000000e0: d1ca 26bc 07fd 26bc 0d5e 623d 2ae7 a33c
000000f0: 3a70 0ebc 280c fbba eae3 3abd 9f5e 21bb
00000100: 788c 713c 1eb7 333c 1ee1 45bd 52c2 d8bc
00000110: a1be e33d 0f96 9d3b a05f a53c 96b1 9b3d
00000120: 9f98 513d 1e89 19bc fb34 303d 6019 c53c
00000130: 936a c4bc 260e 233d 64da b8bc 0b59 f43c
00000140: a33d 693c c99d b2bd 478c 6bbd 6f0e e6bc
00000150: aa20 8b3c f5ed 97bd d41d f1bc 32db 5abd
00000160: a708 96bd 19b7 9fbc 845b 3d3d c0dd 543d
00000170: b758 1dba cb65 ba3d 16cc b33d 0e8d 9b3d
00000180: 22c4 43bd 9be0 153e 8f5f cdb9 9c34 3abe
00000190: 5a11 543b b126 fcbd 2bb9 113d a097 893a
000001a0: a06f 13bc b722 503b 1af7 00bd 0506 403b
000001b0: 6ac6 f13b 8306 2dbc 158d 873c 2685 233e
000001c0: 30a4 9e3c 6ecc 9abd b9b0 8f3c 0b65 c9bc
000001d0: 16f5 b53d 5988 303e 9c7c 473c b4b6 543c
000001e0: 4745 8a3d e342 f2bd fd28 7ebd e8eb 87be
000001f0: ea1c 93bd a600 13be da92 bdbc 5d2a 2a3d
00000200: 4ddb 383d 5a78 4ebd 3bfe fa3c 57f7 9c3d
00000210: d995 c93c 0f2c e13c c36d 6ebc 24af 113c
00000220: 4f56 9fbb d3b6 93bc 0887 01be b9c4 6c3d
00000230: 8c05 4abd c275 393c c9a5 843d c376 85bc
00000240: 2270 5e3d 8515 033c 7ebe 60bb 1025 f8bd
00000250: 3e8f 28be 5ee8 a1bb 7899 833c a7c9 c23e
00000260: 8d5a e0bb 4348 a93e 62db 413d fee8 07bc
00000270: ec77 563c 01c3 183c dc17 ad3b 3083 aabd
00000280: 9d03 a63b f7cb 793c 9242 a6bd d678 40bd
00000290: 6dd6 82bd d9b9 06bd b310 c53d bd93 1f3d
000002a0: 9df6 93bc abfc 1cbd 94f2 1bbc 4bd2 ecbc
000002b0: c628 3fbd 756a 4fbd bad0 c73b 0cb2 853c
000002c0: 4858 a1bd fd43 01bc eaf5 7c3d 77c4 ed3d
000002d0: 5806 a93d 18b7 ee3c 6fcc 853d 22f1 8b3d
000002e0: cfa0 853c 6ec7 63bc 4b81 113d 3d36 403d
000002f0: 6711 103c 24d1 5dbb 95f0 b13d 9c08 30bd
00000300: 12db 2abd 29d6 083d 5aff 173d f9a8 663e
00000310: 38f7 ac3b 342f f039 27c1 b03a 1177 713d
00000320: ab2f 033c 5c57 223c 2577 0a3d aa27 233d
00000330: 782b c93d 3c5d 243b a3cf 803d 5de6 033d
00000340: d81c ef3d aeb3 33bd a94b 96bd 7a59 453d
00000350: 64f3 223d 2132 a73d 10ca b3bd c8f9 88bd
00000360: 4295 693d 3015 413c e17f 913b 16ba e83d
00000370: 83d8 f43b 85c0 7cbe df20 a6bd 822b fb3d
00000380: aed2 163c 97fa 25bd 7a1f 5b3e 01b2 4b3d
00000390: f01a 8b3e f9f0 acbd 2721 cdbc d212 c23c
000003a0: 7108 763d 812d cb3d 7dca 103d d769 8e3d
000003b0: 6ffb c9bd 2e5b 83bc 6cd9 f53d ac86 723d
000003c0: d247 873a d69f 8b3d 1eb7 efbd 8e2e 723d
000003d0: 8c6e b63d 0899 59bc 0c56 51bd 7eb8 593d
000003e0: 6bcc 11bd 692f 82bd e678 d03d 1a1d 543e
000003f0: f9d4 193e 5e05 7bbd 0f00 96bc 9cae b2bd

features.0.bias f4 [50]
-0.18643211 -0.043503672 -0.055915684 -0.18977074 -0.09845476 0.016585035 -0.20916964 -0.10250334
-0.09256856 -0.20138064 -0.008347168 -0.13999215 -0.05292617 0.05474224 0.062817596 -0.054296922
-0.033340503 -0.073650986 -0.087465696 -0.027378833 -0.074235305 -0.19684651 0.021337414 -0.08473431
-0.08791456 -0.16424847 -0.14552507 -0.029716972 -0.08209363 0.019686364 -0.04761927 -0.100766905
-0.088883065 -0.11294797 0.063920684 0.021209208 -0.010843103 -0.118267715 0.015433806 -0.07455534
-0.07214359 -0.07457458 0.041182622 -0.09865302 -0.122542165 -0.045528006 -0.14729382 -0.0010985545
0.061517876 -0.093077384
00000000: 0fe8 3ebe e830 32bd d807 65bd 4353 42be
00000010: a6a2 c9bd 57dd 873c 9130 56be 45ed d1bd
00000020: 9694 bdbd ba36 4ebe 8fc2 08bc 1a5a 0fbe
00000030: 1dc9 58bd 6639 603d 83a6 803d 7366 5ebd
00000040: 0d90 08bd 54d6 96bd 3721 b3bd 9349 e0bc
00000050: ae08 98bd 2292 49be cdcb ae3c 2f89 adbd
00000060: 8d0c b4bd c030 28be 8604 15be 0271 f3bc
00000070: b520 a8bd 4c45 a13c 6c0c 43bd e15e cebd
00000080: 5308 b6bd 4451 e7bd d9e8 823d efbe ad3c
00000090: 45a7 31bc 5836 f2bd 13de 7c3c 78b0 98bd
000000a0: 05c0 93bd 8fba 98bd 1caf 283d 980a cabd
000000b0: 63f7 fabd 937b 3abd 31d4 16be 5ffd 8fba
000000c0: 2bfa 7b3d 5b9f bebd

head.weight f4 [2, 50]
-0.09116144 0.15966731 -0.20355134 0.26911294 -0.0297457 -0.05375648 -0.16576123 0.26384312
-0.100371614 -0.25813457 0.34935358 0.36624274 0.3638451 -0.14112906 -0.2310579 0.022971433
0.028737593 -0.25782987 0.30291617 0.3882716 -0.047269735 0.29232144 0.024715643 0.2651123
0.06027419 -0.283043 -0.055505533 -0.08282374 0.24706985 0.21090549 0.013016246 -0.076543175
0.16145834 0.34806925 -0.2133527 -0.16955611 0.26675943 0.21130663 0.24352689 -0.26919535
0.14224628 0.25395733 0.13644873 -0.010861597 0.120341934 -0.09343479 -0.02918974 -0.19307326
-0.014541829 -0.20257945 -0.33506283 -0.5042579 -0.121589795 0.26071417 -0.34229493 -0.015048412
-0.46514505 -0.07736452 0.051389717 0.2877283 -0.01647027 0.13186799 0.03128581 0.008118082
-0.35180268 -0.054063316 0.15524518 0.29485753 -0.4733212 -0.20470333 0.30759653 0.012446284
-0.16776128 -0.03280366 -0.2542031 0.07086887 0.273804 0.24087484 -0.1796033 1.4315239e-05
0.23631392 0.27807182 -0.37267694 -0.33506796 -0.2676846 -0.030889947 0.11925735 0.17202438
0.17816709 -0.22731034 0.2540199 -0.34321404 -0.20941524 0.18269365 0.14759181 -0.52302307
0.23633578 -0.17724396 -0.31604844 -0.30191925
00000000: d9b2 babd d47f 233e c36f 50be 2cc9 893e
00000010: 41ad f3bc c12f 5cbd 50bd 29be 7216 873e
00000020: a28f cdbd 372a 84be 79de b23e 2b84 bb3e
00000030: e849 ba3e 2384 10be 719a 6cbe 962e bc3c
00000040: 1a6b eb3c 4702 84be d417 9b3e 89cb c63e
00000050: e99d 41bd 28ab 953e 7678 ca3c cdbc 873e
00000060: 12e2 763d 03eb 90be c559 63bd 7e9f a9bd
00000070: e1ff 7c3e 9cf7 573e 1842 553c abc2 9cbd
00000080: 5655 253e 2236 b23e 2179 5abe 1ea0 2dbe
00000090: b194 883e c460 583e 1d5f 793e f9d3 89be
000000a0: 02a9 113e b206 823e 37b9 0b3e d7f4 31bc
000000b0: d575 f63d bd5a bfbd 521f efbc ffb4 45be
000000c0: da40 6ebc fd70 4fbe 5b8d abbe 0c17 01bf
000000d0: 1204 f9bd 547c 853e 4841 afbe 9d8d 76bc
000000e0: 7e27 eebe 4a71 9ebd 067e 523d 2051 933e
000000f0: a9ec 86bc 6708 073e 8d25 003d b401 053c
00000100: 7b1f b4be 7f71 5dbd 98f8 1e3e 91f7 963e
00000110: 2857 f2be c09d 51be 4b7d 9d3e 80eb 4b3c
00000120: 9dc9 2bbe 215d 06bd e926 82be b323 913d
00000130: 0a30 8c3e e5a7 763e ede9 37be 7c2b 7037
00000140: 47fc 713e 6e5f 8e3e 83cf bebe 078e abbe
00000150: f50d 89be ea0c fdbc 333d f43d 2927 303e
00000160: 6f71 363e 0bc4 68be e50e 823e c0b9 afbe
00000170: f370 56be 0b14 3b3e 4f22 173e d7e4 05bf
00000180: 0202 723e 717f 35be 1ad1 a1be 2995 9abe

head.bias f4 [2]
0.014326623 0.02719093
00000000: 36ba 6a3c 83bf de3c
