trained_models/20220214/adult/adv_debiasing/mlp_sex_seed0_epochs50_bs128_lr0.0005_decay0.0005_adv_lamb0.1_eta0.001_constrainteo.pt (torch, 21919 bytes, 4 tensors)

features.0.weight f4 [50, 98]
0.015032219 0.076122336 -0.07743054 0.23429933 -0.04774819 0.00789636 0.03812918 0.0924315
0.012368649 -0.04569036 -0.12282316 0.06122568 -0.01804741 -0.09116868 -0.055641543 -0.059525725
0.038445644 0.014609854 -0.031075338 -0.012675452 0.023494504 0.062486056 0.023288703 0.061589904
-0.044872597 0.025592556 -0.005231127 -0.08234614 -0.00742611 -0.037367303 0.0038008909 0.11862744
0.008961231 -0.08080326 -0.08677414 -0.06414851 -0.015922952 0.079399936 0.023948792 0.101042606
0.0016483631 -0.0934254 0.03373931 -0.10091805 -0.039093062 -0.060819026 0.03838503 0.047971267
-0.015610282 -0.02025087 0.09252783 0.06800516 0.011382194 -0.0426807 0.008396474 -0.031513356
0.046994735 -0.060446963 -0.028754342 -0.0049736826 0.016812298 0.023726305 -0.019916791 0.02578807
0.039121337 0.015815608 -0.020336501 -0.005112997 0.047779165 0.07182614 -0.0027938967 0.00679238
0.032778833 0.07913469 0.07035482 0.07704908 0.037115753 -0.029948588 0.009241696 -0.017571721
-0.024201965 0.042946547 0.05527315 0.002065758 0.023661805 0.014682676 -0.00021178028 -0.01668296
-0.010040078 -0.015023559 -0.009182801 0.035541363 0.04562986 0.030898383 -0.046348304 -0.022203527
0.052875884 0.01834564 -0.21266669 -0.060165867 0.0072396477 -0.120536886 -0.04419413 -0.14909859
-0.06892569 0.05364226 -0.025355313 -0.08267928 -0.07783059 0.021123495 0.01568083 0.09307737
-0.016585857 0.12631054 0.057647217 -0.114609964 -0.06495367 -0.010275931 0.078900866 0.025401184
-0.006796515 0.018094158 -0.025961138 -0.0112224845 0.016388042 -0.024969667 -0.02099807 0.046007253
-0.008986907 -0.17565548 0.007938414 0.090303175 -0.09297792 0.063556746 0.14705946 0.015692238
-0.042124465 -0.0844799 0.04012551 0.094567835 0.096987754 0.10937514 0.058197375 -0.07529194
-0.07813629 -0.019884495 0.042770375 -0.037855174 -0.069920056 0.011114134 0.042526133 -0.040141985
-0.0140820965 -0.0452623 -0.012991377 -0.014794179 0.043503907 0.037550088 -0.0026387486 0.010993643
0.01457634 -0.017435113 -0.04285026 -0.008527793 0.023786033 0.00046014448 -0.031242086 0.030016273
0.0116950525 0.0069379467 0.06817598 -0.00015162589 0.06967278 0.039363515 -0.007594357 0.040904045
0.017356204 -0.031353585 0.047283128 -0.050229162 -0.029043034 0.03268359 0.045346167 0.05085955
0.013482015 0.049593255 -0.038258746 0.040207967 -0.004651698 0.06469895 0.057636507 0.05477299
-0.016867574 0.014470722 -0.010378401 -0.036071286 -0.22485669 -0.009250938 -0.054051246 -0.27911496
-0.03921824 0.1258615 -0.06828587 -0.041208368 -0.114461124 0.0477902 0.043043163 0.10081499
0.009742346 0.04022995 -0.021819802 -0.03954483 0.023723269 -0.12227457 0.0130524095 -0.00809148
-0.13441193 -0.059886888 0.06466492 -0.07502447 0.07735026 0.062124856 0.01059007 -0.0994153
-0.07487887 0.033123087 -0.017391128 -0.104658425 -0.006745561 0.11092594 0.019753559 0.07246303
0.031039437 0.05676968 0.084425494 -0.025178863 0.066906296 -0.12058441 -0.04128822 0.04246661
0.025844865 0.095881656 -0.08708649 -0.08294554 -0.022665638 -0.06116632 0.0123898955 -0.028029252
0.06245704 0.033683483 -0.01937927 -0.03416822 0.034123417 -0.006234784 -0.051375493 -0.016295698
00000000: b249 763c 07e6 9b3d e793 9ebd 2aec 6f3e
00000010: 9b93 43bd bc5f 013c 582d 1c3d ba4c bd3d
00000020: e0a5 4a3c d125 3bbd b58a fbbd c7c7 7a3d
00000030: 29d8 93bc a5b6 babd 63e8 63bd 3fd1 73bd
00000040: 2e79 1d3d 2b5e 6f3c b591 febc b3ac 4fbc
00000050: 8c77 c03c 61f1 7f3d f3c7 be3c b245 7c3d
00000060: 54cc 37bd 7ba7 d13c e069 abbb 18a5 a8bd
00000070: ba56 f3bb 750e 19bd 5e18 793b f1f2 f23d
00000080: 21d2 123c 2e7c a5bd a4b6 b1bd 4b60 83bd
00000090: da70 82bc 6f9c a23d 4230 c43c 6def ce3d
000000a0: e30d d83a d155 bfbd 3b32 0a3d 1fae cebd
000000b0: 0c20 20bd 5f1d 79bd 9f39 1d3d 857d 443d
000000c0: 45c2 7fbc 27e5 a5bc 3b7f bd3d 4a46 8b3d
000000d0: 627c 3a3c f5d1 2ebd 5d91 093c 2614 01bd
000000e0: 8d7d 403d 3c97 77bd 3a8e ebbc 46fa a2bb
000000f0: f2b9 893c ab5d c23c 8a28 a3bc 8141 d33c
00000100: b23d 203d bc8f 813c bc98 a6bc ed8a a7bb
00000110: 16b4 433d 9519 933d cf19 37bb 9d92 de3b
00000120: 1943 063d 5e11 a23d 3016 903d e8cb 9d3d
00000130: b006 183d be56 f5bc 7c6a 173c 92f2 8fbc
00000140: 3343 c6bc b8e8 2f3d 1966 623d ab61 073b
00000150: 67d6 c13c 9b8f 703c 5611 5eb9 b4aa 88bc
00000160: 247f 24bc 6025 76bc 7573 16bc d293 113d
00000170: 60e6 3a3d 9b1e fd3c b8d7 3dbd 2ce4 b5bc
00000180: 6294 583d 9849 963c 4cc5 59be 7c70 76bd
00000190: 913a ed3b 0bdc f6bd e704 35bd 4dad 18be
000001a0: ea28 8dbd fdb7 5b3d f2b5 cfbc c153 a9bd
000001b0: a565 9fbd 2e0b ad3c 1675 803c 599f be3d
000001c0: 10df 87bc 8d57 013e 7d1f 6c3d a1b8 eabd
000001d0: 6e06 85bd 615c 28bc c796 a13d 2516 d03c
000001e0: 4db5 debb 333a 943c 74ac d4bc 83de 37bc
000001f0: 3740 863c 308d ccbc 2504 acbc 1a72 3c3d
00000200: d23d 13bc 08df 33be 1f10 023c dff0 b83d
00000210: 356b bebd 0a2a 823d c196 163e 028d 803c
00000220: b48a 2cbd cc03 adbd a65a 243d c8ac c13d
00000230: 84a1 c63d 1300 e03d 5f60 6e3d a932 9abd
00000240: eb05 a0bd cfe4 a2bc fd2f 2f3d 070e 1bbd
00000250: 3f32 8fbd 0f18 363c e22f 2e3d ec6b 24bd
00000260: 98b8 66bc f664 39bd c9d9 54bc 4963 72bc
00000270: 2731 323d 1fce 193d dbee 2cbb ae1e 343c
00000280: 9ad1 6e3c 15d4 8ebc c183 2fbd 28b8 0bbc
00000290: edda c23c 8c3f f139 67ef ffbc b0e4 f53c
000002a0: 9b9c 3f3c b757 e33b d99f 8b3d c4fd 1eb9
000002b0: 9ab0 8e3d a33b 213d 15da f8bb 008b 273d
000002c0: 992e 8e3c 9e6c 00bd f4ab 413d 18bd 4dbd
000002d0: a8eb edbc 3adf 053d e7bc 393d 1a52 503d
000002e0: abe3 5c3c 4c22 4b3d 34b5 1cbd 1cb1 243d
000002f0: 456d 98bb e280 843d 4214 6c3d a559 603d
00000300: de2d 8abc 9b16 6d3c 2b0a 2abc 7cbf 13bd
00000310: d540 66be 3f91 17bc d764 5dbd 28e8 8ebe
00000320: 4ea3 20bd d6e1 003e 76d9 8bbd 1bca 28bd
00000330: 986a eabd a8bf 433d 074e 303d 1778 ce3d
00000340: 5c9e 1f3c 29c8 243d 71bf b2bc c2f9 21bd
00000350: 4d57 c23c 176b fabd c6d9 553c 2092 04bc
00000360: 48a3 09be f44b 75bd 0b6f 843d 6ea6 99bd
00000370: d069 9e3d a276 7e3d f981 2d3c 409a cbbd
00000380: 185a 99bd 13ac 073d d777 8ebc 2857 d6bd
00000390: de09 ddbb 242d e33d 37d2 a13c 7f67 943d
000003a0: 6b46 fe3c 5387 683d 46e7 ac3d e743 cebc
000003b0: 2b06 893d f6f4 f6bd d61d 29bd 78f1 2d3d
000003c0: 9cb8 d33c 9a5d c43d 675a b2bd 5adf a9bd
000003d0: 4aad b9bc 8989 7abd fdfe 4a3c 9a9d e5bc
000003e0: f4d2 7f3d b1f7 093d 46c1 9ebc faf3 0bbd
000003f0: ffc4 0b3d 294d ccbb 1c6f 52bd 8e7e 85bc

features.0.bias f4 [50]
0.014117585 -0.021365464 0.11265827 0.058143783 0.03249285 -0.050507337 -0.02883941 0.13113792
0.085122764 0.028618708 -0.0392803 -0.07596402 -0.024531621 0.033401705 0.023304002 0.011420622
-0.0034981302 -0.0554477 0.046546437 0.13377899 0.12121993 -0.05016999 0.10896516 0.0035682893
0.121631324 0.0006168024 0.050793283 -0.010792354 0.035157483 0.17484616 0.11964791 -0.012655505
-0.00639139 0.02603901 0.11303265 -0.021974329 0.116568826 0.09218245 0.07850757 0.0022403058
0.028513331 0.021625312 0.19399323 0.09330822 -0.014073346 0.19049676 0.050638177 -0.04258722
0.02272758 -0.03884964
00000000: 714d 673c a006 afbc 61b9 e63d 2d28 6e3d
00000010: 3917 053d c8e0 4ebd a040 ecbc 0549 063e
00000020: d854 ae3d c871 ea3c 61e4 20bd 0693 9bbd
00000030: 8af6 c8bc 3ad0 083d 09e8 be3c 8f1d 3b3c
00000040: e340 65bb 211d 63bd 7aa7 3e3d 5cfd 083e
00000050: 2842 f83d 0c7f 4dbd 2029 df3d f6d9 693b
00000060: d819 f93d e9b0 213a 9e0c 503d 6ad2 30bc
00000070: 4b01 103d df0a 333e f709 f53d 0959 4fbc
00000080: de6e d1bb c34f d53c a97d e73d 8203 b4bc
00000090: a3bb ee3d 27ca bc3d 94c8 a03d 18d2 123b
000000a0: ca94 e93c 9127 b13c 29a6 463e 6118 bf3d
000000b0: e493 66bc 9511 433e fa69 4f3d f06f 2ebd
000000c0: 312f ba3c cd20 1fbd

head.weight f4 [2, 50]
-0.020405477 0.10734381 0.124187894 0.20887321 0.15040927 -0.14442118 0.044757236 0.040731195
0.27750102 -0.12053163 -0.113617554 -0.04259734 -0.16977447 -0.069752954 0.30043012 0.10980282
0.0853551 -0.17966129 -0.13618542 0.16163853 0.20619051 -0.24801433 0.2376739 -0.18289624
0.17518266 0.10285783 -0.13523805 0.27880445 -0.21722592 0.18566823 0.23251948 0.19361463
-0.08482843 -0.11706696 0.26803344 -0.245698 0.15562208 0.11162054 0.18089993 -0.14254309
0.21721464 0.10244002 0.296969 0.13139509 -0.07303693 0.056640904 -0.19562142 -0.29562393
0.22494926 0.02426627 0.1804495 -0.19917065 -0.18484771 -0.1189259 -0.30563372 0.07166011
-0.20637359 -0.21421553 -0.146831 0.17574488 0.102098405 0.21188612 0.054291483 -0.06620271
-0.08555436 -0.23171832 -0.29263335 0.18786642 0.18323529 -0.21620923 -0.12247687 0.097362444
-0.12529954 0.037305538 -0.15331036 -0.24985646 0.10988538 -0.19542126 0.18457673 -0.14362742
-0.26912794 -0.15882501 -0.10803069 0.1961989 -0.20803498 0.048125748 -0.09386526 -0.30183324
-0.20566688 0.14736515 -0.2156724 -0.19742931 -0.10181156 -0.096396275 0.15714212 -0.20143303
0.13767934 0.2149796 -0.3013187 -0.1886567
00000000: 6329 a7bc 12d7 db3d 3956 fe3d dce2 553e
00000010: e304 1a3e 25e3 13be 5d53 373d c1d5 263d
00000020: 9d14 8e3e 4ad9 f6bd 52b0 e8bd 8c7a 2ebd
00000030: 5cd9 2dbe a3da 8ebd fad1 993e 4de0 e03d
00000040: a8ce ae3d 21f9 37be 3174 0bbe 9284 253e
00000050: 9b23 533e 78f7 7dbe c960 733e 2749 3bbe
00000060: 1563 333e 20a7 d23d d87b 0abe 75bf 8e3e
00000070: 7970 5ebe d01f 3e3e 9619 6e3e ea42 463e
00000080: 87ba adbd cdc0 efbd ae3b 893e 4298 7bbe
00000090: 655b 1f3e 4f99 e43d d53d 393e d1f6 11be
000000a0: 846d 5e3e 13cc d13d 520c 983e 6f8c 063e
000000b0: 6394 95bd 4b00 683d fb50 48be 055c 97be
000000c0: 1959 663e 0fca c63c c1c7 383e 64f3 4bbe
000000d0: b848 3dbe 6c8f f3bd 067c 9cbe 89c2 923d
000000e0: 9953 53be 515b 5bbe de5a 16be 77f6 333e
000000f0: f818 d13d adf8 583e bf60 5e3d 4995 87bd
00000100: 2037 afbd 9147 6dbe 0ad4 95be 0e60 403e
00000110: 08a2 3b3e f465 5dbe 27d5 fabd f665 c73d
00000120: 864e 00be b1cd 183d 64fd 1cbe 5fda 7fbe
00000130: 960b e13d 831c 48be af01 3d3e 1113 13be
00000140: 23cb 89be 06a3 22be 323f ddbd 5de8 483e
00000150: 1f07 55be 811f 453d 6e3c c0bd e389 9abe
00000160: 579a 52be e4e6 163e 3ad9 5cbe e92a 4abe
00000170: 9482 d0bd 696b c5bd dde9 203e 7644 4ebe
00000180: d0fb 0c3e 9d23 5c3e 7246 9abe 392f 41be

head.bias f4 [2]
-0.09134164 0.055433456
00000000: 5311 bbbd 310e 633d
