trained_models/20220211/compas/adv_debiasing/mlp_sex_seed3_epochs50_bs128_lr0.0005_decay0.0005_adv_lamb5.0_eta0.005_constrainteo.pt (torch, 82527 bytes, 4 tensors)

features.0.weight f4 [50, 401]
0	0xbd6eb11f	-0.058274385
1	0xbd6ef76d	-0.058341432
2	0xbb2ac04b	-0.0026054557
3	0xbd05dda3	-0.032682072
4	0x3c4eb101	0.012615443
5	0x3ac2e6da	0.0014869825
6	0x3cbf9fef	0.023391692
7	0x3c06d9c4	0.00823063
8	0x3cb9d290	0.022683412
9	0x3d4977b3	0.04918642
10	0xbc854bd3	-0.016271507
11	0x3d9525e5	0.072826184
12	0xbc3f3647	-0.011670656
13	0xbb5cf4a5	-0.0033715155
14	0xbcff2373	-0.031144833
15	0xbb303678	-0.0026887935
16	0xbc32057a	-0.0108655635
17	0x3d8191ec	0.063266605
18	0x3d2ad54c	0.041707322
19	0x3d06c787	0.032905128
20	0x16bf1215	3.0869126e-25
21	0xbc7c1e2b	-0.015388052
22	0x3d88909f	0.06668209
23	0xbd1739a5	-0.03692021
24	0xbcad376a	-0.021144588
25	0xbc2bd566	-0.01048789
26	0xbc4e3317	-0.012585423
27	0x3c9300cd	0.017944718
28	0xbc4de3ff	-0.012566566
29	0xbc5136dc	-0.012769427
30	0xbca5df0f	-0.020247964
31	0x3d009b97	0.031398382
32	0xa0b2537c	-3.0209618e-19
33	0xbc9f7ce3	-0.01946873
34	0xa2f23cd8	-6.5658652e-18
35	0xbc0a1e27	-0.00843004
36	0xbbba758b	-0.0056902817
37	0xbd123239	-0.035692427
38	0x9c8780cd	-8.966845e-22
39	0x3c1685e2	0.009187194
40	0x3cb8c7b4	0.022556163
41	0xbbb771c0	-0.005598277
42	0x3c9a940c	0.018869422
43	0xbc327a3d	-0.010893402
44	0x3d147884	0.036247745
45	0x16191c6d	1.2368211e-25
46	0xbc3af55b	-0.011411036
47	0xbb9ea6b3	-0.0048416494
48	0x960d3ec2	-1.1409692e-25
49	0x3c7f276a	0.015573362
50	0x3d20d840	0.039268732
51	0x9c347aab	-5.971555e-22
52	0x16ea6ed3	3.787468e-25
53	0x236605c2	1.2469544e-17
54	0x3d705273	0.05867238
55	0x3d04a4ad	0.03238361
56	0x3d29a995	0.04142149
57	0x3d95aaf7	0.073079996
58	0x1bc11883	3.1945012e-22
59	0xbbfc8fa9	-0.0077075553
60	0x3d1e6c00	0.038677216
61	0x3af3fbd5	0.001861448
62	0xbc9f034d	-0.019410754
63	0xbc2a3185	-0.010387783
64	0xbc95d6ae	-0.018290844
65	0xbcd2f627	-0.02575214
66	0xbc4201d2	-0.011841254
67	0xa10836d0	-4.6151136e-19
68	0x3d18f9df	0.03734767
69	0x3bcf24ae	0.006321511
70	0xbc40ec27	-0.011775053
71	0x3d344562	0.04401148
72	0xbc005e30	-0.007834956
73	0x3c8c3eec	0.017119847
74	0x3c6c1660	0.0144096315
75	0x3c49adf3	0.012309539
76	0x3c6bfa48	0.014402933
77	0x3d3d9bd2	0.04629118
78	0x3a28c992	0.0006438728
79	0xa0aa051a	-2.8802496e-19
80	0xa28a5521	-3.749511e-18
81	0xbc68c5fe	-0.014207361
82	0xbc735d42	-0.014853777
83	0x3ccef32d	0.02526244
84	0xa245bf68	-2.6799808e-18
85	0xbce3224c	-0.027726315
86	0x1c0d4e63	4.67543e-22
87	0xa3654ea8	-1.2430771e-17
88	0xbcb67b8c	-0.022275709
89	0xbc37d575	-0.011220326
90	0xbc3e6059	-0.011619651
91	0x3c9ef043	0.019401675
92	0xbcc6a5a6	-0.02424891
93	0x25081c9f	1.1805817e-16
94	0x3bac3c18	0.005256187
95	0x3cd6dcc1	0.02622831
96	0x20aac0be	2.8926666e-19
97	0x9f232467	-3.4546704e-20
98	0x97055c90	-4.309145e-25
99	0xbc71cfc4	-0.014759008
100	0x9713c0e3	-4.774172e-25
101	0x3ca8b006	0.020591747
102	0x3bcf125b	0.006319327
103	0xbc31dd86	-0.010856038
104	0x3b8b0dae	0.004243574
105	0x1ba20646	2.6804706e-22
106	0xbb01bef9	-0.0019797666
107	0xbc024cba	-0.007952863
108	0x3cef29b0	0.029194683
109	0xbcabc00b	-0.020965597
110	0x3d5497b2	0.05190248
111	0x1e6d8762	1.2574672e-20
112	0x205e739a	1.8842381e-19
113	0x2147a1cf	6.7637974e-19
114	0xbc847cab	-0.016172728
115	0x22824bb0	3.5316708e-18
116	0x3ceddc5b	0.029035738
117	0x3d26b546	0.04070022
118	0xbb8b2b40	-0.004247099
119	0xa4232227	-3.537392e-17
120	0x3ba9dd7c	0.0051838737
121	0xa4e5d5d9	-9.967519e-17
122	0x238f4c46	1.5536394e-17
123	0x9deec946	-6.3206187e-21
124	0xbc860670	-0.016360492
125	0x1da28c84	4.3026333e-21
126	0x3c614179	0.01374852
127	0x0d14f2bb	4.5898197e-31
128	0x97a8192f	-1.0863103e-24
129	0xbb9456bc	-0.004526941
130	0x3d411571	0.04713959
131	0x3ba64ba7	0.0050749364
132	0x3bde0fca	0.0067767845
133	0xbbcbbc4c	-0.006217515
134	0xbceb1087	-0.028694404
135	0xbb889324	-0.004167931
136	0x9d95b426	-3.962624e-21
137	0x3d81f2b1	0.06345118
138	0xbcbe0e4e	-0.02320018
139	0xba9a40a4	-0.0011768532
140	0xbcab8aa0	-0.020940125
141	0x0cbab4c8	2.8766641e-31
142	0xbb7d619d	-0.0038662918
143	0x3ca9d4ba	0.020731319
144	0xbbf05aea	-0.0073350566
145	0xbb49a687	-0.0030769424
146	0x17a651c2	1.0748137e-24
147	0xbcc3e135	-0.023911098
148	0x9d939b28	-3.9071004e-21
149	0x3d361c50	0.044460595
150	0xbcc2c495	-0.023775378
151	0x24b27b7a	7.740437e-17
152	0x3c36e6c3	0.011163416
153	0x2508b80e	1.185848e-16
154	0x3d572f66	0.052535437
155	0xa142b8e5	-6.597446e-19
156	0x3c90b463	0.01766414
157	0x0f9679f7	1.4838121e-29
158	0x3c4a3f96	0.012344262
159	0xbbde2a80	-0.0067799687
160	0xbcf87821	-0.03033072
161	0xbbf87bf9	-0.007583138
162	0x3d4e54c9	0.050373826
163	0x3ce3ee0c	0.02782347
164	0xbc62da23	-0.013845953
165	0xbd1a1beb	-0.03762428
166	0x3b56606b	0.0032711278
167	0xbb293560	-0.0025819167
168	0xbb11eae5	-0.0022265252
169	0x3c818bee	0.015813794
170	0x3c5a2c4f	0.013316228
171	0xba691fee	-0.00088930025
172	0xbcc925c9	-0.02455415
173	0x3d1d1b3c	0.03835605
174	0x9452307a	-1.0611851e-26
175	0x3d2fbea8	0.042906433
176	0xbc361e1c	-0.011115577
177	0x3c36bdd2	0.011153655
178	0x3d47d3de	0.048786037
179	0xbc3104fd	-0.010804412
180	0x3d66fde7	0.056394484
181	0x3a2562d5	0.00063089776
182	0x3d650b11	0.055918757
183	0xa2f9ec75	-6.7741944e-18
184	0xbba48e46	-0.005021843
185	0x3a07865d	0.0005169863
186	0x3d0a898e	0.03382259
187	0x203f9dce	1.6230542e-19
188	0xbcb83bd1	-0.02248946
189	0xbb22beb1	-0.00248329
190	0x3d75bb16	0.059992872
191	0xbc40afc8	-0.0117606595
192	0xbc8414fe	-0.016123291
193	0x3ca9c164	0.020722099
194	0x3c180236	0.009277871
195	0x3c00c3ad	0.007859153
196	0x3c8cb9fe	0.017178532
197	0xb8e8ecff	-0.00011106766
198	0xbc1f76b9	-0.0097328955
199	0xa3e62d6b	-2.4955885e-17
200	0xbc34a0cb	-0.011024664
201	0x3d10626e	0.03525012
202	0x3c9eb0ac	0.019371353
203	0x3da10b1c	0.07863447
204	0x3d876f6d	0.0661305
205	0xbc0bb114	-0.008526105
206	0x3d35fdda	0.044431545
207	0xbc46c5d9	-0.0121321315
208	0x3d2a9df8	0.041654557
209	0xbc298900	-0.010347605
210	0xbc39ee42	-0.011348309
211	0x20a77da4	2.8374042e-19
212	0x3d78908e	0.060684733
213	0x3cda6ed4	0.026664175
214	0xbcb3d3ff	-0.021951674
215	0xbc4c03f7	-0.012452117
216	0x3cb418bd	0.021984452
217	0x3cce4d8a	0.025183458
218	0x97c5cd19	-1.2782601e-24
219	0x3a8ec976	0.001089378
220	0xa003cbec	-1.1163604e-19
221	0xbc74cecb	-0.014941881
222	0x150a1c4d	2.7891203e-26
223	0xa085de7f	-2.2678312e-19
224	0x3cfcd445	0.030862937
225	0x3bcc450a	0.006233816
226	0x1844c09c	2.542965e-24
227	0x3cd09b89	0.02546479
228	0x3d805c29	0.06267578
229	0xa281afbd	-3.515159e-18
230	0xbcba5f97	-0.022750659
231	0xa182ab9e	-8.854569e-19
232	0x3d52871b	0.051398378
233	0x3d720e38	0.05909559
234	0x3b591d54	0.0033129053
235	0x3d9db6a7	0.07700854
236	0xbcee8a4a	-0.029118676
237	0x3cabe674	0.020983912
238	0x3cf2f174	0.02965615
239	0x3d0f0228	0.034914166
240	0x3cca2b29	0.024678783
241	0x3d5bc23a	0.053652026
242	0xbc9bf8d4	-0.019039549
243	0x3cbf419b	0.023346713
244	0x3c1a9e65	0.009437178
245	0x2041926d	1.6396184e-19
246	0x3cd4c21f	0.02597147
247	0x2024bd71	1.3954021e-19
248	0xbc677cd2	-0.014128881
249	0x137834a6	3.1327958e-27
250	0x3d2ebe4c	0.04266195
251	0x3d87eb52	0.06636681
252	0x3d49e7bd	0.04929327
253	0xbc6a10cb	-0.01428623
254	0xb9982751	-0.00029020992
255	0xbcbca920	-0.023029864

features.0.bias f4 [50]
0	0xbd3aa236	-0.045564853
1	0xbca291b1	-0.019844862
2	0x3b6959e6	0.0035606562
3	0x3bf5ea26	0.0075047193
4	0xbce7f8db	-0.028316906
5	0xbb15b96c	-0.0022846116
6	0x3d5c963c	0.053854212
7	0x3d577794	0.052604273
8	0xbccc9dc8	-0.02497758
9	0x3cb86def	0.022513358
10	0xbcc61596	-0.024180215
11	0x3cbf0d15	0.023321668
12	0x3c653bf9	0.013991349
13	0x3d80ae27	0.06283217
14	0x3cb937b2	0.022609565
15	0xbc96652a	-0.018358786
16	0x3b40c428	0.0029413793
17	0x3c17abf6	0.009257307
18	0x3d6784cd	0.056523133
19	0x3b9928d8	0.0046740584
20	0x3d25d484	0.040485874
21	0x3c9e8d9e	0.019354638
22	0x3d534fcc	0.051589772
23	0x3d1c2407	0.038120296
24	0x3d0f7211	0.03502089
25	0x3d458aeb	0.048228186
26	0xbc8d5b94	-0.017255582
27	0x3cd94f83	0.026527172
28	0x3ce9db3e	0.028546926
29	0x3cf85a48	0.030316487
30	0x3c9a63d5	0.018846432
31	0x3b551985	0.0032516432
32	0x3d96d053	0.073639534
33	0xbcc107d5	-0.023563305
34	0x3d497820	0.049186826
35	0x3bd38b02	0.00645578
36	0xbc0d19ad	-0.008612079
37	0x3cf4742c	0.029840551
38	0xbc61c193	-0.013779062
39	0x3cb2e120	0.021835864
40	0x3bff8d33	0.0077988147
41	0x3d2ef321	0.042712335
42	0xbc147fbd	-0.009063658
43	0x3d0b0560	0.033940673
44	0xbca9e8fc	-0.020740978
45	0x3cef777e	0.029231783
46	0xbc33a06a	-0.010963539
47	0x3c904950	0.017613083
48	0x3cde8cff	0.027166842
49	0xbcb9d0f0	-0.022682637

head.weight f4 [2, 50]
0	0xbdc9e4a9	-0.098580666
1	0x3e174d92	0.14775684
2	0x3dfc7dad	0.12328658
3	0xbdeb1d3e	-0.11480187
4	0xbd820eb2	-0.06350459
5	0x3e114ae0	0.14188719
6	0xbda82ac2	-0.082112804
7	0x3e2b6d91	0.16741015
8	0xbe3ac836	-0.18240437
9	0xbcfd8c0c	-0.030950569
10	0x3de31c67	0.11089402
11	0xbe35029e	-0.1767678
12	0xbdb6cb63	-0.08925512
13	0x3e1c6a3a	0.15274897
14	0x3ca666d6	0.020312708
15	0xbd7d3a8b	-0.06182341
16	0xbdecc7db	-0.11561557
17	0x3e0fe4fc	0.14052194
18	0xbe140f5e	-0.14458987
19	0x3df7d328	0.12100822
20	0x3bd42cb1	0.006475054
21	0xbe2bf09c	-0.16791004
22	0xbe405274	-0.18781453
23	0x3da49af3	0.08037367
24	0x3d2209cf	0.039560135
25	0x3dc2e4b3	0.09516277
26	0xbd54d519	-0.05196104
27	0x3c187d09	0.009307154
28	0x3d91c223	0.07117107
29	0xbe18b0cd	-0.14911194
30	0x3d7c3b08	0.061579734
31	0x3d319865	0.043358225
32	0x3e16d122	0.14728215
33	0xbe308656	-0.17238745
34	0x3e15102e	0.14556953
35	0x3dbe5c1c	0.09294912
36	0x3e023265	0.12714536
37	0x3e2919fc	0.16513819
38	0x3dcb3e50	0.099239945
39	0xbe232a82	-0.15934184
40	0xbcfa1ee4	-0.030532308
41	0xbe1ca9ad	-0.15299101
42	0x3d94b4b8	0.07261032
43	0x3da9a9d1	0.08284343
44	0x3d30e1a7	0.04318395
45	0x3e0aeae3	0.13566165
46	0xbd08ffab	-0.03344695
47	0x3db25a05	0.08708576
48	0xbe0e040c	-0.13868731
49	0xbd291d04	-0.041287437
50	0xbd765ae5	-0.060145278
51	0xbdcf2caa	-0.10115941
52	0x3e2811ff	0.16413115
53	0x3c645103	0.01393533
54	0xbe295c0a	-0.16539016
55	0xbe060b35	-0.13090213
56	0x3dc9f953	0.09862008
57	0xbd867dde	-0.06566976
58	0xbc3a6553	-0.011376697
59	0x3d84d239	0.06485409
60	0x3da49f56	0.080382034
61	0x3ddef023	0.10885646
62	0xbc7f57d5	-0.015584906
63	0xbc45f5c5	-0.012082522
64	0x3e2ac90f	0.1667826
65	0x3d023982	0.031793125
66	0x3c562652	0.01307066
67	0xbd9a818f	-0.075442426
68	0x3d088c83	0.033337127
69	0x3df10b36	0.117697164
70	0x3df50d64	0.11965445
71	0xbd7aaf74	-0.06120248
72	0xbcbe18a4	-0.023205109
73	0xbdd32e0b	-0.103115164
74	0x3de55f9a	0.11199875
75	0xbe16b8f7	-0.14718996
76	0xbe0f626f	-0.14002393
77	0x3de42ece	0.1114174
78	0x3e0eb436	0.13935933
79	0xbe0a6047	-0.1351329
80	0xbe17eb08	-0.14835751
81	0xbd66b327	-0.056323197
82	0xbe152d29	-0.14568008
83	0x3dc1aa10	0.09456265
84	0x3dc6d58b	0.09708699
85	0xbe07ee33	-0.1327446
86	0xbb1d0a92	-0.00239626
87	0xbdc3c623	-0.09559276
88	0xbc324381	-0.010880352
89	0x3d83bb95	0.06432263
90	0xbe00aece	-0.12566683
91	0x3bbf2f59	0.0058345017
92	0xbcbba455	-0.022905508
93	0xbda7703a	-0.081757024
94	0x3c40e0c6	0.01177234
95	0xbda6fe4f	-0.08153974
96	0xbd5aa234	-0.053377345
97	0xbe05c9f3	-0.13065319
98	0xbd74ae37	-0.059736457
99	0x3dcdb3e1	0.10044075

head.bias f4 [2]
0	0xbc5bb322	-0.013409408
1	0x3dde5e21	0.108577974
