trained_models/20220211/compas/adv_debiasing/mlp_sex_seed2_epochs50_bs128_lr0.0005_decay0.0005_adv_lamb2.0_eta0.003_constrainteopp.pt (torch, 82527 bytes, 4 tensors)

features.0.weight f4 [50, 401]
000000 d3 af 9a 3d c4 c4 b8 bc d3 26 d9 bc c2 14 a9 bb
       0.07553067 -0.022554763 -0.02650777 -0.005159945
000010 24 a2 09 bd 3e 27 c1 bd a7 9b 42 3d 65 20 1c bd
       -0.033601895 -0.09431313 0.047511723 -0.03811683
000020 a3 c0 23 bd 9e 32 88 bd 18 03 f0 3c dd 89 bf 3c
       -0.039978635 -0.066502795 0.02929835 0.023381168
000030 91 68 16 bd ca 33 10 3d cf 42 6c 3c e7 c0 3c 3d
       -0.036720816 0.03520564 0.014420225 0.046082404
000040 e3 47 4c 3d e1 a0 3c bd 48 03 79 bd 94 9a 27 3d
       0.049873244 -0.046051864 -0.060794145 0.0409189
000050 80 e5 e8 2c 2f df 28 bd e0 98 2a bd 81 54 22 3d
       6.619316e-12 -0.04122847 -0.0416497 0.03963137
000060 87 ed b9 3c ac 55 03 3d ad 2c 34 bd 7a fa 82 bd
       0.02269627 0.032064125 -0.04398792 -0.06395431
000070 f4 3f 3a bd e0 ea 31 bd d4 1e ab bd 18 b1 42 bd
       -0.045471147 -0.043436885 -0.083554894 -0.04753217
000080 b1 39 88 20 33 69 a3 3c 85 40 56 96 ab 16 2f bd
       2.3077473e-19 0.019947624 -1.7307141e-25 -0.042746227
000090 c0 fc 1a 3d a4 1b 54 bd 73 18 c0 9f c4 56 38 bd
       0.037838697 -0.051784173 -8.135561e-20 -0.04500462
0000a0 27 2b 20 bd 62 35 9b bd c1 a0 ac 3c 0e 4b 2c 3d
       -0.039103653 -0.07578541 0.021072747 0.042063765
0000b0 34 6e 49 bb 1c 21 05 27 c5 74 8a bb 16 81 f3 3b
       -0.0030735852 1.8475406e-15 -0.004225346 0.0074311597
0000c0 3d bc 88 1b ab dc 4b 3c 17 7e 98 3c 13 97 ab a7
       2.262096e-22 0.012442748 0.018614812 -4.762583e-15
0000d0 51 49 bd a8 f8 f1 9c a6 2b e4 18 bd 9b be e0 3c
       -2.1015011e-14 -1.089026e-15 -0.037326973 0.027434638
0000e0 14 53 4b bd ef 86 86 3c 83 3a 86 1d 04 de 56 3d
       -0.049639776 0.016421763 3.5530004e-21 0.052457824
0000f0 2d c5 20 3d 0f 97 86 bd 43 48 be 3c 7b c8 fd 3c
       0.03925054 -0.06571781 0.023227816 0.030979386
000100 32 b4 5e 3d d9 22 61 3c 1e 1d 92 3c 18 ba 86 2c
       0.054371066 0.0137412185 0.01783615 3.8291696e-12
000110 59 aa 20 bd 0a c7 c6 3c b3 bc ae bd f6 f7 95 3d
       -0.039224956 0.024264831 -0.08532085 0.073226854
000120 12 94 43 bd 9d 66 7f bb 52 0d e9 3c b3 0c ce 3a
       -0.047748633 -0.0038971074 0.028448734 0.0015720337
000130 cc 1e 8d 3c e5 ee 5f bd 39 3b 45 bd 67 8a 7d a8
       0.0172266 -0.054671187 -0.048152182 -1.40743325e-14
000140 0a 2b 7e 2a f6 4c 0c bd 34 24 66 bd f8 2f 2a 39
       2.2574664e-13 -0.034253083 -0.05618687 0.00016230333
000150 ba 55 a0 25 c0 6a 71 bd 4e 5f 39 1d 0d 08 e0 25
       2.7813666e-16 -0.058939695 2.4533818e-21 3.886326e-16
000160 1d 3f 8d bd 72 b3 7c bd 36 ad e1 bb a0 20 8b bd
       -0.068968035 -0.06169457 -0.0068871034 -0.06793332
000170 05 00 16 3d 3b e1 a2 1c 97 06 2e 3d 59 30 45 3d
       0.036621112 1.0778481e-21 0.042486753 0.04814181
000180 13 94 de a9 95 d9 04 a7 d0 06 2a 29 68 76 5c bd
       -9.884467e-14 -1.8436631e-15 3.7753492e-14 -0.05382386
000190 c6 4d 37 a4 20 fd 2c bd 69 39 b0 bd bf f1 5a 3d
       -3.9747676e-17 -0.042233586 -0.086047 0.053453203
0001a0 2c 07 a7 3c 39 bd 43 a2 02 5a 51 3d fe 18 2e 3d
       0.020389162 -2.6527602e-18 0.05111123 0.042504303
0001b0 48 45 65 bd 49 0b 7f 3b 0d de c5 3c 65 6d 55 a8
       -0.055974275 0.0038916639 0.024153734 -1.1847596e-14
0001c0 86 1b 32 26 04 2a aa 98 81 02 6d bd ab 3a 52 a0
       6.1793457e-16 -4.3986395e-24 -0.057863716 -1.7807103e-19
0001d0 57 34 3e bd 9e 75 7e 3d 2c 85 31 bd 70 37 00 27
       -0.046436634 0.062123887 -0.043339893 1.7793621e-15
0001e0 f6 e6 1f 3d 39 58 38 a6 ff de 9c ab 39 fb 1f 2a
       0.03903862 -6.395739e-16 -1.114636e-12 1.4209197e-13
0001f0 c4 63 39 3d f2 8b ee 28 ea 92 24 bd 44 4b 02 a9
       0.04526116 2.6484e-14 -0.04017917 -2.893108e-14
000200 bf b5 06 2d c4 18 a4 bd 12 26 89 bd 74 af 07 3d
       7.657374e-12 -0.08012536 -0.066967145 0.03312631
000210 9f a2 5c bd d1 ba aa bd 4d b9 01 3d e1 a0 32 3d
       -0.053866025 -0.08336414 0.031670857 0.043610457
000220 ec b3 0a 25 dc f6 57 bd 33 ed 55 3d 18 18 6c 3c
       1.2030552e-16 -0.052725658 0.052228164 0.014410041
000230 c9 d4 83 bd c8 c0 42 9f ec bf 1a 3d 1d 48 0b 3d
       -0.0643707 -4.1240563e-20 0.037780687 0.03400432
000240 ac b3 a3 3c e3 af 49 3d 54 2b ca aa af c3 1e 3d
       0.019983135 0.049240004 -3.5912473e-13 0.038760837
000250 df 06 fc ab db 7d 3e bd 5f d3 fe 3c 5f 91 70 1e
       -1.7907584e-12 -0.046506744 0.031106649 1.2735556e-20
000260 74 1c 7a bd cc b9 6b 94 14 48 60 bd bc 90 e0 aa
       -0.06106229 -1.190111e-26 -0.05475624 -3.9890823e-13
000270 69 dc 4a bd 27 96 6a 16 c9 7e 1b 3d c4 af 91 3c
       -0.049526606 1.8949749e-25 0.03796271 0.017784007
000280 fd 7d 98 bd dd 9c b8 3c 7a 13 06 bc 3a 67 99 bd
       -0.07445905 0.022535736 -0.0081833545 -0.07490392
000290 57 fb d3 bb e2 aa 03 3d 0a 23 8e bd a7 66 16 3d
       -0.006469171 0.03214539 -0.06940277 0.03671899
0002a0 1e 64 4e bd 12 18 92 bd 5e b0 79 bd ac fe 01 3d
       -0.050388448 -0.07133497 -0.060959212 0.031737015
0002b0 19 46 1a 3d a6 ef 53 bd 75 77 c0 ab ae 6c fc bb
       0.037664507 -0.05174222 -1.3675577e-12 -0.0077033853
0002c0 4a 54 7d bd e4 9e b1 bc 2d 67 f7 3c 7e e2 dc 3c
       -0.061847962 -0.02168221 0.030200565 0.026963469
0002d0 cc bf 5c bd c8 7d 16 bd b8 fa b1 3b 8e 33 64 a0
       -0.05389385 -0.036741048 0.0054314993 -1.9329409e-19
0002e0 2f 64 60 bd 01 eb 3b bd cf 45 24 bd bd ac 95 24
       -0.054783043 -0.045878414 -0.040105637 6.491108e-17
0002f0 a8 87 93 3d 0c cc ab 3c 27 f4 a7 3c 16 20 57 bd
       0.07203609 0.02097132 0.020502163 -0.052520834
000300 97 97 3e 3d bb e6 c2 3c a8 3d 53 bd 7d 18 7a bd
       0.046531286 0.023791661 -0.05157247 -0.06105851
000310 7c a8 16 3c b1 b6 6a bd a4 aa 3e 3d fc 47 17 2a
       0.009195443 -0.057303134 0.046549454 1.3436469e-13
000320 d9 cd 43 bd 2f 1b 40 bd 5d a8 2a bd 4c e7 57 bd
       -0.047803733 -0.046900924 -0.04166447 -0.052710816
000330 2b a1 1d bd 71 ea 04 3d 41 f1 12 3d dc 05 21 bd
       -0.03848378 0.032450143 0.03587461 -0.03931223
000340 b7 77 2d bd 75 a9 2c bd ea e6 52 bd e8 65 1b 9d
       -0.042350497 -0.042153794 -0.051489748 -2.0566763e-21
000350 a9 be 98 3c e8 9a 65 bd 34 d2 92 bd d1 02 14 3d
       0.018645601 -0.056055933 -0.07168999 0.0361355
000360 bc ee 0d 3d 10 dd 1f bd d0 07 1f 20 a3 59 81 3d
       0.034651503 -0.03902918 1.3470409e-19 0.06315925
000370 1f 68 18 99 e7 6c 46 bd 4f eb bf ab a4 92 80 a8
       -7.879243e-24 -0.0484437 -1.3636678e-12 -1.427445e-14
000380 c1 4e ed bb 82 63 55 bd 6c d9 0f a6 6d b7 05 3d
       -0.007242054 -0.05209685 -4.9907753e-16 0.03264563
000390 6a ba 89 3c 68 aa 59 27 62 41 e3 bc 20 e9 45 20
       0.016812522 3.0207177e-15 -0.027741138 1.6763684e-19
0003a0 70 b8 0a bc 4e bc ae bb 03 94 51 bd 7d 90 f3 ba
       -0.008466825 -0.0053325063 -0.051166546 -0.001858249
0003b0 d4 04 4f bd 29 61 60 bd a8 ef 32 bd d1 d1 31 bd
       -0.050541714 -0.05478016 -0.043685585 -0.043412987
0003c0 d6 59 60 bd 41 ab 4d 3c d8 44 7a bd 36 98 61 bd
       -0.054773174 0.012553037 -0.06110081 -0.0550768
0003d0 d4 c6 b0 3d f9 cd fb a3 1a ca 3c 3d b8 e8 26 25
       0.086316735 -2.7300707e-17 0.046091177 1.4477053e-16
0003e0 30 fd 73 bd c6 d8 17 a8 35 0b 46 bd 10 80 24 bd
       -0.05956763 -8.429189e-15 -0.04835053 -0.040161192
0003f0 99 65 4d 3d 47 20 60 bd c3 96 80 bd 7f ed 4f 3d
       0.05014572 -0.054718282 -0.062787555 0.050763603

features.0.bias f4 [50]
000000 e0 42 99 3c 48 55 7c 3c ea de 2f 3c d7 fb 2b 3d
       0.018708646 0.015401192 0.010734299 0.04198822
000010 69 33 b3 3c 79 54 d8 3c 64 b0 06 bc 8b a6 18 bd
       0.0218751 0.026407467 -0.008220766 -0.037268203
000020 a4 d3 77 3d ed 33 b1 3c ed 4e 9b 3d 56 bd 2f 3d
       0.06050457 0.021631205 0.07583413 0.042905174
000030 a6 cb 48 3c f3 4d 83 3d 53 d1 02 3d c4 c6 b9 3c
       0.012255585 0.06411352 0.03193791 0.022677787
000040 70 e1 e6 bb a5 fe 80 bc 3d fe 86 bd 64 9a 53 3d
       -0.007045917 -0.015746424 -0.06591461 0.05166091
000050 85 71 47 bc 33 c4 94 3d 92 65 b6 3d 8b 94 11 3d
       -0.012173061 0.072639845 0.08906092 0.035542052
000060 7f 76 01 3d 87 33 17 3d bb 71 3a 3d 6a d0 69 3d
       0.031607147 0.036914375 0.045518618 0.057083525
000070 71 a8 31 3c d7 88 4d 3d e4 e6 db bc a2 4f b3 3d
       0.010843382 0.05017933 -0.026843496 0.08755423
000080 76 4c 88 3c 1a d5 9c bc c5 20 86 3d bc 81 5b 3c
       0.016638022 -0.019144583 0.06549219 0.01339763
000090 c4 5a 55 3c fb 07 ff bb 63 20 d5 3c bf c8 7a 3d
       0.0130221285 -0.007782934 0.02601642 0.061226603
0000a0 6d fe 1c 3d d6 8f 30 3d ec 77 9c ba aa 36 17 3d
       0.038328577 0.043105923 -0.0011937595 0.036917366
0000b0 0d 15 59 3c fb 79 88 3c 1d d2 44 3d 57 64 67 3d
       0.013249648 0.016659727 0.048051942 0.056492176
0000c0 da b0 91 bd 34 36 35 3d
       -0.0711381 0.044241145

head.weight f4 [2, 50]
000000 9d de 3b 3e a8 f9 cd 3c 00 5a 89 bd b4 f0 09 3e
       0.18346639 0.02514346 -0.06706619 0.13470727
000010 7d 0f ca bd 96 6a 00 be fa 5f eb ba 28 99 1b bd
       -0.098662354 -0.1254066 -0.001795768 -0.037987858
000020 6f d0 08 3e 44 1c a1 bd ea 65 08 3e 40 73 2c 3d
       0.13360761 -0.07866719 0.13320127 0.0421021
000030 53 f0 25 be e4 4c 30 3e 22 fe 19 3d 76 9f db bd
       -0.16204958 0.17216831 0.037595876 -0.10723774
000040 05 8e 5f 3d a3 9d 09 3e e1 11 6a bd dd 72 08 3e
       0.0545788 0.1343904 -0.057145957 0.13325067
000050 23 e6 1c be ea 2c 76 3c e5 18 13 3e ee f6 09 be
       -0.15322165 0.015025357 0.14364965 -0.13473102
000060 01 30 cb bd e6 1c 1c 3d 04 aa 1e be 11 ef bb bd
       -0.099212654 0.038113497 -0.15494543 -0.09176458
000070 30 06 1e be 53 f6 8e bd 76 33 49 3d 03 ff 13 3e
       -0.15432048 -0.06980576 0.049121343 0.14452748
000080 60 54 20 3a 34 8c f7 b7 e1 8e 8e bd cd 8e 3a 3d
       0.00061160885 -2.9509982e-05 -0.06960846 0.04554634
000090 a1 d3 1f bd 67 ce 06 be a4 2a bd 3b 2b 0c 81 3c
       -0.039020184 -0.13164674 0.0057729054 0.015752872
0000a0 c6 6d 9d 3d 74 c6 4d bd da 7f 0f 3e 36 83 2e be
       0.07686953 -0.050238088 0.14013615 -0.1704224
0000b0 55 00 99 bd 4d 98 02 3e d4 73 35 3d a9 fe 49 3e
       -0.074707665 0.1275341 0.044299915 0.19726051
0000c0 51 be df bd 1a 09 83 3c d7 0c 93 bd 58 2e 0e be
       -0.10924972 0.01599555 -0.071801834 -0.13884866
0000d0 43 f6 be 3d 1d 9f 0d bd 5f 3f 8a 3d f6 61 df 3d
       0.093243144 -0.03457557 0.06750368 0.109073564
0000e0 4a c5 b2 3d 15 83 d7 bd 8f e1 81 3c 98 76 14 3e
       0.08729036 -0.10523049 0.015854625 0.14498365
0000f0 26 ae 17 be 37 b7 af 3b 9e 85 a4 3d f7 0a f7 39
       -0.14812526 0.005362417 0.08033298 0.0004711968
000100 4f 66 15 3e e9 95 26 3e 2b a2 6e bd 55 72 62 bd
       0.14589809 0.16268124 -0.058260124 -0.055284817
000110 b2 8a 91 bd d6 5e 94 bc c0 00 30 3d d1 ee 40 3e
       -0.07106532 -0.018111628 0.042969465 0.18841101
000120 2b 77 7f 3c 9e ab e1 3c 9b 9c e7 bd aa bf 17 bc
       0.015592377 0.027547654 -0.11309167 -0.009262005
000130 b3 ce f8 3d 90 ca 5d 3d a4 1d ad 3d 09 7d 3d 3e
       0.121488 0.054148257 0.08452919 0.18504728
000140 fe 41 6f bd 35 b5 84 bb e4 1d f5 3d 49 33 9c bd
       -0.058412544 -0.004049922 0.11968592 -0.07626969
000150 52 3e 7b 3d 24 a0 af bd f9 b4 06 3e be 69 0f 3e
       0.06133873 -0.08575466 0.13154973 0.14005181
000160 c3 06 44 3e 72 7c 82 bd 13 ce 34 3e af a3 5b 3d
       0.19143204 -0.06371392 0.17656736 0.053622898
000170 d1 2f 14 be 6d 0e 03 3e 44 52 c9 3d be c7 02 be
       -0.14471366 0.12798472 0.09830144 -0.12771508
000180 ad c3 d1 bd fb 09 56 bb ae fb 38 3d 8d fa bf bd
       -0.102424 -0.0032659757 0.045161895 -0.09373961

head.bias f4 [2]
000000 3c 02 e2 3d d8 68 b5 bc
       0.110355824 -0.02214472
