trained_models/20220211/compas/adv_debiasing/mlp_sex_seed0_epochs50_bs128_lr0.0005_decay0.0005_adv_lamb100.0_eta0.001_constrainteo.pt (torch, 82527 bytes, 4 tensors)

features.0.weight f4 [50, 401]
000000 37 c3 b4 3d 75 08 a7 3c b9 28 2a bd 21 4a b3 bd
       0.08826297 0.020389775 -0.041542742 -0.08754373
000010 1a 9e 94 bd 7e d4 93 3d 30 87 1c 38 fc 09 d2 3d
       -0.07256718 0.07218264 3.73192e-05 0.102558106
000020 e5 fb 99 bd 51 f3 9d 3d 0a cb a1 bd 7b 90 86 bd
       -0.07518748 0.077124245 -0.07900055 -0.06570526
000030 f6 8f d1 bd 84 ad b6 bd 04 26 9e bd 59 90 09 bc
       -0.102325365 -0.08919814 -0.07722095 -0.008396232
000040 eb 2c 97 3c 52 f0 c4 3c 61 5f b9 bd 9a 70 9f bd
       0.018454036 0.024040375 -0.09051395 -0.07785149
000050 c6 28 24 23 c3 32 2e 3d b4 b2 88 bd 6a 03 14 3d
       8.899092e-18 0.04252888 -0.0667471 0.03613607
000060 6f f7 d6 bc d1 5a a1 3c fa 72 27 3d c0 18 d2 bd
       -0.026241032 0.019696625 0.040881135 -0.10258627
000070 1a 5c b1 bd ab 28 8c bd a4 5c 45 bd f4 76 0c 3d
       -0.08660145 -0.06843694 -0.048184052 0.03429313
000080 0d b3 61 27 a1 88 a1 bd 52 02 b7 a7 91 b4 cf bd
       3.1322086e-15 -0.07887388 -5.079522e-15 -0.10141862
000090 49 d5 ac bd e9 80 80 3d d2 2b ac 24 61 c5 03 3c
       -0.084391184 0.06274588 7.4667344e-17 0.008042664
0000a0 c8 c4 87 3b 33 d6 a7 bd 84 d2 13 bb 0e 6c cf bd
       0.004143331 -0.08195152 -0.0022555897 -0.10128032
0000b0 ed 3a bc bd bc 7f 28 a6 c1 16 ff 3c 67 44 05 3d
       -0.09190927 -5.845982e-16 0.03113878 0.032535937
0000c0 8f f8 04 a4 d6 80 24 bd 8c be cf 3c 77 02 52 ac
       -2.8833475e-17 -0.04016193 0.025359415 -2.9844163e-12
0000d0 aa 86 ff 23 8f 5a 8d 9d 96 e5 a6 3b b1 2e b0 bd
       2.7704188e-17 -3.7416025e-21 0.0050932867 -0.08602656
0000e0 b8 3c b0 3c 75 c4 bf bd d3 0c 09 a8 0c 32 a6 bd
       0.021513328 -0.09363643 -7.6078085e-15 -0.081150144
0000f0 9b 62 07 3d d4 62 87 3c 5c 72 af bd 25 69 93 b9
       0.033053022 0.016526617 -0.08566734 -0.00028116364
000100 15 17 1d 3d 65 13 8e 3c d5 ce 34 38 1c 52 b3 9e
       0.03835209 0.017343232 4.310797e-05 -1.8986322e-20
000110 7a 04 43 3d 26 ea 44 3d f5 23 a8 bd 43 bc 98 bd
       0.04761169 0.048074864 -0.08209983 -0.07457783
000120 1f e8 d9 3c bf 1e 18 3d b0 de f1 3c 65 8c bb 3c
       0.026599942 0.037138697 0.029525131 0.022894094
000130 d5 89 f6 3c e4 15 c9 bd 4b e0 7a 3c aa d4 4a 27
       0.03009502 -0.098186284 0.015312265 2.8148417e-15
000140 f7 e5 20 ab 1f 33 52 3d 2a 42 43 3d 1c bb d5 bd
       -5.716256e-13 0.051318284 0.04767052 -0.10436079
000150 5a 24 e2 1c f6 0c 88 bb a0 65 36 1d 72 f0 5d a5
       1.4964822e-21 -0.0041519357 2.4140038e-21 -1.925016e-16
000160 44 98 24 bb ca 08 b0 bd 66 0d 7a 3c 04 a9 0a bb
       -0.0025115171 -0.085954264 0.0152619835 -0.002115787
000170 7a 01 61 3d b0 50 54 a3 3b 1f d8 bd e6 40 b3 bd
       0.05493305 -1.1509629e-17 -0.10552832 -0.08752613
000180 c2 14 e8 a4 09 a1 e4 1e 2b 7d 3a a9 73 6d ae bd
       -1.0064913e-16 2.4207042e-20 -4.1408862e-14 -0.085169695
000190 77 5d de 2a 10 1e 6f 3c bb b2 a0 bd 6a 1f 86 bd
       3.9499976e-13 0.01459457 -0.0784659 -0.065489605
0001a0 24 4c d3 bd c1 40 60 14 98 91 bd bd be 95 c0 bd
       -0.10317257 1.13218804e-26 -0.092562854 -0.09403561
0001b0 d9 2d 5c bc ca fc eb 3b 3e 9d 9b bd ef 3a 1d 27
       -0.013438665 0.0072017657 -0.07598351 2.1820075e-15
0001c0 8f 90 8f a6 e8 e9 ff 2a 21 69 37 3c 27 51 18 2a
       -9.961801e-16 4.5459404e-13 0.011194498 1.3528467e-13
0001d0 e8 4e 8d bd 76 d2 62 3b 1e df 79 3b a5 f6 b4 1f
       -0.06899816 0.0034610308 0.0038127373 7.6641004e-20
0001e0 b6 6d 33 3c a1 e3 0c 98 97 9e cc 25 8c ac b5 a4
       0.01095145 -1.82095e-24 3.5495824e-16 -7.878854e-17
0001f0 9e f2 d1 bd 19 c1 1b a7 f0 e0 8b bd e4 8a cc 25
       -0.10251354 -2.161525e-15 -0.06830013 3.5482475e-16
000200 d3 fb 87 a1 9d 7f c7 bd ef 9a 89 bd f4 e0 25 3b
       -9.214613e-19 -0.09741137 -0.06719004 0.0025311084
000210 93 96 b5 bd 25 1a df bc 19 6a ca 3c 74 98 c6 3d
       -0.088666104 -0.027234146 0.024708794 0.09697047
000220 b8 49 7c 15 1e 53 77 bd 88 71 0f 3c 7d d6 a8 3c
       5.094915e-26 -0.060382 0.008755095 0.020610088
000230 ca 46 2b 3d 42 4b 97 a7 ef 32 1f 3d 0f 77 73 bc
       0.041815557 -4.1992514e-15 0.038866933 -0.014859929
000240 9b 42 cd bd 93 fe a1 bd 2f 9f 1b 28 cf dc b3 bc
       -0.100224696 -0.07909884 8.638746e-15 -0.021955876
000250 88 dc 56 25 e9 e0 be bd 9b 34 d3 bd 70 7c 1b 2a
       1.863626e-16 -0.09320242 -0.10312768 1.3809938e-13
000260 96 d3 87 bd fd 1a 88 a6 67 f2 f2 3c 50 a2 6d 2b
       -0.06632154 -9.444211e-16 0.029656602 8.442457e-13
000270 9a cb fa 3c c0 f1 4a a9 c6 59 89 bd 5a 15 9d bd
       0.030614663 -4.5062695e-14 -0.06706576 -0.07670088
000280 b1 75 4c 3c 76 c1 8b 3c ea c1 cd bd 79 f0 ca bd
       0.012479232 0.017060023 -0.10046752 -0.09909148
000290 39 9a 82 bd c0 92 b4 3c 27 11 88 3c eb 3e d7 3c
       -0.06377072 0.022042632 0.016609741 0.026275119
0002a0 06 6f cd bd 1b 6e 9a bc f0 b4 9e 3d 4d 4c 9c bd
       -0.10030942 -0.01885133 0.07749355 -0.07631741
0002b0 88 8a 59 3d 01 cb a7 3b 2a 41 d1 aa f6 02 92 bc
       0.05311063 0.0051206355 -3.7171075e-13 -0.017823678
0002c0 46 d1 a0 3c ea 81 2c bd 34 a2 74 3b b5 40 c4 bd
       0.01963104 -0.042116083 0.0037328126 -0.095826544
0002d0 ad 5a 55 3d 74 d4 87 bd 03 7a 23 3c e4 a1 ca 1f
       0.05208843 -0.06632319 0.00997782 8.5818153e-20
0002e0 5f 25 e7 bb e8 e0 a1 3b 8d e7 8a bd 08 19 61 9e
       -0.0070540155 0.004940141 -0.06782446 -1.1916577e-20
0002f0 f0 68 c6 bd 97 26 e7 3c 1c f0 36 3d 98 11 ab 3c
       -0.09687984 0.028216643 0.04466258 0.020882413
000300 c0 4a bb bd 55 d3 d0 bb 9f 20 bb bd 67 f5 ab bd
       -0.09145117 -0.006372849 -0.09137081 -0.08396416
000310 19 bb ac bd 0c 4e 52 3c d4 11 af bd 3f 20 a7 95
       -0.084341235 0.012835991 -0.08548322 -6.750164e-26
000320 9d 34 05 bc 3c a2 90 3c f3 d9 bd bd c6 fd b6 bd
       -0.00813022 0.017655484 -0.09270086 -0.08935122
000330 05 8c ad bd 96 03 1c 3d 6e aa 96 bd c9 4a 14 bb
       -0.08473972 0.038089357 -0.07356726 -0.0022627583
000340 bc 9f 35 3c ba 75 e0 3a 8b 0e ad 3a be 4d 3a 1f
       0.011085447 0.0017124929 0.0013203187 3.945134e-20
000350 32 93 c5 3c f9 d8 8a bd 0f e0 52 3c 4e 5b d2 3b
       0.02411804 -0.067796655 0.012870803 0.006419576
000360 18 73 c0 bd 0d f1 a6 bd b6 89 13 29 6f 59 c3 bd
       -0.093969524 -0.081514455 3.2760002e-14 -0.095385425
000370 9e 15 ee 99 33 f6 61 3d 78 d5 32 23 e5 2d 65 15
       -2.4617354e-23 0.055166434 9.694603e-18 4.6282386e-26
000380 81 36 cc bd 9f 42 36 3d 66 c4 c4 27 99 08 91 bd
       -0.09971333 0.04449713 5.4613864e-15 -0.07081718
000390 a1 c3 95 bd ff f6 cd 1c 58 95 0c 3d 2d 80 37 a9
       -0.07312704 1.3629609e-21 0.034322113 -4.0745337e-14
0003a0 24 91 eb ba fc 63 9e 3d 86 56 0d 3d d7 9f b1 bd
       -0.0017972332 0.07733914 0.034506343 -0.08673065
0003b0 32 2b 4c 3d 6f bf bb bd ff 06 9d bd 29 6c b6 3c
       0.04984588 -0.091673724 -0.0766735 0.022268372
0003c0 0c cd 64 bc 17 ee 29 3d f1 b6 93 bd 33 ab 18 39
       -0.013964903 0.041486826 -0.07212628 0.00014559626
0003d0 96 32 ca 3c e4 c4 92 2b 17 64 a1 3c 28 df 6a 29
       0.024682324 1.0428572e-12 0.019701047 5.2151995e-14
0003e0 a3 90 54 bc 64 98 e2 9d 5e 31 a7 bd 3e 2f c6 3c
       -0.012973937 -5.997927e-21 -0.08163713 0.024192449
0003f0 e3 c1 3a 3d 6b 07 90 bd a9 4e af bd f6 12 99 bd
       0.04559506 -0.07032665 -0.08559925 -0.0747432

features.0.bias f4 [50]
000000 60 7e 95 3d 51 c8 6b bd dc ab 41 bc 1e 5f 6f 3c
       0.07299495 -0.057564083 -0.01182076 0.01461008
000010 5f 5e 62 bc 41 66 af 3c 0e 5b 40 3d 4f e6 d7 3c
       -0.013816445 0.021411063 0.046961837 0.026354937
000020 ea ec ec 3c 3b ee 23 bd 14 7c 7f 3d a5 d0 b1 bc
       0.028921563 -0.040022116 0.06237419 -0.021705935
000030 93 93 7f bc d7 2d d2 3c cc 8f f4 3b 44 6f 9e bc
       -0.015599149 0.025656624 0.007463431 -0.019340165
000040 fc 70 ac 3c 6e ac 9a 3d 68 dc c1 3d d2 40 1a 3d
       0.021049969 0.075524196 0.09465867 0.037659474
000050 d9 c6 0d bd 20 7c 99 3c 2d cf 3f bd 60 15 0d bd
       -0.034613464 0.018735945 -0.046828438 -0.034444213
000060 4a 7b 17 bc d8 c5 21 3d c2 9f d9 3c 10 d0 f0 3b
       -0.009245703 0.03949532 0.026565436 0.0073490217
000070 a1 74 01 bd 90 b9 5b 3d 62 ab 51 3d 3e 29 30 bc
       -0.031605367 0.053643763 0.051188834 -0.01075202
000080 ea 72 b8 3c e0 d9 22 bc e4 87 06 3d 43 05 5c bd
       0.022515733 -0.009939641 0.03284444 -0.053715955
000090 b9 68 e9 3c d2 13 84 bc a6 7d c0 3c 76 ce 77 3c
       0.028492318 -0.016122732 0.023497414 0.015124908
0000a0 76 07 31 bc 5e e2 f2 3a fe ca e1 3c f3 bc 19 bd
       -0.0108050015 0.0018530597 0.027562615 -0.03753371
0000b0 5d ca 96 39 8e 16 0c 3c 68 0c 88 bc 8e db a1 3c
       0.00028761002 0.008550299 -0.016607478 0.019758012
0000c0 10 63 2a 3d c6 9c 21 3c
       0.04159838 0.009864038

head.weight f4 [2, 50]
000000 1b 8a a6 bd 6e a1 14 3d 75 ff c6 3d 9a 72 c6 bd
       -0.0813181 0.036286764 0.09716693 -0.09689827
000010 25 49 2a 3e 85 3b 17 3d 37 c7 19 be 28 4f 2f be
       0.16629465 0.036921997 -0.150174 -0.1712004
000020 bf ab c2 3d 0d a7 4a 3d 2e 81 8b bd 10 01 da 3d
       0.09505414 0.04947572 -0.068117484 0.10644734
000030 e3 65 ab 3d 4a f5 19 3e 26 f2 1e bd ef fa 68 bd
       0.08369043 0.15034977 -0.03880515 -0.056879934
000040 a1 00 f1 3d 68 47 fb bd 1b df 1e be a8 f0 85 bd
       0.11767698 -0.12269479 -0.15514795 -0.06540042
000050 43 1d 88 3c c3 b3 d6 3d a5 2b 02 3e 02 98 f7 bc
       0.016615516 0.104835056 0.12711962 -0.03022385
000060 1a b7 ae bd eb 44 da 3c 73 07 a7 3d 6f 05 46 3e
       -0.085310176 0.02664419 0.08155718 0.1933801
000070 0a a1 c5 3d 6d 74 39 be e7 1c 4e 3d e3 75 07 3e
       0.096498564 -0.18110819 0.050320532 0.13228564
000080 3a d5 85 bd 24 6a 79 3d f3 42 17 bd 28 6e cf bd
       -0.0653481 0.06089224 -0.036929082 -0.101284325
000090 68 ba 4a bd 19 e7 9c 3d 52 97 1f 3e ee d3 37 3e
       -0.049494177 0.07661266 0.15585068 0.17951939
0000a0 81 a3 2b 3d 54 05 9e bc 32 e0 b7 3d 9e e7 e9 3d
       0.041903976 -0.01928965 0.08978309 0.114211306
0000b0 b1 ac 84 39 0c b8 92 bd 66 2d d9 bd cb 24 82 3d
       0.00025305667 -0.071640104 -0.10604362 0.06354674
0000c0 f1 8c 23 be 6c 4b f9 3d 70 72 48 be 4a cc fa 3d
       -0.15971734 0.12172589 -0.19574904 0.12245996
0000d0 1e 9e fe bd ea 31 1d be 9f 14 2b bd e1 83 8f bd
       -0.12432502 -0.15351072 -0.041767713 -0.07007576
0000e0 ec 7a a0 bd 60 c8 d4 bd aa dc 3b bd 17 07 ea bd
       -0.078359455 -0.10389781 -0.04586474 -0.114271335
0000f0 48 7e 58 be 78 be 2d be 4a 17 ee 3d 0d 4d 19 3d
       -0.21141922 -0.1696719 0.11625536 0.037426997
000100 0f 29 0b 3e 68 2c 35 bc 16 a3 93 bd f0 3f 81 bd
       0.13589881 -0.011057951 -0.072088405 -0.06311023
000110 09 e7 58 be 5b dc 0a 3e 21 90 b8 3d 8f 22 a4 bd
       -0.21181883 0.13560621 0.090118654 -0.08014404
000120 e5 5f 32 3d 37 3a bf 3d 42 1b c1 bd 8c 33 06 be
       0.043548483 0.093372755 -0.09429027 -0.13105601
000130 c1 51 b8 bd b9 89 29 be 0b c9 22 3e 54 97 8f bc
       -0.08999968 -0.16556443 0.15897004 -0.017528214
000140 c6 f9 67 bd 27 45 11 bb 08 56 0a be cb 7e ef 3d
       -0.056634687 -0.0022166462 -0.13509381 0.11694106
000150 f8 91 25 be 0b 5c d3 3d 04 41 28 be df e9 c1 3d
       -0.16168964 0.1032029 -0.16431051 0.094684355
000160 62 8d d4 bb b6 30 26 be 24 63 ce 3d 2a 5f 9e 3d
       -0.0064865807 -0.16229519 0.10077503 0.07732995
000170 8b 10 6b 3d 62 3f 9a 3d 21 07 2a be 33 50 b7 3c
       0.057388823 0.075316206 -0.16604282 0.02237711
000180 8d a1 36 3d 5e 85 cd 3d 9b 89 65 be 5d 75 66 bc
       0.04458766 0.100352034 -0.22415774 -0.0140660675

head.bias f4 [2]
000000 83 aa 9a 3d 0d 37 e2 bd
       0.07552054 -0.11045656
