trained_models/20220211/compas/adv_debiasing/mlp_sex_seed0_epochs50_bs128_lr0.0005_decay0.0005_adv_lamb5.0_eta0.007_constrainteo.pt (torch, 82527 bytes, 4 tensors)

features.0.weight f4 [50, 401]
00000000: dddc 083b 6dde 133d 8084 98bd 20f2 7ebd
00000010: 6a88 3abd 77e4 343b b746 ca3c e609 073d
00000020: e025 f0bc da7c 6a3d ec1b 72bd 5773 d4bc
00000030: 5397 46bd 8b5f 49bd 493e 2ebd d0ba 3d3c
00000040: 8121 183d 6bac 3a3d 1482 64bd 0314 1dbd
00000050: df96 9a19 6fa7 fd3c a76b 91bb ad76 863d
00000060: 2a86 87bb 58f9 81bb e13f 253d 54cd 81bd
00000070: d5d4 1ebd f62e e2bc 2f8b 31bd 8401 2d3d
00000080: 60d5 0aa0 977d 19bd a97b b4a0 214b 44bd
00000090: b941 19bd 40ba 5f3d 2d13 731b 2e64 993c
000000a0: 462f 7e3b e0bc 35bd 1f09 5b3c 51f1 43bd
000000b0: 5396 48bd 481f 009e 221f 953c d337 103c
000000c0: 4ecf d29c 5cbd 10bd 2ce0 243d a9c1 0825
000000d0: 6589 ea1b c395 4b96 444b a53c 07e9 50bd
000000e0: 02d6 033c df98 30bd b447 01a0 3f16 11bd
000000f0: c8ac de3c 8699 cd3c 123f 3abd 7ce8 3dbc
00000100: 5a51 bf3c 4148 91bc c799 253d 7d10 3918
00000110: ba62 093d 5250 793d b5cb 77bd 759d 16bd
00000120: 4489 873c d062 1b3d d367 9e3c 7603 3b3d
00000130: 2e7a 3b3d 3c1b 3cbd 1cb7 a83c 9d74 299f
00000140: d4ac 2024 1320 2c3d 23cd 283d b2c0 4bbd
00000150: 8b9a 8817 fd41 b8bc db69 ea15 be21 a41d
00000160: 762f 663c 677d 46bd 1d08 643c 68ba abba
00000170: c81b 233d 8553 a21a 4351 84bd 2e2a 21bd
00000180: 84ea 619e 4cda b897 143e e6a1 bdef 44bd
00000190: ec78 1ba4 ca9c b6b9 8f78 35bd 3486 cebc
000001a0: 1679 6bbd 1f93 340d 29e2 2dbd ab8e 45bd
000001b0: 8297 2cbb 1b4f 163c 3f13 04bd 7e24 119e
000001c0: 8d68 e21f c8b3 a6a2 0357 833c 7b0b 9a22
000001d0: 6967 0bbd 7504 b0bb bcc7 1e3b 1a75 4098
000001e0: ad4e 433c b9e6 530f 18f5 d79c b6e5 c01d
000001f0: 7c11 47bd b2ed 311d d87e e1bc 8c37 379d
00000200: 9764 6998 2677 78bd 2a55 04bd 94c4 be3c
00000210: 789e 47bd f8f9 83bc 77d9 bc3c d012 7dba
00000220: 3613 8a0d 3ab3 b9bc a6fa dcba faf3 593d
00000230: 658a 973d 7f1b 2820 cc64 793c bdb4 3b3b
00000240: d690 57bd 34eb 0bbd 9ef3 8ba0 3771 63bc
00000250: 1e26 421e ef7f 2fbd d0c2 85bd 563e 9422
00000260: da17 eabc 4ba3 169f 5233 773c 3f76 0ba4
00000270: e867 583d 04ff 03a2 fb0d 71bc d425 25bd
00000280: f88e c8bc ece0 163d 7a17 63bd 2f00 6abd
00000290: 06ba cabc bd61 42bc 6ef4 2cbd c676 9b3c
000002a0: 06d0 57bd cf9c ed3b ab89 0f3d ff10 12bd
000002b0: 5caa 143d f242 5c3d 0a57 f5a1 440e d23c
000002c0: 9fb6 e9bb 5871 0dbd b04b cb3c 62c4 4abd
000002d0: 5a61 5d3c 828e d7bc a622 3c3d db80 9198
000002e0: c4dc 163c 0634 a13c 9c1a dfbc 0e56 eb17
000002f0: c5fa 57bd 9d8d 3c3d 5ead 0c3d 9957 123d
00000300: 1522 56bd 1cb4 9c3b a983 53bd 5f8f 42bd
00000310: 7121 19bd 7343 b13c 2cb1 2cbd c9f2 a40b
00000320: 1fb5 f03b 91b3 153d 7c3b 2ebd 6ac5 25bd
00000330: 2088 2abd 7139 e63c 4efd fbbc 8bb5 0b3d
00000340: fb88 543c a2b2 93ba b3bd 4b3c d612 c196
00000350: de8a 693c d9d4 00bd c9c3 85bc c6da 0abb
00000360: 6270 31bd 3c01 12bd a856 e720 0405 35bd
00000370: 5c62 ba11 15d5 243d bd0a 9398 f060 d98e
00000380: adbf 7fbd e215 aa3c 95ae 1ca1 b01e 15bd
00000390: 8663 14bd d1f1 ba16 4a3e 87bc 7154 89a2
000003a0: a4f4 25bc d2c9 1d3d 8708 2c3d 4828 1fbd
000003b0: b476 193d 57fa 5cbd e3cf 05bd e348 153d
000003c0: 4be6 85bb 6f96 f03c 96e5 05bd ce31 5b3b
000003d0: fe9d a73c cad4 40a4 6f35 3c3d f42b 9822
000003e0: 3f1c 33bc 0c32 0a17 6450 12bd 4755 7e3c
000003f0: 18c2 e03c bdaf ebbc a50d 35bd 6f25 17bd
0.0020883598 0.036100794 -0.07447147 -0.062242627 -0.04554025 0.0027601996 0.024691923 0.032968424
-0.029314935 0.057247974 -0.05910866 -0.025933905 -0.048484158 -0.049163383 -0.04253987 0.011580184
0.037141327 0.045574587 -0.055788115 -0.038349163 1.5984163e-23 0.030963628 -0.004437882 0.06565604
-0.0041358666 -0.0039664917 0.040344123 -0.06337991 -0.03877719 -0.027610283 -0.043345626 0.042237774
-1.1759655e-19 -0.037473287 -3.0575018e-19 -0.04792321 -0.037416194 0.05462098 2.0106685e-22 0.018724527
0.0038785501 -0.04436958 0.013368874 -0.04783756 -0.048971485 -6.782732e-21 0.018203322 0.008802372
-1.3950221e-21 -0.035336837 0.04025285 1.1861734e-16 3.8800842e-22 -1.6445466e-25 0.020177491 -0.051003482
0.008046629 -0.04311454 -1.095045e-19 -0.035421606 0.027181998 0.02509762 -0.045470305 -0.011591073
0.023354221 -0.017734649 0.040429857 2.3919014e-24 0.03354142 0.060867615 -0.060497005 -0.036771256
0.016544946 0.03793603 0.019336617 0.045657597 0.045770817 -0.04592441 0.020595126 -3.5883602e-20
3.484086e-17 0.042022776 0.04121126 -0.049744315 8.827806e-25 -0.022492403 9.467886e-26 4.3445327e-21
0.0140494015 -0.048459437 0.01391795 -0.0013101818 0.039821416 6.713656e-23 -0.06460812 -0.039346866
-1.19598975e-20 -1.1945827e-24 -1.5601838e-18 -0.048080195 -3.3712692e-17 -0.00034830562 -0.044304427 -0.025210477
-0.057488523 5.5643873e-31 -0.04245201 -0.048231762 -0.0026335423 0.009174134 -0.032244917 -7.6837825e-21
9.588769e-20 -4.518474e-18 0.016032701 4.175394e-18 -0.034034166 -0.005371625 0.0024227938 -2.487454e-24
0.011920613 1.0447539e-29 -1.4290862e-21 5.1059492e-21 -0.04860066 2.354864e-21 -0.027526304 -2.4248565e-21
-3.016533e-24 -0.060660504 -0.03230778 0.023287095 -0.048735112 -0.016110405 0.023052914 -0.00096539874
8.5095315e-31 -0.02266847 -0.0016859367 0.05321119 0.073994435 1.4239251e-19 0.015221786 0.0028641664
-0.05262836 -0.034159854 -2.3708728e-19 -0.013881973 1.0278157e-20 -0.042846616 -0.06531298 4.018148e-18
-0.028575826 -3.1898808e-20 0.015087919 -3.024098e-17 0.052833468 -1.7888815e-18 -0.014712806 -0.04031928
-0.024482235 0.036835596 -0.05544231 -0.05712908 -0.024746906 -0.011864123 -0.042225294 0.018977534
-0.05268862 0.007251359 0.0350434 -0.03566074 0.03629528 0.05377478 -1.6624885e-18 0.025641568
-0.007132366 -0.03453192 0.024816364 -0.04950369 0.01351198 -0.02631307 0.04593148 -3.7611732e-24
0.009207908 0.019678127 -0.027234368 1.5208242e-24 -0.052729387 0.04603349 0.034345023 0.03572807
-0.052278597 0.004782213 -0.051639233 -0.04750001 -0.037385408 0.021638608 -0.04216115 6.3535805e-32
0.00734581 0.0365482 -0.042537197 -0.04047147 -0.041633725 0.028103562 -0.030760434 0.03410868
0.012972112 -0.0011268447 0.012435365 -3.119272e-25 0.0142543 -0.031452987 -0.01632871 -0.0021187528
-0.043320067 -0.03564571 3.9190266e-19 -0.044194236 2.9406244e-28 0.040242273 -3.8009452e-24 -5.3587978e-30
-0.062438656 0.020762388 -5.3085913e-19 -0.03640622 -0.036227725 3.0202528e-25 -0.016509194 -3.722333e-18
-0.010129128 0.03852255 0.04200032 -0.038856775 0.03746672 -0.05394968 -0.03266896 0.036446463
-0.004086291 0.029368607 -0.032689653 0.0033446434 0.020461079 -4.1813603e-17 0.045949396 4.124622e-18
-0.010932027 4.4653373e-25 -0.035721198 0.015523261 0.027436301 -0.028770322 -0.044202466 -0.036900934

features.0.bias f4 [50]
00000000: 8062 293d 74cb 8fbc 670e 8ab9 5698 933c
00000010: 12ef 87bc cfee 393c 4384 9e3d 4f66 bb3d
00000020: 28dd 913d 838a 37bd f845 c03b 7d50 cbbc
00000030: bb6e 8ebc 94fc 4d3d d34f 613d 10ff 823d
00000040: c1d3 413b 81e8 b43d dcc4 873d c79f 653d
00000050: 75e6 1e3c 04cd 1a3c 2b6d 55bc 5a73 84bc
00000060: 0886 8c3d b608 913c 1d70 d53c 04c9 89ba
00000070: dc85 2bbb fc03 b63d 4a44 423d a3d4 74bc
00000080: ae55 a83c 88e3 183c 4290 193d 9029 9bba
00000090: 2ab6 58bd b47d 283b 7503 533d c70f 113d
000000a0: 6021 d93c e401 fd3c 7892 583d 486f bebb
000000b0: 596b e2bc 0912 6a3d 28c1 493d 8431 3d3d
000000c0: 9084 2bbc 1f40 283b
0.041353703 -0.017553069 -0.00026332142 0.018016975 -0.01659349 0.01134844 0.07740071 0.09150373
0.0712226 -0.04480983 0.005867716 -0.024818653 -0.017386785 0.050289705 0.055007767 0.063963056
0.0029575678 0.08833409 0.06629345 0.05606058 0.0096985 0.009448294 -0.013026516 -0.016168285
0.06861502 0.017704349 0.026054436 -0.0010512178 -0.0026172316 0.08887479 0.047428407 -0.014943275
0.020548668 0.009331591 0.03749109 -0.0011837948 -0.0529081 0.002570969 0.05151697 0.035415437
0.026505172 0.03088469 0.05287406 -0.0058116056 -0.027639078 0.057146106 0.049256474 0.0461898
-0.010468617 0.0025672985

head.weight f4 [2, 50]
00000000: 7dde e0bd 54f2 cb3c 56e7 dd3d eb4c 10be
00000010: d884 1c3e 42ce ce3c 5776 36be e0f1 2ebe
00000020: 926e f13d 89e4 423d 0be3 bfbd 1921 833d
00000030: c9c5 ad3d 192f 1b3e 4cdb c2bc 9cf6 9ebd
00000040: fbdd 913d 2b53 0bbe b89f 0abe 6465 81bd
00000050: e825 5a3b 815f 5d3d 71a4 173e df30 4cbc
00000060: 2193 fcbd f7dc b93c 94bd 8a3d 2aa5 163e
00000070: 4adf d33d feea 43be eb6e 373d 03ab cc3d
00000080: f93d 72bd 2b62 ab3d c62c 483a 2775 a3bd
00000090: 9e24 47bd 01b6 c63d 3b13 113e ab20 393e
000000a0: b053 193b 8bb7 45bd bbb2 c63d 3a4b 1e3e
000000b0: 6172 25bb 8b49 bfbd 17b8 02be 06da b83d
000000c0: 839b 08be 7725 b63d 5f44 15be 52fe 2c3e
000000d0: f33e 18be 2456 f9bd 93af 03bc 8dee 74bd
000000e0: 987a 6bbc 29fa c8bd 081b 2cbd 15a7 e2bd
000000f0: 1ce1 14be 552a 2cbe bb33 033e 73f8 6c3c
00000100: c2c2 1f3e 7384 113d e862 79bd 9914 39bc
00000110: 790e 2cbe a90c 013e 9908 063e ad12 8cbd
00000120: 85e1 b23c 17b0 b23d ab21 c4bd 5f5b cbbd
00000130: 59f9 f5bd 8bec 13be 1716 113e 06d0 fc3b
00000140: de5c 88bd 7540 ac3b 9a74 d9bd e31a e43d
00000150: 4f73 26be c7f0 fc3d 3c47 c6bd a997 8d3d
00000160: d8e3 3a3c db3b 1dbe ea9e 143e 0c86 d83d
00000170: 1b69 4b3d fb6d 703d cfc8 0dbe 1500 623d
00000180: ce30 8b3d 96b3 e93d 6d68 35be 2cd5 5ebc
-0.10979936 0.024895824 0.108351395 -0.14091842 0.15285051 0.025244836 -0.1781858 -0.17084455
0.11788668 0.04758123 -0.09369477 0.06402797 0.0848499 0.15154685 -0.02378621 -0.07761881
0.071224175 -0.13605945 -0.1353749 -0.06318167 0.0033286754 0.054046158 0.14808823 -0.012462824
-0.1233275 0.022688372 0.067744404 0.14711443 0.103453234 -0.19132611 0.044783514 0.099935554
-0.059141133 0.083683334 0.00076360663 -0.079813294 -0.048618905 0.09702683 0.14167492 0.18078868
0.002339583 -0.048270743 0.09702059 0.15458384 -0.0025245177 -0.09340199 -0.12765537 0.0902596
-0.13340573 0.088938646 -0.14576863 0.1689389 -0.14867763 -0.12174633 -0.008037466 -0.059797812
-0.01437249 -0.09813339 -0.042017967 -0.110670246 -0.14538997 -0.16813023 0.12812702 0.014463532
0.15601638 0.035526704 -0.06088534 -0.011296415 -0.16802396 0.12602486 0.13089217 -0.068394996
0.021836052 0.08724993 -0.09576734 -0.09929537 -0.1201045 -0.14445703 0.14168583 0.007715228
-0.06658338 0.0052567073 -0.10617943 0.11137941 -0.16254924 0.12350612 -0.09681556 0.069136925
0.011406861 -0.15354864 0.14513746 0.105724424 0.049660783 0.058698636 -0.13846134 0.05517586
0.06796418 0.114112064 -0.17715617 -0.013600629

head.bias f4 [2]
00000000: ec55 ac3d fd8e c6bd
0.08414826 -0.096952416
