trained_models/20220214/retiring_adult_coverage/adv_debiasing/mlp_seed0_epochs50_bs128_lr0.0005_decay0.0005_adv_lamb0.01_eta0.005_constrainteo.pt (torch, 6111 bytes, 4 tensors)

features.0.weight f4 [50, 19]
00000000: 4c71 923b 752a bfba 9ec2 a938 2dd2 95be
00000010: 9728 e03a 391e 1d3e 5041 3a3b beab d63a
00000020: 824e 413d 9a5f a2b9 dd22 87bb 8cee ecba
00000030: e202 65ba 846d 24be d479 66bb d304 1f3a
00000040: bafb 8b3e dd9f 663a 2a4c a93a 5dbe 0fbf
00000050: 2f48 833e 812b 1a3e 9064 ccbd 2f4b f3bc
00000060: c8dd fbbd 91c5 9a3b 3470 b83c 07c6 2ebd
00000070: d1b9 68bb f75e 59bd df39 f63a ff16 af3c
00000080: 9c03 02bb a688 cb3b c07b 593d e985 e33b
00000090: eafe 613e c3c4 0e3d a648 503d 711f 133d
000000a0: 76e3 783c 54d3 1c3d 2f9a 3dbd db14 89be
000000b0: 6e01 bbbb 6a49 5abc fc8f 35bd b4a3 e53c
000000c0: b476 efbb 1b07 533d 535e 3d3d d486 0b3e
000000d0: 3d83 3cbd d6b8 4ebb 9410 c53d d82e aebc
000000e0: 008b d4bd ff08 90be de3b 71bb f31a eebb
000000f0: eb43 9a3c d008 2c3c a9b7 51bf f0c4 eabc
00000100: 3958 1ebb b883 61bc ae26 03bc eb8e 2bbe
00000110: 71cf 68bc 5502 bf3c b34b 85bc d024 4c3d
00000120: 40d3 733d aa54 323d 5b41 aa3c f262 1c3e
00000130: 226b 88bd 3406 62bd 7388 973d 0b68 2cbc
00000140: 9677 8abd 424a 313e 7bdb 763c e318 93be
00000150: c19c cf3c 641d 04be d3b9 f0bb e3a0 36bd
00000160: 1fdf fabc a014 62bb 1501 473b 25bb 6c3e
00000170: 39b8 9a3d 1f37 2dbc 4c85 2ebe 30e5 a0bd
00000180: 1ae9 a0bd 7275 963d a27b ccbb c401 fcbc
00000190: 250b 033d 5d60 363e 13f6 8c39 5c68 973d
000001a0: dccc b03c 6af3 7dbb 943e 413c ee81 85bd
000001b0: b961 5c3d b631 cebd b27f 3cbd 7c0c b5bc
000001c0: df1e 383e b0a4 44bb b171 8dba 11cd 6a3b
000001d0: fe3d 8fba af96 84ba 38e8 4d38 484b 6f3b
000001e0: 423e 413a a884 b4b8 1968 e5b9 6f0d 77ba
000001f0: c5b5 093a 58c4 343a c88f 363a 7fcb a238
00000200: 316f 843b 9566 d9ba b3f9 9bba 3ce0 93b9
00000210: b660 c1ba e5e0 223d 113b e1bd edf0 0f3e
00000220: 9857 fcbc e93b 80bd 2262 b33e 755d 01bd
00000230: 87e0 893e 0814 8d3c afa2 393c 2b40 7d3c
00000240: 27f6 613b 91d3 b13c cfa5 39bd 4633 cf3d
00000250: cadb 343b 11b1 883c e62a a63c 38f8 d1bc
00000260: 5621 0439 5460 953a 6e2f b939 a791 96ba
00000270: 1335 d539 d9d6 a6be 0929 79bd dd84 4a39
00000280: a0e9 f03d fcbf 7039 454d 8b3d a75d 5c3a
00000290: 0c19 86ba a785 263a 1b4b e1ba 562b 70bb
000002a0: 67cc 1fbf da2a 0e3b 3361 7e3b 8549 eebd
000002b0: fe4e 023e e267 f6bc 58c4 00bc b1f8 643e
000002c0: 16d2 80be e227 d53c eac2 de3c 0777 8bbd
000002d0: 734d 3abd cf78 743b 5f92 3a3d 83ef 27bd
000002e0: 16b4 933d 39c6 953d cced dd3e 2f83 10bd
000002f0: 33fd 6fbc 596e ae3d 2b8c 0fbd ea11 0e3d
00000300: a98f 643c 0ca4 64bc ca96 f7bb 41ef 0fbd
00000310: 8ba1 a4bc f5f2 573c 29c6 7d3d fc00 5c3b
00000320: d3b9 88bc 5146 1abb b323 e33b c87f 243c
00000330: f3eb 50bf 2c4f b8bd d023 6ebd 6469 fd3b
00000340: ab2c f43c 0d42 393b aec5 c73b 7cb1 763b
00000350: 9250 133c 3df0 8f37 2dc8 13bd f880 553c
00000360: da53 973a a6b5 78bd 3436 4d3b ed95 4fbc
00000370: 1c82 943a c20c af3a e047 7fbb c92e 423c
00000380: ec02 12bf c700 0e3f bfa6 b5ba 5c67 88bc
00000390: 9fba 7c3c 2550 bfbb 664a 9138 1d2e 9bbc
000003a0: 83f5 063a 615a 943e 8e2d 0dbc bc84 653c
000003b0: f199 f9bc b976 91ba 143a 833b 2ffe 1a3b
000003c0: 7c14 fb3a 31c9 eebb 608a 80bc 0bdd 8bbc
000003d0: 5138 5b3f 447f 163c ff0b 9b3a c87e a3be
000003e0: 1af5 0dbc 26e5 963c 9785 f13d 86a5 a9bc
000003f0: c1a4 1dbb 1709 993c 52a0 bd3b 4fce 273c
0.0044690724 -0.0014584797 8.094798e-05 -0.29261914 0.001710194 0.1534356 0.0028420277 0.0016378087
0.04719401 -0.00030970277 -0.004124029 -0.0018076464 -0.00087360863 -0.16057402 -0.003516783 0.00060660875
0.2734049 0.0008797625 0.0012916375 -0.56149846 0.2564101 0.15055658 -0.09980118 -0.029698936
-0.12298161 0.004723259 0.02251444 -0.042669322 -0.0035511146 -0.05306908 0.0018785557 0.02137327
-0.0019838577 0.006211358 0.053096533 0.0069434536 0.22069898 0.034855615 0.050850533 0.035918657
0.01519095 0.038287476 -0.04628962 -0.26773724 -0.0057069575 -0.013323167 -0.044326767 0.028032161
-0.0073078517 0.05152045 0.046232533 0.13625652 -0.046023596 -0.0031543276 0.09622303 -0.021262571
-0.10378075 -0.28131863 -0.0036809365 -0.007266396 0.018831214 0.010500148 -0.8192087 -0.02865836
-0.0024161472 -0.013764314 -0.008004827 -0.16753738 -0.014209614 0.023316542 -0.016271448 0.049839795
0.059527636 0.043537773 0.020783117 0.1527212 -0.06661059 -0.055181697 0.073990725 -0.010522853
-0.067610905 0.17313483 0.015066977 -0.28729925 0.0253433 -0.12901837 -0.0073463707 -0.044587027
-0.03062397 -0.0034497157 0.0030365635 0.23118265 0.07554669 -0.010572224 -0.17043036 -0.07856214
-0.078569606 0.0734662 -0.006240324 -0.03076256 0.03199305 0.17810197 0.0002688622 0.07392952
0.02158206 -0.0038749822 0.011794705 -0.06518923 0.053804133 -0.10068075 -0.046020217 -0.02210068
0.17980526 -0.0030005388 -0.0010791329 0.0035827796 -0.0010928509 -0.0010115708 4.909208e-05 0.0036513377
0.0007371643 -8.607778e-05 -0.00043755842 -0.0009424304 0.0005253221 0.00068957126 0.0006964174 7.762666e-05
0.0040415754 -0.0016586358 -0.0011899978 -0.00028205093 -0.0014753554 0.039765257 -0.10997594 0.1405675
-0.030803487 -0.06261427 0.35035807 -0.03158327 0.26929113 0.017221466 0.011330291 0.015457193
0.0034478994 0.021707328 -0.045324143 0.101172015 0.0027596825 0.016685994 0.020284127 -0.025631055
0.0001260092 0.0011396506 0.00035321288 -0.00114875 0.0004066607 -0.3258579 -0.06083015 0.00019313717
0.117633104 0.00022959703 0.06801847 0.0008406289 -0.0010230853 0.0006352313 -0.0017188521 -0.0036646924
-0.6242127 0.0021693022 0.003881526 -0.116351165 0.12725446 -0.030078832 -0.007859312 0.22360493
-0.25160283 0.026019994 0.027192552 -0.06809812 -0.045484018 0.0037303453 0.045549747 -0.0409999
0.07212083 0.073131986 0.43345487 -0.035281356 -0.01464777 0.08517141 -0.035045784 0.034685053
0.013950267 -0.013955127 -0.0075558173 -0.03514028 -0.020096561 0.013180484 0.06195656 0.0033569923
-0.01669017 -0.0023540447 0.006931746 0.010040231 -0.8161003 -0.08999476 -0.058139622 0.007733511
0.029806456 0.002826813 0.0060965633 0.003764241 0.008991377 1.7158798e-05 -0.036079574 0.013031237
0.0011545375 -0.06072011 0.0031312825 -0.012670022 0.001133028 0.0013355243 -0.0038952753 0.011851975
-0.5703571 0.55469936 -0.0013858898 -0.016650848 0.015425353 -0.0058384114 6.9279966e-05 -0.018942887
0.00051482784 0.28975204 -0.008616818 0.014008697 -0.030468913 -0.0011098004 0.004004726 0.002365004
0.0019155885 -0.0072871675 -0.015690982 -0.017073175 0.85632807 0.009185616 0.0011829137 -0.31932664
-0.008664394 0.018419813 0.11793058 -0.02070881 -0.00240545 0.018681092 0.005786934 0.010242059

features.0.bias f4 [50]
00000000: d6ba f4b9 6de5 2bbf e61a b93d 9e3a 83bd
00000010: 0ff8 313d 6e3a 03be 2925 49bb fbc5 bdbd
00000020: 97db 1a3f 3534 6fbe 77d5 b53b 2119 cf3c
00000030: 789e 89be ea10 92be 6705 2ebf 5811 fe3d
00000040: 8e2f 1e3c 5578 60bd 1b21 833c 163f b13d
00000050: 10fe 02bf b77b a9b8 d01c 283e ed3a 42b9
00000060: f386 febc f67c 013e 307a fbbd 3782 a53b
00000070: 963f e7bd 3820 2d3e db12 0ebe 4f9a 0fbd
00000080: 1ce0 a7ba 48c5 5fb7 1231 41be be87 5f3e
00000090: 769d 05be 7fd5 0dbf ad91 d1bd 470f fabd
000000a0: 2d6d 05bf bc64 c43d 2cd5 f93e 32e4 913d
000000b0: 0272 8bbe bd0a 03bb 0ac6 b53d 158e 263d
000000c0: d1b0 0fbd c8b8 a3be
-0.0004667851 -0.6714695 0.090383336 -0.06407665 0.043449458 -0.12815258 -0.0030692315 -0.092662774
0.6049132 -0.23359759 0.0055491286 0.025280537 -0.26878715 -0.2852853 -0.67976993 0.12405652
0.009654893 -0.054802258 0.016006997 0.08654611 -0.5116892 -8.081592e-05 0.16417241 -0.00018523233
-0.031070208 0.12645325 -0.12279165 0.005050923 -0.11291425 0.16906822 -0.1387438 -0.03505927
-0.0012807879 -1.3337769e-05 -0.18866375 0.21829125 -0.13048348 -0.55403894 -0.102328636 -0.12209945
-0.52119714 0.09589526 0.4879545 0.07123603 -0.2723542 -0.0019995414 0.088756636 0.040662844
-0.035080735 -0.31976914

head.weight f4 [2, 50]
00000000: e8df 7fbe 9a2d 243f a34a 60be 1c1e 0fbf
00000010: 881c 87be 633e 493e e72d caba 678b 93be
00000020: b9b4 1cbf a520 cd3e a731 f73e 05e8 f5be
00000030: 2c42 153f 80a9 e5be 5544 363f 3dfa 9d3e
00000040: ff41 113e e8c1 943e 119f cabe 8cf9 7bbe
00000050: db5d 1c3f c533 c3b9 6982 48be fdff 8337
00000060: bbf5 ecbe 2b9b b03e 4120 7c3e 56b2 bd3e
00000070: 922a 00bf 90c2 9a3e 22ec bb3e 6e62 df3e
00000080: 2d56 f13a fbbc d0b6 0095 ac3e f346 afbe
00000090: 19fb 34be 3761 1a3f 6a86 64be 5b2a 593e
000000a0: a214 f03e 2b98 ad3e c271 033f 1142 67be
000000b0: fd20 a13e 82d1 463d c469 413e 9ad8 953e
000000c0: bca8 d0be 23a4 d23e 3ce2 7e3e 9ec6 24bf
000000d0: 310f 5f3e 7088 0e3f 907c 8a3e 777c 46be
000000e0: 952d d03a 4553 983e 183d 1d3f 9179 cebe
000000f0: f15b f9be 0c65 f93e c490 13bf 3b53 e63e
00000100: b521 36bf 9f46 9dbe a6c4 0ebe fc1e 93be
00000110: 9787 d23e b194 803e bba4 1abf 1d0b b339
00000120: bb71 4a3e fe54 61b7 3df5 ea3e fbd2 b1be
00000130: 8c6b 7fbe 8918 c0be 252c 003f e64d 98be
00000140: 36ad bdbe 86dd dfbe 4d9a f2ba d800 0b37
00000150: f24b b0be 128c ae3e 9f63 343e f6ac 1abf
00000160: 9803 663e 4918 5abe 4e8a f0be 9c9d aabe
00000170: f5b1 03bf c1ff 663e a409 9fbe 6c8f 46bd
00000180: 2007 42be d3f9 97be b96f cd3e 810a d2be
-0.24987757 0.6413208 -0.21903472 -0.5590532 -0.26388955 0.19652705 -0.0015425057 -0.28817293
-0.6121326 0.40063968 0.4828007 -0.4802858 0.58304095 -0.4485588 0.71198016 0.3085498
0.14185332 0.2905419 -0.39574483 -0.24606913 0.6108071 -0.0003723187 -0.19580998 1.573562e-05
-0.46281227 0.34493384 0.24621679 0.37050122 -0.5006496 0.30226564 0.36703593 0.43629783
0.0018412523 -6.2208833e-06 0.33707428 -0.34233817 -0.17673911 0.6030459 -0.223169 0.21207564
0.46890742 0.33905157 0.51345456 -0.22583796 0.3147048 0.048539646 0.18888003 0.29266816
-0.40753734 0.4114085 0.24890989 -0.64365566 0.21783139 0.5567694 0.2704816 -0.19383417
0.0015882725 0.2975103 0.61421347 -0.40327123 -0.48702958 0.48709905 -0.5764277 0.44985375
-0.7114518 -0.30717942 -0.13942203 -0.28734577 0.41119072 0.25113443 -0.6040761 0.0003414982
0.19769947 -1.3430834e-05 0.45890227 -0.34731278 -0.2494337 -0.3751872 0.5006736 -0.29746932
-0.37046212 -0.43723696 -0.001850912 8.285242e-06 -0.34432942 0.3409124 0.17616127 -0.6042017
0.22462308 -0.21298327 -0.46980518 -0.3332337 -0.51443416 0.225585 -0.31062043 -0.04847662
-0.1894803 -0.29682788 0.401243 -0.4102364

head.bias f4 [2]
00000000: 39e5 adbd 4478 9e3d
-0.084909864 0.077377826
