trained_models/20220214/retiring_adult_coverage/adv_debiasing/mlp_seed0_epochs50_bs128_lr0.0005_decay0.0005_adv_lamb0.003_eta0.01_constrainteo.pt (torch, 6111 bytes, 4 tensors)

features.0.weight f4 [50, 19]
-0.00071998115 0.00023170699 -0.0004707731 0.000440902 0.00037939317 -0.0005600235 -0.00064977835 -7.6323755e-05
0.00053695263 0.0005468268 -0.0002383722 9.245138e-05 0.0001332141 0.0004975921 -0.00010461999 -0.00027853908
-1.840326e-05 5.406066e-05 -0.00090396655 -0.58552086 0.2615945 0.19746765 -0.097088374 0.010038102
0.01521777 -0.017469224 -0.0014190461 -0.07961267 0.009309684 -0.02588922 -0.0058173505 0.01848103
-0.029274605 -0.0113265645 0.0736167 0.039073013 0.230907 0.06500722 0.0430546 -0.17734481
0.030734139 0.027023068 0.035913117 -0.558164 -0.0033300868 -0.031234354 0.011099972 -0.008842266
-0.105422795 0.0068461867 0.0017400824 0.13456486 -0.1781885 0.027713057 0.028592817 -0.024029821
-0.061549425 -0.20283833 -0.0740438 0.015534177 0.018374981 0.016346132 -0.7342165 0.032423247
-0.021670707 -0.0039663715 0.0032313191 -0.20749794 0.0014579472 0.0093543185 -0.007643681 0.017443407
0.03924792 0.03721671 0.0372786 0.12771107 -0.16997601 -0.112451255 0.05883548 0.0056543844
-0.041102648 0.15559813 0.03606105 -0.26534942 0.07051512 -0.15750402 -0.02589175 -0.023797236
0.0023007733 0.014601915 0.04135556 0.30366552 -0.020138405 -0.058309868 -0.07477369 -0.087565646
-0.07190577 0.089696236 -0.010936571 -0.08062972 0.0034462945 0.16679175 0.005119563 0.059620816
0.017144356 0.0036409958 -0.11430714 -0.10825091 0.058401916 -0.12706026 -0.086326785 -0.0077675353
0.20985262 -0.004838429 0.007103553 -0.016697349 -0.0030630054 -0.013139333 0.00014357433 0.00088257797
-0.00028479326 -0.0011314348 -0.0045864913 -0.01981238 -0.0018480874 0.007846476 -0.013332962 0.005378378
-0.0064943056 0.008152286 0.009957663 -0.017763002 -0.0048397495 0.0028443274 -0.0002730068 0.014264011
-0.009960903 -0.00016069268 0.009697567 -0.011538754 0.010531333 -0.006567844 -0.018848833 -0.012951022
-0.019503651 -0.019440453 -0.0019053956 -0.02296014 0.011753512 0.0056851627 -0.024059655 -0.022052148
0.0018204722 0.002809293 -0.0008669203 0.008976466 -0.0025971588 -0.64841413 -0.01595254 -0.004070006
-0.026117738 -0.0021896965 0.022630926 0.0030248365 -0.008618651 -0.0036686296 -0.002253833 -0.009864057
-0.32299063 0.0011045876 -0.007483301 -0.059885073 0.045610994 0.004406872 -0.009698589 0.21765812
-0.30615517 -0.0045672012 0.005863932 -0.09311427 -0.025554603 0.00563662 -0.0398904 0.059251733
0.08192645 0.060432613 0.44132966 -0.04906066 -0.0046381894 0.09974128 -0.0063623814 0.018021965
0.03026657 -0.009435028 -0.01062279 -0.035459537 -0.04349519 0.018319001 0.025195442 0.02236285
0.0074294787 0.00025949595 0.0098599885 0.0027871686 -0.8667576 -0.08906536 -0.0195766 0.023277538
0.030533327 0.0031854375 0.008255444 0.0086492 0.017227514 -0.0028803363 -0.071065426 0.017243458
0.012850319 -0.10102077 0.0097869 -0.019730654 0.0033119011 0.025294356 -0.007155328 0.02832989
-0.5188499 0.52267563 0.004212563 -0.036513206 0.012967718 -0.0063311593 -0.0029472304 0.0045470707
0.00436114 0.24189241 -0.010293509 -0.008818569 0.09293226 -0.0008724016 -0.0031616844 0.0106064025
-0.13610534 -0.00032785058 -0.019556956 -0.02174849 0.90538687 0.004787654 0.01197999 -0.006061551
-0.006311796 0.0012773196 -0.0029199438 0.0024398006 0.2787305 0.020654319 0.010521565 0.07114736
00000000: 1ebd 3cba 5ff6 7239 19d2 f6b9 dd28 e739
00000010: 4ae9 c639 8ace 12ba e355 2aba 0110 a0b8
00000020: 48c2 0c3a ed58 0f3a 8df3 79b9 75e2 c138
00000030: 63af 0b39 d770 023a 6e67 dbb8 e208 92b9
00000040: b360 9ab7 31bf 6238 2bf8 6cba b2e4 15bf
00000050: b7ef 853e f634 4a3e 45d6 c6bd da76 243c
00000060: f453 793c 9e1b 8fbc 49ff b9ba f80b a3bd
00000070: a587 183c a115 d4bc 799f bebb 8765 973c
00000080: 4cd1 efbc 0e93 39bc 5ac4 963d 060b 203d
00000090: e272 6c3e 8122 853d 055a 303d e199 35be
000000a0: 29c6 fb3c 7b5f dd3c a219 133d d6e3 0ebf
000000b0: 963d 5abb 30df ffbc a8dc 353c 27df 10bc
000000c0: e8e7 d7bd fa55 e03b 7a13 e43a 5fcb 093e
000000d0: 0c77 36be 7e06 e33c 7c3b ea3c 30da c4bc
000000e0: 401b 7cbd dab4 4fbe 47a4 97bd 1083 7e3c
000000f0: 2187 963c 53e8 853c 9df5 3bbf 3dce 043d
00000100: c486 b1bc 56f8 81bb 8ac4 533b 577a 54be
00000110: 9718 bf3a db42 193c d877 fabb 7ae5 8e3c
00000120: 6dc2 203d 8d70 183d 72b1 183d b1c6 023e
00000130: 310e 2ebe d84c e6bd 79fd 703d 6a48 b93b
00000140: 405b 28bd 1e55 1f3e c0b4 133d e1db 87be
00000150: 3b6a 903d bc48 21be ef1a d4bc 6cf2 c2bc
00000160: 92c8 163b df3c 6f3c 7364 293d 0c7a 9b3e
00000170: 4cf9 a4bc 54d6 6ebd f322 99bd 9e55 b3bd
00000180: 5543 93bd a9b2 b73d 4e2f 33bc 3221 a5bd
00000190: 3adb 613b 75cb 2a3e 02c2 a73b f534 743d
000001a0: 5272 8c3c c69d 6e3b dd19 eabd a7b2 ddbd
000001b0: d936 6f3d 161c 02be 19cc b0bd cf86 febb
000001c0: 9be3 563e af8b 9ebb ecc4 e83b e1c8 88bc
000001d0: b4bc 48bb 5b46 57bc 718c 1639 ce5c 673a
000001e0: 4e50 95b9 a74c 94ba 474a 96bb 934d a2bc
000001f0: 863b f2ba 818e 003c 7f72 5abc 1b3d b03b
00000200: 2fce d4bb 2a91 053c 7725 233c b783 91bc
00000210: c396 9ebb e567 3a3b 5a22 8fb9 99b3 693c
00000220: 0e33 23bc 9d7f 28b9 8be2 1e3c 0b0d 3dbc
00000230: 9d8b 2c3c 1237 d7bb de68 9abc 8630 54bc
00000240: 1fc6 9fbc 9641 9fbc 78be f9ba e716 bcbc
00000250: cd91 403c 9a4a ba3b c118 c5bc b5a6 b4bc
00000260: e99c ee3a 1e1c 383b 0942 63ba 0712 133c
00000270: 1835 2abb 78fe 25bf e7ae 82bc af5d 85bb
00000280: def4 d5bc 0381 0fbb 7e64 b93c 563c 463b
00000290: 3e35 0dbc 646d 70bb 0bb5 13bb db9c 21bc
000002a0: 075f a5be cfc7 903a 7b36 f5bb 0d4a 75bd
000002b0: 98d2 3a3d 8667 903b d5e6 1ebc c5e1 5e3e
000002c0: 5fc0 9cbe 76a8 95bb 3a26 c03b b2b2 bebd
000002d0: e357 d1bc 65b3 b83b 1e64 23bd f2b1 723d
000002e0: 0ec9 a73d 3088 773d f6f5 e13e d5f3 48bd
000002f0: f4fb 97bb 2845 cc3d 867b d0bb cda2 933c
00000300: 99f1 f73c 6095 1abc 360b 2ebc 053e 11bd
00000310: 0328 32bd bb11 963c ac66 ce3c 4c32 b73c
00000320: fc72 f33b f50c 8839 ca8b 213c eea8 363b
00000330: d3e3 5dbf e667 b6bd 1b5f a0bc 89b0 be3c
00000340: 0721 fa3c c6c2 503b d741 073c 60b5 0d3c
00000350: b720 8d3c 06c4 3cbb c08a 91bd 2742 8d3c
00000360: 258a 523c fae3 cebd 3c59 203c 2ea2 a1bc
00000370: 7b0c 593b 1c36 cf3c 3e77 eabb 1614 e83c
00000380: 59d3 04bf 12ce 053f 8a09 8a3b df8e 15bd
00000390: 8d76 543c 9d75 cfbb 5226 41bb 98ff 943b
000003a0: e5e7 8e3b a5b2 773e 1ba6 28bc c27b 10bc
000003b0: 4553 be3d e1b1 64ba 4334 4fbb 7ac6 2d3c
000003c0: 335f 0bbe 5ce3 abb9 e935 a0bc e429 b2bc
000003d0: 6fc7 673f c1e1 9c3b b847 443c fa9f c6bb
000003e0: 2fd3 cebb bc6b a73a 875c 3fbb 10e5 1f3b
000003f0: c4b5 8e3e 3f33 a93c a462 2c3c b5b5 913d

features.0.bias f4 [50]
-0.0014860586 -0.68815404 -0.049184337 -0.09492968 0.068582505 -0.11115841 -0.0054734265 -0.01441947
0.23388246 -0.18154687 -0.0414517 0.048089106 -0.3398183 -0.7071214 -0.655972 0.014613599
-0.13203198 -0.064950235 0.032073647 0.13920256 -0.5184514 -0.007134336 0.00013745957 -0.00071365334
-0.022559809 0.11641692 -0.1252417 -0.0020104363 -0.20867175 0.09105216 -0.008922805 -0.11123392
-0.06700329 -0.012883322 -0.17219883 0.088917784 -0.19931 -0.5937417 -0.035925522 -0.18661456
-0.6293918 0.08403855 0.48863587 0.23301505 -0.15482326 -0.33762768 -0.006687293 0.055921942
-0.0456655 -0.18875943
00000000: dac7 c2ba dd2a 30bf 8475 49bd 7e6a c2bd
00000010: fc74 8c3d 05a7 e3bd 6e5a b3bb a43f 6cbc
00000020: e27e 6f3e 6ce7 39be 42c9 29bd 15f9 443d
00000030: aafc adbe e805 35bf c8ed 27bf e06d 6f3c
00000040: 6433 07be a104 85bd a85f 033d 1e8b 0e3e
00000050: 3bb9 04bf 26c7 e9bb 0623 1039 7714 3bba
00000060: 59cf b8bc ff6b ee3d 5c3f 00be 86c1 03bb
00000070: 0cae 55be 8e79 ba3d f530 12bc 9cce e3bd
00000080: 0539 89bd 9214 53bc e454 30be 871a b63d
00000090: ec17 4cbe 75ff 17bf a426 13bd e317 3fbe
000000a0: d21f 21bf 671c ac3d 7b2e fa3e 7f9b 6e3e
000000b0: fd89 1ebe 89dd acbe 1421 dbbb 680e 653d
000000c0: bf0b 3bbd 274a 41be

head.weight f4 [2, 50]
-3.065545e-05 0.641451 -0.37381276 -0.47619665 -0.27455318 0.1943678 -0.00792001 -0.008802953
-0.4220575 0.37818596 0.50434 -0.43880978 0.6216767 -0.66809577 0.69826114 0.25450492
0.42991665 0.25285545 -0.2933526 -0.32134035 0.5711893 -0.29908022 -0.00019296109 -0.000115432966
-0.4239717 0.28695884 0.11777479 -0.00014367921 -0.53357846 0.16755238 0.26644295 0.3507354
0.24332924 -0.0016831188 0.29667592 -0.21632616 -0.22406928 0.5965101 -0.22574985 0.36047283
0.5319818 0.3647899 0.51507306 -0.42133668 0.17089365 0.3665924 0.17509733 0.2460437
-0.45802614 0.22232933 5.5856803e-05 -0.64177394 0.3750029 0.4731868 0.27440354 -0.19475208
0.007983476 0.008848029 0.42295036 -0.38025108 -0.50761163 0.4413949 -0.6227315 0.66691154
-0.69843525 -0.2524689 -0.4269608 -0.25040627 0.29262283 0.32531694 -0.5719786 0.2948461
0.00020141223 0.0001154971 0.42395604 -0.2875093 -0.118794024 0.00018745229 0.53795105 -0.16761667
-0.2680862 -0.34942135 -0.24367881 0.0016944164 -0.29498142 0.2145316 0.22330467 -0.6001777
0.22348508 -0.36148307 -0.5333733 -0.3593035 -0.519124 0.42244688 -0.17326824 -0.36580276
-0.17856996 -0.24168637 0.45635563 -0.22112545
00000000: 0a94 00b8 2236 243f 6364 bfbe 0cd0 f3be
00000010: 3c92 8cbe 5a08 473e eec2 01bc 433a 10bc
00000020: ec17 d8be 97a1 c13e 6d1c 013f adab e0be
00000030: 3426 1f3f 5308 2bbf 3ec1 323f 784e 823e
00000040: 091e dc3e 4576 813e 5032 96be b986 a4be
00000050: 7639 123f 0b21 99be 9955 4ab9 9a14 f2b8
00000060: d212 d9be 45ec 923e e933 f13d 98a8 16b9
00000070: 9998 08bf da92 2b3e 366b 883e 9793 b33e
00000080: 4d2b 793e 189c dcba e8e5 973e 9b84 5dbe
00000090: 6b72 65be e3b4 183f f82a 67be e58f b83e
000000a0: f62f 083f bec5 ba3e d4db 033f 71b9 d7be
000000b0: bffe 2e3e 00b2 bb3e b74c 333e e1f2 7b3e
000000c0: 6782 eabe 4daa 633e c947 6a38 4c4b 24bf
000000d0: 6100 c03e 8a45 f23e 9f7e 8c3e 176d 47be
000000e0: 20cd 023c 53f7 103c f38c d83e 45b0 c2be
000000f0: d6f2 01bf 83fe e13e 556b 1fbf b7ba 2a3f
00000100: a7cc 32bf 9b43 81be 9b9a dabe 4035 80be
00000110: a9d2 953e f18f a63e 316d 12bf 11f6 963e
00000120: 2f32 5339 0937 f238 c410 d93e 6b34 93be
00000130: 484a f3bd d78e 4439 29b7 093f b4a3 2bbe
00000140: 9842 89be 5be7 b2be f086 79be 2e17 de3a
00000150: ce07 97be 2cae 5b3e fba9 643e 3fa5 19bf
00000160: 46d9 643e 4f14 b9be 278b 08bf a1f6 b7be
00000170: 4fe5 04bf f54a d83e 3b6d 31be 804a bbbe
00000180: 0bdb 36be a27c 77be 72a7 e93e b66e 62be

head.bias f4 [2]
-0.21655224 0.21066232
00000000: dfbf 5dbe ddb7 573e
